ngzhii/long/results/train/DQN_dist_30m/learning_rate_actor_0.01/best_model.pt (torch, 160623 bytes, 8 tensors)

layer1.weight f4 [128, 40]
000000 4c a3 53 b0 92 0c c3 2e 57 c5 06 2f cb 6a dc b0
       -7.699341e-10 8.869806e-11 1.2257338e-10 -1.6037459e-09
000010 25 43 e2 2f 5f b6 a8 af 1d 92 48 b0 a9 b5 43 30
       4.115687e-10 -3.0688604e-10 -7.2967216e-10 7.119874e-10
000020 9b 1a 82 2e ca 54 c7 b0 4d 90 52 b0 70 69 18 b0
       5.9164416e-11 -1.4503254e-09 -7.660262e-10 -5.5447114e-10
000030 77 79 1b 30 58 5a e7 b0 03 e0 8d b0 3b f6 00 ae
       5.6561283e-10 -1.6833139e-09 -1.0322768e-09 -2.9322527e-11
000040 44 70 9a ae 51 a6 38 af 3b 16 fd 2f da cf b2 b0
       -7.0230516e-11 -1.679379e-10 4.6036228e-10 -1.301028e-09
000050 b3 47 15 30 36 59 41 30 92 da ee af 19 4a b4 b0
       5.4307775e-10 7.033977e-10 -4.344725e-10 -1.3117784e-09
000060 a7 bf 4d b0 8c 2d e8 b0 9e 88 3d b0 71 23 1b af
       -7.485092e-10 -1.6893167e-09 -6.8951944e-10 -1.4109759e-10
000070 60 da 57 b0 2e 1f 43 2f 47 c3 b4 b0 2e d6 d0 b0
       -7.8526874e-10 1.7746224e-10 -1.3152225e-09 -1.5194865e-09
000080 16 f2 e5 b0 c9 c5 35 30 b6 9c 35 b0 b2 d0 26 b0
       -1.6730748e-09 6.6128486e-10 -6.6070116e-10 -6.068702e-10
000090 74 27 42 2e 2d af 8c 2f 8e 99 e6 b0 ac 25 a4 b0
       4.4145534e-11 2.5590322e-10 -1.6778345e-09 -1.1943277e-09
0000a0 9f 75 06 30 5f a0 85 af 50 da 95 b0 fd 5b 8f b0
       4.8916066e-10 -2.430651e-10 -1.0903225e-09 -1.0430764e-09
0000b0 85 06 89 b0 ec f6 ad ae 51 e7 6b ac 4e 69 92 30
       -9.969915e-10 -7.910991e-11 -3.3523915e-12 1.0652828e-09
0000c0 42 7a ca 2e e2 81 2e 30 68 4a 7e b0 40 4d fd af
       9.207614e-11 6.3485406e-10 -9.25104e-10 -4.607532e-10
0000d0 ac 56 ca af dd e6 9c 30 13 4b 03 ae 9c 7c 55 af
       -3.680517e-10 1.1416109e-09 -2.985263e-11 -1.9416507e-10
0000e0 3e c7 09 30 60 66 92 b0 04 55 9a 30 83 4e 69 ae
       5.012345e-10 -1.0651995e-09 1.1229138e-09 -5.30478e-11
0000f0 53 e5 f8 2f 53 d5 0f b0 f8 b4 6d b0 68 9e a3 30
       4.5273882e-10 -5.232625e-10 -8.647727e-10 1.1904833e-09
000100 61 1b 93 b0 c3 d1 51 b0 79 a3 77 af 4b ef 21 af
       -1.0703439e-09 -7.6331846e-10 -2.2522596e-10 -1.4727879e-10
000110 99 f0 23 2e 45 80 6f 2f 19 47 c0 af 43 43 d9 2f
       3.7275603e-11 2.1782494e-10 -3.4975114e-10 3.9519862e-10
000120 d2 27 f6 af 7d a7 9b b0 19 d2 28 b0 de 9a 84 b0
       -4.4775433e-10 -1.1325337e-09 -6.141661e-10 -9.64828e-10
000130 e4 68 2b af e1 c6 8c 30 e9 6b 94 b0 9d ad 55 30
       -1.5589624e-10 1.0242865e-09 -1.0799087e-09 7.773567e-10
000140 8c 81 81 2f 6e 45 a8 b0 3d 26 f9 b0 32 65 5f 2f
       2.3557012e-10 -1.2243342e-09 -1.8128002e-09 2.0317684e-10
000150 73 7d a6 2e a2 f8 72 b0 42 88 e3 2e c2 3a 8b af
       7.57109e-11 -8.8392416e-10 1.0346969e-10 -2.5325703e-10
000160 c9 02 0c b0 94 87 87 b0 bd 74 ce 2f 77 9e 70 2f
       -5.093566e-10 -9.861076e-10 3.755413e-10 2.1884171e-10
000170 b9 e6 9c 2f 4b 97 70 b0 55 4e 93 b0 0e 5d aa ae
       2.8540173e-10 -8.752649e-10 -1.0717921e-09 -7.747235e-11
000180 6f 1c ad 2f aa bb 9d 2f 40 fd 52 b0 0e f1 91 b0
       3.148872e-10 2.8691477e-10 -7.6757445e-10 -1.061865e-09
000190 6e 97 7d 2e 2d 80 8d 2e 8f 9b a6 b0 3d 0b d6 b0
       5.7660036e-11 6.434706e-11 -1.2122302e-09 -1.5573743e-09
0001a0 42 c2 bb b0 18 12 28 2f c6 60 74 b0 c9 de 78 b0
       -1.3661252e-09 1.5285939e-10 -8.8904206e-10 -9.053847e-10
0001b0 1c 43 03 30 8b 54 eb 2f 1f 83 bf b0 7c 11 0a b0
       4.775289e-10 4.2806322e-10 -1.3934346e-09 -5.0228954e-10
0001c0 bf 1d 0d 30 0d d9 1e 30 46 29 d9 b0 2f b7 09 30
       5.1337773e-10 5.7788513e-10 -1.5800559e-09 5.010063e-10
0001d0 de fd 70 af fc 3b 80 b0 6e c6 9a b0 c6 82 82 b0
       -2.1918065e-10 -9.330274e-10 -1.1261372e-09 -9.495913e-10
0001e0 b3 c4 cf b0 ad bb a9 2f c0 c4 07 b0 ae 8e 11 af
       -1.5117138e-09 3.0874273e-10 -4.939231e-10 -1.3238363e-10
0001f0 df e3 44 ae da af 0d 30 6b 2d 96 b0 82 14 8b 2f
       -4.476763e-11 5.15454e-10 -1.0926845e-09 2.5298524e-10
000200 03 19 cb b0 16 0d 5d ac 77 4a 30 b0 9b ff 8c af
       -1.4777303e-09 -3.1413253e-12 -6.413425e-10 -2.564747e-10
000210 b4 e9 8c ae 48 0d 3b b0 26 7d b7 ae 9f e2 c4 af
       -6.407977e-11 -6.804908e-10 -8.3441073e-11 -3.5813216e-10
000220 6d 56 ac 2f 23 9b 12 b0 79 7b 0e 30 9c 1e c9 b0
       3.1348027e-10 -5.3334953e-10 5.1834764e-10 -1.4633375e-09
000230 0f 97 59 b0 b4 48 86 ae 23 fb be ad 90 06 b1 b0
       -7.915881e-10 -6.106529e-11 -2.1712026e-11 -1.288031e-09
000240 35 cd b3 2f b2 23 b8 af 3c 11 ae af bb 26 0f 30
       3.270572e-10 -3.3494768e-10 -3.166266e-10 5.2078136e-10
000250 78 b6 33 b0 a1 d3 0d 30 ed 21 fa af 62 15 d2 b0
       -6.5379124e-10 5.1596244e-10 -4.549884e-10 -1.5285588e-09
000260 c6 ba 58 b0 05 95 1a b0 a8 3a 27 30 8c 1c ca b0
       -7.8845763e-10 -5.6236643e-10 6.08376e-10 -1.4705548e-09
000270 3d d7 d8 b0 1c ad 62 b0 c2 6d a2 2f b0 7d 32 2f
       -1.5777243e-09 -8.2464324e-10 2.9545616e-10 1.6233659e-10
000280 0c ad da b0 2e 4e e0 b0 bf 43 a6 2f 54 b7 29 ae
       -1.591077e-09 -1.6320365e-09 3.024336e-10 -3.858898e-11
000290 e3 9f 1e b0 48 9f 12 2f 94 65 e1 2d 8c ef 33 b0
       -5.770728e-10 1.3335211e-10 2.5624648e-11 -6.546024e-10
0002a0 70 fa 3f b0 94 8e 6d b0 31 7f 06 30 a8 69 00 b1
       -6.984129e-10 -8.6422713e-10 4.8929666e-10 -1.868651e-09
0002b0 9b cf d2 af c2 a5 52 b0 30 00 ce af eb 46 0f b0
       -3.834629e-10 -7.663311e-10 -3.7471315e-10 -5.212388e-10
0002c0 70 84 49 b0 61 76 f1 b0 e9 0b ea b0 5b 0f 7e af
       -7.331158e-10 -1.7568703e-09 -1.7029126e-09 -2.3106621e-10
0002d0 fb 13 04 30 35 bb 9a af 7e ad 94 b0 5b b2 8c b0
       4.8049714e-10 -2.8145455e-10 -1.0817727e-09 -1.0237032e-09
0002e0 7b 0d 23 30 6c 62 21 b0 ab 8a ff b0 33 c9 b2 b0
       5.931821e-10 -5.8711325e-10 -1.8593104e-09 -1.3008389e-09
0002f0 61 80 6e b0 bb 16 3a 2f 76 c7 bd b0 4c 69 11 30
       -8.6766333e-10 1.6924677e-10 -1.380825e-09 5.290033e-10
000300 17 0f 0b 30 5a 83 fe b0 72 8a c6 b0 fd b2 ab b0
       5.058935e-10 -1.8518265e-09 -1.4445745e-09 -1.2492759e-09
000310 7a 5c 83 b0 a5 6e 2a 30 24 02 eb b0 64 5a 86 af
       -9.557788e-10 6.2002875e-10 -1.7099109e-09 -2.4438684e-10
000320 a0 5a 7b b0 29 27 ab 30 19 44 ac af 47 d9 86 30
       -9.1442054e-10 1.2453018e-09 -3.1335004e-10 9.811537e-10
000330 91 fa 2e b0 ae 11 70 30 4c 5e 56 2f 68 66 88 b0
       -6.365691e-10 8.7336616e-10 1.9496688e-10 -9.924408e-10
000340 ae a7 02 b0 12 d3 9b b0 9e 2d 6f 2f 4a b6 9c af
       -4.753201e-10 -1.1337724e-09 2.175313e-10 -2.850576e-10
000350 41 80 24 b0 52 ec 71 2d ba 25 b5 af 4b c3 6d 30
       -5.984511e-10 1.3751738e-11 -3.2950515e-10 8.6497626e-10
000360 a2 33 b8 2f 2a e3 91 2e bc 28 bd af 3f f0 d9 2e
       3.3506092e-10 6.634189e-11 -3.4407843e-10 9.910694e-11
000370 d3 2c e9 2f 1d dd 68 b0 fc 10 f9 2f b8 9e 9a b0
       4.2414303e-10 -8.471533e-10 4.5304904e-10 -1.1250085e-09
000380 57 07 8d b0 a2 8a 83 b0 dd 68 9a af 10 ad 98 30
       -1.0261186e-09 -9.570906e-10 -2.8086947e-10 1.1108643e-09
000390 c0 3d 1a b0 91 b9 6e ad 7c e0 37 2e 1a dc 85 b0
       -5.6112626e-10 -1.3569938e-11 4.1808765e-11 -9.73958e-10
0003a0 d8 23 b1 ad a7 e9 1f 2e 62 18 c7 2f cf 21 86 b0
       -2.0138488e-11 3.635994e-11 3.6215214e-10 -9.759392e-10
0003b0 eb a0 3d b0 19 b6 68 b0 de 32 39 af 62 1b e8 af
       -6.898648e-10 -8.4659885e-10 -1.6843724e-10 -4.222001e-10
0003c0 33 76 cb af 2b a2 1a 30 27 59 10 b0 bc cb 11 2f
       -3.700947e-10 5.625533e-10 -5.251359e-10 1.3260054e-10
0003d0 25 4b ae 2f 75 d1 39 af 83 a5 ea 2f 6e f6 d0 b0
       3.170381e-10 -1.6900066e-10 4.2681955e-10 -1.5204031e-09
0003e0 ae 8d 2a 30 65 3f 7e b0 28 0b ef 2e 78 44 0e b0
       6.204698e-10 -9.249475e-10 1.08704434e-10 -5.17566e-10
0003f0 c3 73 3a 2f a9 7c 41 2f 3a 70 36 2d a6 6f af 2f
       1.6957728e-10 1.7597536e-10 1.03704215e-11 3.1911646e-10

layer1.bias f4 [128]
000000 02 32 e0 2f e8 fa 61 30 8e 26 99 b0 ca 23 9b b0
       4.0780895e-10 8.221108e-10 -1.1143173e-09 -1.1287906e-09
000010 a5 0a 97 b0 55 a8 ee 2f 5a 9d b6 2f e0 f9 77 b0
       -1.0989721e-09 4.3411555e-10 3.3217412e-10 -9.021317e-10
000020 6f 7e af af 03 3f d9 b0 b4 04 fa ae 11 a6 1e 2f
       -3.192215e-10 -1.5806737e-09 -1.1369519e-10 1.4429015e-10
000030 8c 34 8d 2f 8e 8f 00 2f 45 d3 0c b0 c1 d9 47 2f
       2.5685087e-10 1.1692533e-10 -5.1231935e-10 1.8176306e-10
000040 11 40 57 b0 fc 69 90 af dd 44 fc b0 e0 8e 9b b0
       -7.830759e-10 -2.6268754e-10 -1.8354985e-09 -1.1318342e-09
000050 47 50 aa b0 28 e2 5b af bf ec 8e af f9 32 32 30
       -1.2391944e-09 -1.9998281e-10 -2.5997868e-10 6.482846e-10
000060 33 06 ae b0 86 b1 4d 2f f5 21 61 b0 d4 1a 5d b0
       -1.2661928e-09 1.870771e-10 -8.190278e-10 -8.0437457e-10
000070 d8 0a f0 b0 80 4d f3 2f f5 7a ad 2e aa 7c 0d b2
       -1.746538e-09 4.425651e-10 7.888971e-11 -8.2356255e-09
000080 03 c8 9d b0 2f b8 fc b0 2d d6 ab b0 0d 11 31 30
       -1.14801e-09 -1.8387761e-09 -1.250276e-09 6.4416456e-10
000090 e7 b6 aa af fb 70 87 30 bd 8a 87 b0 67 6b 1b b0
       -3.105278e-10 9.854654e-10 -9.861975e-10 -5.65413e-10
0000a0 e1 a0 8e af 36 8b 5f b0 8d 17 36 b0 1b 56 ac b0
       -2.594396e-10 -8.132476e-10 -6.624468e-10 -1.253912e-09
0000b0 dc e9 1a 30 fd 76 9e b0 ff 28 bd 2f 21 d9 c1 b0
       5.635721e-10 -1.1529832e-09 3.440803e-10 -1.410431e-09
0000c0 7f 6b ce 2e 03 cc 21 30 64 7c 5a af 36 d9 60 b0
       9.3868906e-11 5.8861377e-10 -1.9871177e-10 -8.17994e-10
0000d0 90 56 d1 2e 2a 5b 95 2f 82 72 66 af d5 23 80 2f
       9.519596e-11 2.7167718e-10 -2.095906e-10 2.3308525e-10
0000e0 74 dd 2c af 1c b7 c8 b0 43 9f 16 b0 fc 54 48 30
       -1.5721985e-10 -1.4603958e-09 -5.4796007e-10 7.2880346e-10
0000f0 5b 07 d3 2e 83 9d 33 30 25 e0 09 30 3d e6 8a b0
       9.596476e-11 6.534366e-10 5.015884e-10 -1.0106259e-09
000100 90 d2 57 30 bd e3 8e b0 b0 45 40 b0 cc be 50 b0
       7.851577e-10 -1.0396587e-09 -6.9948225e-10 -7.59411e-10
000110 c4 fc 4c 30 bd f8 a1 b0 7f 0e a1 ae f8 8f b3 b0
       7.457397e-10 -1.1784987e-09 -7.3240074e-11 -1.3064883e-09
000120 80 fc e4 2e 68 e3 99 2f 09 78 8b b0 8e ee 4c b0
       1.04130926e-10 2.799212e-10 -1.0147697e-09 -7.4553774e-10
000130 af f6 d2 b0 46 a1 00 af e9 0f f7 af af c1 25 b0
       -1.5349623e-09 -1.1698828e-10 -4.4940343e-10 -6.030189e-10
000140 f5 6f 12 30 30 ea 43 30 e6 8d 81 af 29 5d 1c 2d
       5.327359e-10 7.1273387e-10 -2.3565788e-10 8.888259e-12
000150 02 fd 90 b0 5b 53 35 af fd bb 3d 2e 56 a1 4a b0
       -1.0549288e-09 -1.6491468e-10 4.3140592e-11 -7.3716444e-10
000160 c2 d5 5a af 5d 34 68 b0 d9 6f e9 af 65 47 11 30
       -1.9902927e-10 -8.447552e-10 -4.2461926e-10 5.285215e-10
000170 4a ba 85 af d9 e3 4c b0 80 6c b3 b0 77 ea 24 b1
       -2.4324925e-10 -7.453856e-10 -1.3054802e-09 -2.3998419e-09
000180 69 70 6f 30 a2 cf cb af 9d ac 9d b0 0e 1b 8c af
       8.710744e-10 -3.7073017e-10 -1.1472313e-09 -2.5485075e-10
000190 37 df ea ad 94 05 b7 b0 46 e0 aa 30 32 d6 af ad
       -2.6701847e-11 -1.3316588e-09 1.243287e-09 -1.9990318e-11
0001a0 1d 16 b7 b0 6c d4 6a b0 31 e7 e7 b0 16 fa 25 b0
       -1.3321287e-09 -8.5430574e-10 -1.6873171e-09 -6.0382044e-10
0001b0 60 05 72 30 9e 98 03 b0 07 0e 81 af f6 4c aa af
       8.8046725e-10 -4.7874404e-10 -2.347493e-10 -3.0977504e-10
0001c0 ef 59 c5 b0 2a 70 09 b0 61 89 c4 2d 34 2f 89 2f
       -1.4359197e-09 -4.9999704e-10 2.2343629e-11 2.4953695e-10
0001d0 d4 40 2e b0 5b b6 4f 30 9a 4a 5e 30 53 79 56 30
       -6.339296e-10 7.5565304e-10 8.0869145e-10 7.802516e-10
0001e0 dd 7d 1d 30 63 7b 07 30 e3 c8 9d b0 84 c6 7a b0
       5.729513e-10 4.9288057e-10 -1.1480349e-09 -9.123158e-10
0001f0 a9 4e ed ae 2f 04 7b 2f 03 a9 47 ae 5f 22 b2 b0
       -1.0791485e-10 2.2829803e-10 -4.5397474e-11 -1.2960973e-09

layer2.weight f4 [128, 128]
000000 39 1d 4c 2e 9a f6 45 2d 31 2a 58 af 8b 12 cc af
       4.6410185e-11 1.125291e-11 -1.9660075e-10 -3.712056e-10
000010 ff 2d 46 ae fb 19 26 b0 c7 a5 1f b0 7c 54 39 ae
       -4.506084e-11 -6.042737e-10 -5.8079447e-10 -4.2139167e-11
000020 21 af e9 af c7 57 ad 2f 5e 0e 34 2f df ae 6a af
       -4.250689e-10 3.1530886e-10 1.6376009e-10 -2.1344303e-10
000030 b2 62 24 30 76 ad f4 2d 19 1a 38 b0 63 a8 d1 ad
       5.9803107e-10 2.781662e-11 -6.6975897e-10 -2.3835328e-11
000040 3d 52 26 af 7f d4 23 b0 09 04 a2 2f 7d a2 21 2f
       -1.5126829e-10 -5.960103e-10 2.9470495e-10 1.4700592e-10
000050 f2 f3 58 2e f1 8c a5 2d 7e d2 24 af 4d a8 b9 af
       4.932938e-11 1.8820919e-11 -1.4990495e-10 -3.377089e-10
000060 d6 a8 34 30 4d 81 89 af 2f a2 20 b0 c8 e0 7c 2f
       6.572355e-10 -2.5012029e-10 -5.843814e-10 2.2999125e-10
000070 6a d5 17 b0 e1 ad 71 af 87 36 20 30 57 6b 0a b0
       -5.523676e-10 -2.1980597e-10 5.828515e-10 -5.0356647e-10
000080 f2 9a 24 b0 f8 07 82 ae 6a 21 bb 2f 6a a0 03 30
       -5.9883043e-10 -5.913131e-11 3.4038844e-10 4.7885484e-10
000090 41 b4 16 30 05 16 7a ae ee 5a 94 b0 fd 1a 20 30
       5.482584e-10 -5.6862976e-11 -1.0794261e-09 5.8246014e-10
0000a0 93 76 0b ad 82 8a 6e b0 e2 ad ff ae 18 95 64 b0
       -7.927564e-12 -8.6780727e-10 -1.1626945e-10 -8.315779e-10
0000b0 88 31 a7 ae 6b b8 c4 af ea e5 3f b0 03 b6 6f b0
       -7.603079e-11 -3.578323e-10 -6.981212e-10 -8.720635e-10
0000c0 9a 8f 56 b0 ae 67 1d b0 84 d2 1f af d4 f8 f5 2d
       -7.8056817e-10 -5.7263605e-10 -1.4535756e-10 2.7963777e-11
0000d0 ac b5 af af a7 a7 2a b0 aa 65 2e af 9a c6 72 b0
       -3.19614e-10 -6.208389e-10 -1.5861326e-10 -8.8321317e-10
0000e0 17 96 2b 30 7e 48 c5 2f 70 f7 1c 2f 5d 49 2a 2f
       6.242273e-10 3.58856e-10 1.4276025e-10 1.5487474e-10
0000f0 38 f7 d2 af 2d e2 2e 30 26 42 a4 2e dd d2 32 b0
       -3.8374437e-10 6.3622246e-10 7.469607e-11 -6.505568e-10
000100 91 88 37 30 fd 09 62 b0 1d 99 03 30 38 6a d2 2f
       6.6769085e-10 -8.2232515e-10 4.787511e-10 3.827425e-10
000110 a0 06 1d 2f 40 e3 3a b0 82 b8 52 af df c9 4d 2f
       1.428142e-10 -6.798935e-10 -1.9164939e-10 1.871636e-10
000120 da e1 1b b0 83 7e 44 b0 be 75 3e b0 9a 87 0f 30
       -5.6709626e-10 -7.148417e-10 -6.928892e-10 5.22158e-10
000130 2e d0 16 30 bb 4d 9a 2f 9b 62 e5 2e 48 23 1a b0
       5.4865523e-10 2.8067668e-10 1.043123e-10 -5.607501e-10
000140 75 20 87 af 1f 95 3a b0 79 41 a2 af fc 4d 05 30
       -2.457942e-10 -6.787832e-10 -2.951415e-10 4.849594e-10
000150 0c cf 02 b0 b0 c3 7d af 13 07 5f b0 f0 75 36 b0
       -4.7587956e-10 -2.3079738e-10 -8.113698e-10 -6.6378814e-10
000160 c7 4f 28 2f b3 57 f8 af 15 92 99 b0 b0 ae c3 2f
       1.5307854e-10 -4.517325e-10 -1.1173734e-09 3.5594416e-10
000170 56 8f 6d af 6b 25 78 b0 75 98 cd 2f 7e 87 25 b0
       -2.1605948e-10 -9.027505e-10 3.739761e-10 -6.0219196e-10
000180 46 38 1e b0 7b 15 98 af a8 04 1c 2c c8 1c 28 30
       -5.7560035e-10 -2.7663902e-10 2.2171518e-12 6.1158945e-10
000190 68 1f 33 b0 83 e4 4e 2f 0e b2 d5 af 52 95 21 b0
       -6.516445e-10 1.8816775e-10 -3.887099e-10 -5.8783656e-10
0001a0 78 81 34 b0 27 d0 83 af f1 b2 13 b0 94 ce 3f 30
       -6.5667605e-10 -2.3976662e-10 -5.373258e-10 6.977896e-10
0001b0 91 6a 9d af 35 a1 6b 2f 51 08 02 af 19 72 e3 ae
       -2.8633854e-10 2.1430398e-10 -1.1826386e-10 -1.0343033e-10
0001c0 ff 16 19 b0 c1 8f 11 30 93 3c e6 2e 72 a9 4f b0
       -5.5693755e-10 5.295498e-10 1.0469949e-10 -7.554696e-10
0001d0 92 bd 93 b0 bd d5 24 2e 43 e7 1b 30 6a 30 1f 2f
       -1.0749537e-09 3.747912e-11 5.6717314e-10 1.4478166e-10
0001e0 b8 dc c4 af 94 a5 b6 2e a2 53 1f 2f 46 d3 67 af
       -3.5809022e-10 8.3058144e-11 1.4490678e-10 -2.1084387e-10
0001f0 a9 9d 9a af 07 c3 8d b0 25 56 b1 2e 51 3f df ae
       -2.812446e-10 -1.031453e-09 8.0643305e-11 -1.0152113e-10
000200 ab 96 1c 30 2e d3 3e 30 53 7b 2a b0 2e d2 1c b0
       5.696658e-10 6.94217e-10 -6.2020894e-10 -5.705115e-10
000210 7f 19 5d af eb ca 29 b0 74 f2 8d af f7 89 ed af
       -2.0108891e-10 -6.1770206e-10 -2.5820024e-10 -4.320808e-10
000220 dc 05 19 30 c0 e0 97 2f b0 c3 80 2f d4 1f 24 b0
       5.56694e-10 2.7626434e-10 2.342211e-10 -5.9708083e-10
000230 d5 a6 aa 2f 25 aa d4 2f a1 3b ff af b3 4e f5 2f
       3.104136e-10 3.868347e-10 -4.64266e-10 4.462116e-10
000240 46 a5 37 b0 7c 06 a6 af 3a 03 ff af 13 d9 9a 2e
       -6.680988e-10 -3.0199832e-10 -4.6386522e-10 7.041669e-11
000250 90 f5 b1 2f b0 f1 85 2f aa 7b 1e b0 54 80 b6 af
       3.2370595e-10 2.4364288e-10 -5.76558e-10 -3.319679e-10
000260 31 22 b8 af 52 9f f6 ae d5 02 9a af 2b 70 1d 30
       -3.34937e-10 -1.1215086e-10 -2.801445e-10 5.727567e-10
000270 c1 36 d5 2f cd 26 b0 af 96 65 2f b0 ba 27 1d b0
       3.878338e-10 -3.2041783e-10 -6.380899e-10 -5.717272e-10
000280 f1 8a 5a af 7c 74 1b 30 72 2e e5 ac dc 1d d3 ae
       -1.9876346e-10 5.6554206e-10 -6.513728e-12 -9.600473e-11
000290 3d e8 2a 30 ea 92 cc 2f 3f c1 1c 2f fb 54 a8 ad
       6.217567e-10 3.7211773e-10 1.4256772e-10 -1.9137128e-11
0002a0 71 6c 8f 2f af 90 9b 2f b7 74 0b 30 d8 5c 06 2f
       2.60886e-10 2.829714e-10 5.0733767e-10 1.2220214e-10
0002b0 2f 31 b3 af cf b9 a5 af ca a5 b6 2f 8e 49 3e b0
       -3.2594857e-10 -3.014535e-10 3.3223407e-10 -6.9226125e-10
0002c0 70 68 3c 2f 04 6d bc 2f 26 ba 6b 2f c3 bd 3c 30
       1.7135604e-10 3.427446e-10 2.1439259e-10 6.866367e-10
0002d0 ab 0c 15 b0 bc 67 e3 2f c0 e5 01 af af a9 1c 30
       -5.4223886e-10 4.1364767e-10 -1.1814105e-10 5.6993604e-10
0002e0 53 d5 d3 af 57 26 34 af 39 6a c0 af d0 97 07 af
       -3.8532252e-10 -1.6384526e-10 -3.5000072e-10 -1.2332113e-10
0002f0 d1 b4 96 ad 26 61 25 b0 6c d3 cd af 7a 23 00 30
       -1.7133324e-11 -6.0164707e-10 -3.7439507e-10 4.6616544e-10
000300 07 e8 c7 af d0 07 53 af 01 6f ce 2f a6 cc 05 30
       -3.6362754e-10 -1.9193114e-10 3.7550055e-10 4.867594e-10
000310 aa 1d 33 b0 42 05 28 30 0a b2 13 af d8 84 1e 30
       -6.5161976e-10 6.1125516e-10 -1.3432824e-10 5.766885e-10
000320 f6 f5 23 30 e4 dd cc 2e b4 fd c6 af fe 02 f8 2f
       5.9648586e-10 9.3162617e-11 -3.6196257e-10 4.5113063e-10
000330 5b 50 94 2d 2f f5 15 30 0a a8 d2 af 98 66 52 2f
       1.6861337e-11 5.455431e-10 -3.8318176e-10 1.9135837e-10
000340 3d 48 a8 2f 7b 3e c8 af a3 16 2b b0 03 4c 3d b0
       3.061035e-10 -3.6424183e-10 -6.2241606e-10 -6.886582e-10
000350 af 23 57 2f 62 72 3c b0 8a c0 3b 2f fb b6 e8 af
       1.9566813e-10 -6.855655e-10 1.7075955e-10 -4.233057e-10
000360 8d 98 11 b0 b7 45 52 2f e8 2d 10 30 ef 78 d1 2e
       -5.296748e-10 1.9124156e-10 5.245213e-10 9.525702e-11
000370 50 65 e3 2e 79 ab 39 2e 0a e2 90 2f 75 72 cb ad
       1.03407616e-10 4.221643e-11 2.6354058e-10 -2.3129257e-11
000380 aa 67 de 2f 28 8c 9d af 52 eb a2 2f 9b 1f b8 af
       4.0455223e-10 -2.865772e-10 2.9634833e-10 -3.3491862e-10
000390 5b 36 fb af f4 c0 9d 2e 0a d8 f5 af 8f 0a dc 2f
       -4.5695256e-10 7.173809e-11 -4.4718745e-10 4.002527e-10
0003a0 69 cd 03 b0 59 8b a8 af 95 1f 20 30 08 f5 0b 30
       -4.794943e-10 -3.0658034e-10 5.825254e-10 5.0916116e-10
0003b0 ac ae 05 b0 66 ac 00 30 60 66 b8 ac 4a b9 23 b0
       -4.863334e-10 4.681112e-10 -5.2409604e-12 -5.9562366e-10
0003c0 a8 18 09 b0 d1 d5 ef 2f e8 5b 3f b0 3f a4 0a b0
       -4.987535e-10 4.3625772e-10 -6.9616e-10 -5.0437515e-10
0003d0 b9 11 16 b0 85 d7 99 af e7 4b ed 2f d2 6b 84 2f
       -5.459487e-10 -2.7983674e-10 4.316398e-10 2.408727e-10
0003e0 84 2c 5e 2f e7 45 ed 2f c9 41 55 2d d6 9c e2 2b
       2.0206598e-10 4.3159717e-10 1.21222555e-11 1.6101797e-12
0003f0 f2 15 3c 30 16 0b 3b b0 b6 6f c8 af 19 ef bb ad
       6.842519e-10 -6.804596e-10 -3.6459163e-10 -2.136562e-11

layer2.bias f4 [128]
000000 1c 3d 8c b0 72 0a d3 af 57 95 ff af 76 41 28 b0
       -1.0203709e-09 -3.8388098e-10 -4.6490342e-10 -6.121107e-10
000010 9f dc 92 af 6d ec e1 af a7 62 c6 af 37 58 cc af
       -2.6714006e-10 -4.1095252e-10 -3.6086087e-10 -3.7170064e-10
000020 9d cd 64 b0 4a ec b1 b0 ba 6b b4 b0 0e 39 46 b1
       -8.323811e-10 -1.2945602e-09 -1.3127341e-09 -2.8845224e-09
000030 5c 80 94 b0 b6 19 f5 af 1b bd 1f b0 14 6a 37 b0
       -1.0804899e-09 -4.458351e-10 -5.81126e-10 -6.672576e-10
000040 c1 6c 92 af 9a c1 6f b0 7d f6 ac af a6 9b 8c af
       -2.663452e-10 -8.722282e-10 -3.1461758e-10 -2.5576447e-10
000050 a1 26 1e b0 c0 7e 5c b0 31 c7 92 b0 aa 81 6c b0
       -5.753496e-10 -8.0215656e-10 -1.0679512e-09 -8.6040564e-10
000060 7d 2a 81 b0 5e c3 50 ae 18 1a 64 b0 36 fe ae af
       -9.398061e-10 -4.7467245e-11 -8.2983e-10 -3.1831043e-10
000070 ad c7 3b b0 4c 70 e7 af 6e d9 fb ae 50 d4 bf af
       -6.831396e-10 -4.2098447e-10 -1.1452782e-10 -3.4893555e-10
000080 34 06 aa af 59 89 20 b0 9f 30 80 b0 d9 f1 33 b0
       -3.0927227e-10 -5.8402844e-10 -9.327045e-10 -6.5463507e-10
000090 e6 5a 0f b0 b6 82 eb b0 0c 51 16 b0 06 fd 9e af
       -5.215227e-10 -1.7135651e-09 -5.4684857e-10 -2.8919817e-10
0000a0 bc 55 2c b0 50 53 34 b0 e4 de 2b ae d6 43 92 b0
       -6.269507e-10 -6.560201e-10 -3.9078865e-11 -1.0642178e-09
0000b0 6d f0 ab b0 0c d7 6f b0 e5 b1 90 b0 18 19 3f b0
       -1.2510221e-09 -8.7253293e-10 -1.052794e-09 -6.9521056e-10
0000c0 d4 47 27 b0 50 30 09 b0 e7 0c 40 b0 2e 34 95 b0
       -6.085632e-10 -4.9908966e-10 -6.986753e-10 -1.0856007e-09
0000d0 b9 f6 6e b0 46 e0 95 b0 06 06 c5 af 17 ff df b0
       -8.693451e-10 -1.0904919e-09 -3.583837e-10 -1.6297886e-09
0000e0 4a 88 90 b0 ea 22 75 b0 0b d1 db b0 9a 0b 2f b1
       -1.0516115e-09 -8.9180097e-10 -1.5993761e-09 -2.5472446e-09
0000f0 62 8b 46 b0 b1 e3 4b b0 d4 93 d9 af 01 c9 f5 b0
       -7.2230055e-10 -7.417454e-10 -3.9577108e-10 -1.7883225e-09
000100 d3 7b 8a b2 d2 32 2c b0 eb fd 89 b0 31 dc 50 b0
       -1.6121623e-08 -6.2645455e-10 -1.004023e-09 -7.598287e-10
000110 15 41 11 b0 f2 09 59 b0 d8 bc 77 b0 85 9a 63 b0
       -5.284318e-10 -7.8958273e-10 -9.012644e-10 -8.2801704e-10
000120 06 c3 38 af d3 a4 be b0 53 c8 27 b0 0a 12 83 b0
       -1.6803989e-10 -1.3871165e-09 -6.1038924e-10 -9.536631e-10
000130 5b 26 a4 b0 0c 19 02 b0 57 ba a2 b0 d1 43 a7 af
       -1.1943472e-09 -4.732932e-10 -1.1840012e-09 -3.042531e-10
000140 86 01 1d b1 e3 ab 8d b1 a9 76 43 b0 20 2b 0f b0
       -2.2847373e-09 -4.1231814e-09 -7.1109213e-10 -5.208438e-10
000150 4e ce 27 b0 24 88 a5 af 05 40 05 b0 66 59 11 b0
       -6.104742e-10 -3.011006e-10 -4.8476095e-10 -5.2877736e-10
000160 e6 b5 e6 af dd 52 23 b0 0d b3 2d b0 35 75 69 b0
       -4.1966003e-10 -5.941681e-10 -6.319148e-10 -8.493147e-10
000170 5a c7 10 b0 f9 32 ae b0 3b af 5d b0 4e f4 b2 b0
       -5.267019e-10 -1.2674654e-09 -8.064835e-10 -1.302064e-09
000180 55 e7 4f b0 2a f7 85 b0 77 52 0f af 60 74 0f b2
       -7.5634904e-10 -9.747272e-10 -1.3035072e-10 -8.350156e-09
000190 2d aa 08 b0 9a 41 f4 af 84 e0 4e af 22 da 13 b0
       -4.9718346e-10 -4.4429954e-10 -1.8815355e-10 -5.3788274e-10
0001a0 53 50 17 b1 77 87 9e b0 d5 bd 7c b0 a5 7b 02 b1
       -2.201905e-09 -1.1534514e-09 -9.1946833e-10 -1.8987774e-09
0001b0 3a 6e 54 af fd 9b c7 ae cf a0 b4 b0 b3 71 33 b0
       -1.9320448e-10 -9.0771814e-11 -1.3142428e-09 -6.5281397e-10
0001c0 e2 8f 16 b0 df 7a bb b0 b8 49 7c b0 2a ce 54 b0
       -5.477415e-10 -1.3640963e-09 -9.1781827e-10 -7.741813e-10
0001d0 f4 58 41 b0 ca 1c c8 af 22 12 f5 af bb 05 2d b0
       -7.03394e-10 -3.6400244e-10 -4.4578125e-10 -6.2945177e-10
0001e0 27 e5 4d b0 4f 28 67 af 81 5b 5b b0 35 62 81 af
       -7.490421e-10 -2.1023648e-10 -7.980177e-10 -2.3534744e-10
0001f0 33 a4 93 b0 cc cc 89 b0 5a 63 36 b0 e9 5e 2e af
       -1.0742326e-09 -1.0026269e-09 -6.63524e-10 -1.5858927e-10

layer3.weight f4 [128, 128]
000000 26 68 81 af 82 ef 9c 2f 13 12 00 30 de 39 b7 2f
       -2.3538965e-10 2.8546415e-10 4.6591814e-10 3.3328623e-10
000010 6c a9 2c ad 74 ec 83 af a0 b2 a0 b0 07 73 2b b0
       -9.814687e-12 -2.399677e-10 -1.16923e-09 -6.23729e-10
000020 d1 06 4f af b0 0a 15 30 98 be a2 af 50 f7 e1 af
       -1.8828962e-10 5.422107e-10 -2.9603053e-10 -4.1102988e-10
000030 27 23 de 2f 2a f9 3f 30 55 4e 67 b0 c7 e6 9d ae
       4.0406542e-10 6.983948e-10 -8.4148627e-10 -7.180528e-11
000040 83 be 03 b0 2d 89 d4 2b 43 6d 91 b0 3a 91 07 30
       -4.7928256e-10 1.510158e-12 -1.0581193e-09 4.9319093e-10
000050 81 89 45 b0 18 52 62 2f 34 f4 6d b0 43 87 1c b0
       -7.186359e-10 2.0583746e-10 -8.656713e-10 -5.694469e-10
000060 ea 19 9e 2f 38 e1 27 30 cf 82 8d af e3 73 71 2f
       2.8758446e-10 6.10743e-10 -2.5740696e-10 2.1959994e-10
000070 83 2c ab 2f 59 05 4b 2f 56 7b 2d 30 09 92 9d 2e
       3.1136346e-10 1.8464642e-10 6.3112304e-10 7.1654745e-11
000080 0f c5 b4 2f 08 18 8d af 34 ec b4 2f a1 92 8f b0
       3.2881828e-10 -2.5664826e-10 3.2909642e-10 -1.0446294e-09
000090 fa 7a 87 ae e5 aa 23 af 5d e1 ce 2f 88 5a 0e 30
       -6.160934e-11 -1.4885478e-10 3.7631312e-10 5.178795e-10
0000a0 f1 e6 81 b0 b9 17 3e 30 8b d6 b3 af 6e 91 33 2e
       -9.451623e-10 6.915531e-10 -3.2712352e-10 4.0829055e-11
0000b0 91 5d d3 2f 2e c9 95 af 6b d5 fc 2f 77 a1 2a af
       3.844716e-10 -2.724589e-10 4.5990176e-10 -1.5518774e-10
0000c0 5d 66 aa 2f ad 86 41 b0 01 56 0c 30 22 d3 2f b0
       3.0995553e-10 -7.0404377e-10 5.105392e-10 -6.3964667e-10
0000d0 1e 03 96 b0 85 f0 a4 2f 42 5e 64 af ff 2a ec 2f
       -1.0914822e-09 3.0002326e-10 -2.0769966e-10 4.29587e-10
0000e0 65 49 85 b0 ba cd 72 2f f9 87 9b af e2 42 9c b0
       -9.697884e-10 2.208286e-10 -2.829095e-10 -1.1369503e-09
0000f0 65 28 70 2f ef ec 12 2f f1 05 1a b0 fa db 49 af
       2.1842224e-10 1.3362798e-10 -5.6033317e-10 -1.8358995e-10
000100 7c 91 70 b0 b3 26 68 b0 42 8e 42 2f 37 ac 0e b0
       -8.7518237e-10 -8.4456103e-10 1.7694737e-10 -5.190403e-10
000110 89 68 0a 30 cb fa f7 af 81 50 9a af 94 47 75 af
       5.035266e-10 -4.5107237e-10 -2.8069638e-10 -2.230805e-10
000120 1e 76 91 b0 2a b9 b5 2f 0b 7a 23 30 55 c7 8a af
       -1.058371e-09 3.3055275e-10 5.947249e-10 -2.5243688e-10
000130 7a fd 84 ae ff 23 83 ae 66 4c 81 af d0 c0 23 b0
       -6.0476915e-11 -5.9635845e-11 -2.3519248e-10 -5.957306e-10
000140 c2 df f6 af 28 72 90 ae 7b 0d 23 af 4d ce 5e b0
       -4.490613e-10 -6.56864e-11 -1.4829553e-10 -8.10563e-10
000150 d3 f0 4d 2f a4 18 c3 af 70 19 94 af 30 54 37 b0
       1.87302e-10 -3.5487802e-10 -2.6939118e-10 -6.669465e-10
000160 3b 7c ea ab eb 9c 24 30 76 6d f3 af 23 4c 9e 2e
       -1.6661181e-12 5.9885846e-10 -4.427922e-10 7.198533e-11
000170 e7 81 2c b0 90 5c 6f 2f 35 ae 75 b0 cc 67 fa af
       -6.275784e-10 2.1769808e-10 -8.9378044e-10 -4.5548487e-10
000180 d5 11 63 b0 fa 72 4d 2f 75 37 5d b0 ef 33 20 af
       -8.260746e-10 1.8685489e-10 -8.047814e-10 -1.4570366e-10
000190 61 dc 0f b0 3c 4f a2 b0 37 9e 19 b0 d6 06 ba 2d
       -5.2336274e-10 -1.1809571e-09 -5.588591e-10 2.1148788e-11
0001a0 21 7d 97 b0 d2 b7 04 b0 cf 00 32 af 5a 76 bd 2f
       -1.102226e-09 -4.8282545e-10 -1.6189293e-10 3.4462994e-10
0001b0 d2 e0 c9 ae f9 fd 2c 30 02 6d c2 af 70 2f 20 b0
       -9.180358e-11 6.293415e-10 -3.536585e-10 -5.8275074e-10
0001c0 02 32 0c ae 9f e8 9b ae d6 08 86 af d4 d3 0c 2f
       -3.187673e-11 -7.089906e-11 -2.4380736e-10 1.2808182e-10
0001d0 19 23 cf 2f dd 79 11 2f 9e e6 08 ad 61 18 02 b0
       3.767802e-10 1.3230968e-10 -7.781912e-12 -4.732837e-10
0001e0 a7 0d d7 2f 0c 0f 98 b0 1b d9 a3 2e 07 a9 aa ae
       3.9117973e-10 -1.1063732e-09 7.4509475e-11 -7.76073e-11
0001f0 af 85 aa 2e ca 35 34 30 91 09 b6 af 28 93 ad 2f
       7.754452e-11 6.556006e-10 -3.3112404e-10 3.1573077e-10
000200 64 8b d2 2f 02 32 86 af 15 48 96 2f e7 2a 7a af
       3.829782e-10 -2.440999e-10 2.7336058e-10 -2.275261e-10
000210 9d c8 39 2f 77 62 b9 2f 42 57 61 b0 62 32 28 2f
       1.6896924e-10 3.3721267e-10 -8.1978524e-10 1.529741e-10
000220 38 5a bf ae 1b 99 cd af 91 80 e1 2f 15 5f 79 b0
       -8.7017005e-11 -3.739807e-10 4.1018614e-10 -9.072079e-10
000230 22 17 93 af cc 82 db ab 16 57 6a 2f 21 5d 65 2f
       -2.675558e-10 -1.5597189e-12 2.1313115e-10 2.0860515e-10
000240 a2 88 99 b0 9b 5a 99 2f 98 0f a4 af 07 90 8b 2f
       -1.1171049e-09 2.7894917e-10 -2.9842506e-10 2.538629e-10
000250 c6 d5 e2 2e 2a f6 8c b0 1c 48 80 b0 1c 75 9f ae
       1.0315264e-10 -1.0256305e-09 -9.33372e-10 -7.251286e-11
000260 d8 e2 3e b0 ad ee 04 b0 c6 2b 00 b0 fd bf b9 2e
       -6.944396e-10 -4.83605e-10 -4.6628335e-10 8.44693e-11
000270 96 7c 07 b0 1d ad d8 af 11 aa 1f ae e2 ca 32 b0
       -4.928976e-10 -3.9413176e-10 -3.6303464e-11 -6.5044337e-10
000280 7d 99 89 2f a6 b0 1e 2f 82 37 20 af 6f e8 0c b0
       2.5029215e-10 1.4432774e-10 -1.4571636e-10 -5.126201e-10
000290 50 80 a1 b0 6d 1f b5 af f9 03 07 b0 a1 63 18 2f
       -1.175076e-09 -3.2946038e-10 -4.911836e-10 1.3859715e-10
0002a0 68 93 a1 af b4 58 16 30 6d 90 da ae 8c 0b cc af
       -2.9390468e-10 5.4695737e-10 -9.9391474e-11 -3.7115588e-10
0002b0 34 e6 d1 2e 65 9e 94 b0 98 3d 02 30 2b 1f e5 af
       9.545112e-11 -1.0813436e-09 4.7381254e-10 -4.1677004e-10
0002c0 eb 23 1c b0 b5 5f 1c 2f 94 25 13 30 54 51 ac af
       -5.680351e-10 1.422212e-10 5.353169e-10 -3.1344405e-10
0002d0 10 63 ca af 27 ac b3 2d 62 3f ef 2f 22 a8 34 30
       -3.6813974e-10 2.0426395e-11 4.3518883e-10 6.572255e-10
0002e0 f9 54 12 2f 2d 63 90 ad 1c f0 0b b0 f7 dc 0b b0
       1.3308811e-10 -1.6414948e-11 -5.090912e-10 -5.0881915e-10
0002f0 d3 03 73 2f bd cd 30 af 40 67 10 b0 8b 81 c9 af
       2.210208e-10 -1.60802e-10 -5.253362e-10 -3.6653733e-10
000300 4c 46 4f b0 bc 37 3f b0 dd ed d0 2f 11 9c 9c af
       -7.540606e-10 -6.95646e-10 3.8003992e-10 -2.8487127e-10
000310 86 9f c1 af 08 fc 3c b0 c7 1d cd af e8 0c 17 af
       -3.5219844e-10 -6.875216e-10 -3.731044e-10 -1.3737955e-10
000320 e6 e6 1f b0 a9 66 14 30 ea b2 30 30 94 4f 82 b0
       -5.817199e-10 5.3987975e-10 6.428268e-10 -9.481362e-10
000330 08 4d f0 ae ed 95 d8 2e b4 ac 14 30 a0 1c 85 2e
       -1.092762e-10 9.849175e-11 5.408751e-10 6.0532246e-11
000340 7a fd ad af 59 d4 78 b0 d2 a9 1c b0 d2 ce 75 b0
       -3.1648623e-10 -9.052364e-10 -5.69938e-10 -8.942439e-10
000350 ab 00 d6 2e c7 81 08 b0 96 80 0f b0 44 3d 9c af
       9.731712e-11 -4.9660936e-10 -5.220583e-10 -2.8419767e-10
000360 78 e8 91 b0 bd 02 22 30 7f 46 49 af a4 22 03 b0
       -1.061621e-09 5.893915e-10 -1.8305889e-10 -4.770675e-10
000370 50 33 1d af f4 98 d5 aa 32 78 38 b0 27 c9 82 af
       -1.4297297e-10 -3.7942533e-13 -6.710962e-10 -2.378979e-10
000380 83 b4 b5 ac fa 1e dd ae 5c 15 82 af fc e6 05 b0
       -5.1643702e-12 -1.0055419e-10 -2.366204e-10 -4.8713367e-10
000390 64 5d 3f b0 c7 df 3d b0 a7 0b 27 30 9e f9 2e b0
       -6.961811e-10 -6.9075806e-10 6.0770805e-10 -6.365556e-10
0003a0 0e 58 4a b0 7d 7b 3c 30 42 05 42 b0 83 6a 0e b0
       -7.3612305e-10 6.856949e-10 -7.058426e-10 -5.181066e-10
0003b0 d8 29 06 ae 4a 44 76 2f f4 4e 7d af 6f 80 8b b0
       -3.0505237e-11 2.2397831e-10 -2.3038266e-10 -1.0150084e-09
0003c0 e1 6a 4b 2f f4 c1 c3 af 34 be 8c af b7 14 73 2f
       1.8500713e-10 -3.5608105e-10 -2.5601e-10 2.210808e-10
0003d0 a2 e5 60 ae 68 33 48 af 90 62 8e af 28 f7 3e 30
       -5.1135658e-11 -1.8208157e-10 -2.5899682e-10 6.947283e-10
0003e0 17 d5 c5 ae 96 83 38 ae ac 1c 89 b0 dd d6 4c b0
       -8.996375e-11 -4.1953628e-11 -9.976211e-10 -7.4520107e-10
0003f0 47 aa 73 2f f9 bc 8c 2f d9 6a 12 30 f3 f1 6f 2c
       2.2161216e-10 2.5600125e-10 5.326633e-10 3.4098252e-12

layer3.bias f4 [128]
000000 18 e3 10 b0 27 82 68 af 0a f3 3a b0 0f 8d b7 af
       -5.2709614e-10 -2.1146516e-10 -6.8011785e-10 -3.3387734e-10
000010 a9 54 a3 b0 cb 98 4a b0 40 06 a6 ae 07 58 ed ae
       -1.1883873e-09 -7.3704304e-10 -7.549916e-11 -1.0793149e-10
000020 b3 3c 12 b0 18 e0 70 af 3b 83 73 b0 73 60 80 af
       -5.320075e-10 -2.1907487e-10 -8.8589375e-10 -2.3351596e-10
000030 8e d2 f9 ae c2 f0 11 b0 fd 01 32 b0 83 96 a6 af
       -1.1360611e-10 -5.309283e-10 -6.475885e-10 -3.030217e-10
000040 e6 a2 20 b0 fb 1e 1a b0 f7 29 85 af 0d 18 5a af
       -5.8439154e-10 -5.60689e-10 -2.4222377e-10 -1.9835529e-10
000050 15 67 2b af ab 30 2d b0 a0 18 a7 af fc b6 09 af
       -1.5588981e-10 -6.3006195e-10 -3.039462e-10 -1.2525087e-10
000060 50 9e 99 b0 62 9e 5c b0 12 58 c4 af a8 24 4c ae
       -1.117721e-09 -8.026061e-10 -3.571477e-10 -4.6416787e-11
000070 92 aa 02 af 6d ae 23 b0 f2 00 ba af 03 ac d9 af
       -1.188403e-10 -5.954693e-10 -3.3833875e-10 -3.9594292e-10
000080 d2 4e 15 b0 53 09 7d af 2f b6 1e af 07 6b 3e b0
       -5.4317895e-10 -2.3013529e-10 -1.4434741e-10 -6.927369e-10
000090 b7 4c b5 af 90 b4 32 b0 22 7f a4 b2 7d 17 09 b0
       -3.2978217e-10 -6.501262e-10 -1.9149926e-08 -4.987369e-10
0000a0 b3 38 96 b0 1a b9 cf af 34 24 25 b0 42 10 34 ae
       -1.0930051e-09 -3.7784603e-10 -6.00781e-10 -4.09417e-11
0000b0 72 e2 70 ae 6c 99 37 ae 15 c0 35 b0 c1 18 25 af
       -5.4770806e-11 -4.174565e-11 -6.612038e-10 -1.5015457e-10
0000c0 a3 09 bb b0 fd c8 ab af 61 a4 11 b0 a2 08 37 b0
       -1.360878e-09 -3.124753e-10 -5.298429e-10 -6.658728e-10
0000d0 7a 95 46 b0 1f 0f 49 ae 71 be 1d b0 31 8b dd af
       -7.22444e-10 -4.571554e-11 -5.73869e-10 -4.0298567e-10
0000e0 ed d6 31 b0 13 1f 4e af 18 86 19 b0 dc c5 c2 b0
       -6.4697653e-10 -1.874663e-10 -5.5851634e-10 -1.4171593e-09
0000f0 1f e9 19 b0 dd cb eb af 2e a7 8b b0 dc 30 35 ae
       -5.599236e-10 -4.2891105e-10 -1.0161096e-09 -4.119803e-11
000100 35 4c a7 b0 bb 0f 88 af b8 59 2a b0 3d 85 17 b0
       -1.2172509e-09 -2.4749433e-10 -6.197314e-10 -5.5122823e-10
000110 8b ee 9b af db 3a 1d af 24 87 65 af 20 91 84 b1
       -2.836383e-10 -1.4299976e-10 -2.087544e-10 -3.8582044e-09
000120 2a f6 0c b0 66 8c 4f af d0 cf 05 af c1 52 5c b0
       -5.1281523e-10 -1.887642e-10 -1.217011e-10 -8.0153134e-10
000130 4b 64 e9 af a4 39 e1 b1 07 bd 82 b0 2b fa 89 af
       -4.2453716e-10 -6.554915e-09 -9.51247e-10 -2.509791e-10
000140 61 9e b7 af c8 79 b2 af 52 83 4f b0 a7 c4 cc b0
       -3.340004e-10 -3.2464542e-10 -7.549278e-10 -1.4898845e-09
000150 bb 68 53 b0 ca e9 82 b0 a6 8c 5a b0 cb a5 3b af
       -7.6910184e-10 -9.525192e-10 -7.950781e-10 -1.7066452e-10
000160 60 6a 51 ae f1 e4 ae af 59 bf 25 b0 70 87 a7 b1
       -4.7615578e-11 -3.1813088e-10 -6.029857e-10 -4.875737e-09
000170 15 5a a4 af c6 f9 ff af 96 c7 47 b0 dd 49 73 ae
       -2.9895433e-10 -4.6561704e-10 -7.2679407e-10 -5.5317407e-11
000180 62 b8 96 af 58 fb 51 b2 e6 13 ad af f1 98 60 b0
       -2.7415853e-10 -1.222255e-08 -3.1482655e-10 -8.170807e-10
000190 95 ce da af a6 99 85 b0 90 57 fa af 21 af 9c af
       -3.9800754e-10 -9.720693e-10 -4.5536952e-10 -2.850067e-10
0001a0 8f 9a 86 ae b1 f9 fa ad 2e 8e c9 af 17 80 56 af
       -6.1210696e-11 -2.8532595e-11 -3.6662712e-10 -1.9508693e-10
0001b0 90 0f 2c b0 ae 49 2d b0 e1 ad f1 af 7a 53 5e b0
       -6.259535e-10 -6.304174e-10 -4.3961193e-10 -8.0881757e-10
0001c0 2f c3 a5 af 13 60 2e b0 9b ff a2 af 75 0b 08 af
       -3.0152011e-10 -6.343736e-10 -2.9649247e-10 -1.2373198e-10
0001d0 1c 77 89 af 21 1c ea af 73 fb 10 b0 76 9d 2e af
       -2.5004787e-10 -4.258434e-10 -5.2744226e-10 -1.5881149e-10
0001e0 b8 75 ab af d9 64 20 b0 ab bf 8c b0 9f 3c 3d b0
       -3.1188363e-10 -5.8350974e-10 -1.0240816e-09 -6.8843947e-10
0001f0 2f 76 1a b0 b4 d0 5c b0 7a e4 71 b0 bb fe 00 b0
       -5.619282e-10 -8.033212e-10 -8.7999974e-10 -4.692812e-10

output_layer.weight f4 [9, 128]
000000 c8 53 7a af d8 bc 91 ad bc 75 01 30 45 c8 ef 2f
       -2.2767133e-10 -1.6568455e-11 4.7097237e-10 4.3616147e-10
000010 41 a7 b5 2f 78 77 2c 2f f6 75 51 2f a0 ad f6 2f
       3.304255e-10 1.5685753e-10 1.9050347e-10 4.4870507e-10
000020 ae d2 3a af 78 cf 27 ae 22 49 87 30 8d c1 c5 2f
       -1.699145e-10 -3.8155673e-11 9.843328e-10 3.5971617e-10
000030 b8 cf 67 af 9b a8 d1 ae 14 e5 37 30 f2 2f 4c af
       -2.1083124e-10 -9.53417e-11 6.690055e-10 -1.8570726e-10
000040 c7 ea 9a af 35 ca 83 2f bc 45 7a 2f c2 7c 30 2f
       -2.8179256e-10 2.3972438e-10 2.2762142e-10 1.605143e-10
000050 34 a6 56 2f ff 40 69 af 95 10 72 af 59 e4 8a 2e
       1.9522234e-10 -2.1214318e-10 -2.2015663e-10 6.316076e-11
000060 ff 25 6f ae 93 c1 74 ae 35 c3 e9 2e 85 1f e0 ae
       -5.4376056e-11 -5.5651105e-11 1.0630289e-10 -1.019194e-10
000070 d0 d5 26 2f 11 d0 a0 af f3 88 f1 af f9 83 47 af
       1.5173574e-10 -2.925167e-10 -4.3934953e-10 -1.814583e-10
000080 14 4c a3 ad f7 3a 94 2f 87 dd 85 ae 03 6c 28 2f
       -1.856474e-11 2.696294e-10 -6.087491e-11 1.5317884e-10
000090 2d 1a f2 2f 2e b6 d9 2e b8 e7 b9 2f de 7b b2 2f
       4.4038143e-10 9.900379e-11 3.381595e-10 3.2466024e-10
0000a0 52 70 e7 ae d0 ca a5 af 1c 97 b5 2e 96 f5 29 af
       -1.0524616e-10 -3.0157432e-10 8.2577695e-11 -1.545771e-10
0000b0 47 3b ac ae 3b 8a 30 30 64 cb 21 2d fb b9 0c 2f
       -7.832184e-11 6.4224864e-10 9.196952e-12 1.2799e-10
0000c0 85 6e 6f 2f ba 5c 48 2e 53 a7 a9 2f b1 5c 19 30
       2.1776188e-10 4.5557093e-11 3.0859812e-10 5.57928e-10
0000d0 3b c6 60 ae 5e 82 e6 ae 82 94 5b af 79 71 17 30
       -5.1107767e-11 -1.0482347e-10 -1.9970695e-10 5.5094734e-10
0000e0 97 5c 20 b0 0c 83 15 ac 99 88 dd ae ef 94 d5 2f
       -5.833924e-10 -2.124692e-12 -1.0074181e-10 3.8850298e-10
0000f0 55 51 21 30 0a 28 91 af 23 30 45 b0 d0 a5 a8 2f
       5.868704e-10 -2.6403796e-10 -7.173659e-10 3.067684e-10
000100 99 55 b3 af 30 b5 48 2d 63 eb 2a 2e 46 b2 fa aa
       -3.262073e-10 1.14089155e-11 3.886259e-11 -4.4532623e-13
000110 67 f2 e9 2d 91 f8 03 30 13 38 f1 ae 80 68 8f b2
       2.6596681e-11 4.8010756e-10 -1.0969372e-10 -1.6694912e-08
000120 b5 9b d3 2f 57 11 24 30 3a 40 92 2d 37 0b de ae
       3.8491313e-10 5.9687494e-10 1.66268e-11 -1.0097383e-10
000130 27 3b 20 af e9 77 b2 b2 11 ee b6 2f b6 8d 98 2f
       -1.457293e-10 -2.0776456e-08 3.3274764e-10 2.774933e-10
000140 92 7d e1 2f d7 d6 48 af 82 cd 32 30 ba 8d 02 b0
       4.1016485e-10 -1.826622e-10 6.5048067e-10 -4.749513e-10
000150 35 0d 86 2f 6e 76 ed 2f 6b 82 71 30 67 7b 09 af
       2.4383842e-10 4.3194198e-10 8.7860624e-10 -1.2503919e-10
000160 86 06 d6 2f 47 6a 41 2f 85 8f fa 2e f0 73 12 2f
       3.8931008e-10 1.7591005e-10 1.1394178e-10 1.3319812e-10
000170 a8 23 ff 2f d9 3d 5b 30 e0 c2 7c b0 73 1e 1a 30
       4.6409565e-10 7.9759627e-10 -9.1954e-10 5.6068145e-10
000180 4c a6 d9 2f df dd ca 32 8e 94 f1 2f 39 7a 64 af
       3.959023e-10 2.361679e-08 4.39432e-10 -2.0779901e-10
000190 10 1a 77 af ec 1c bd af 7a f7 b9 af 32 73 68 30
       -2.2473778e-10 -3.439945e-10 -3.3827147e-10 8.456481e-10
0001a0 e6 3d a3 2f 25 9a 17 30 7d 43 1a 2f 5a 0d 1e 30
       2.969351e-10 5.515253e-10 1.4030195e-10 5.749904e-10
0001b0 bc c9 ce ad 3b 2c fa af 23 06 27 b0 2b a2 ec af
       -2.3509077e-11 -4.5506163e-10 -6.0762967e-10 -4.3043377e-10
0001c0 5f 8e 01 30 5e 6b ee 2f 8d 2e e1 ad 85 3d 1c 2f
       4.713225e-10 4.3368237e-10 -2.5600211e-11 1.4209973e-10
0001d0 20 e5 d0 ae a7 53 78 af 3e e6 df 2f 70 02 03 30
       -9.499446e-11 -2.2585188e-10 4.072706e-10 4.7660986e-10
0001e0 34 8f e0 2f e2 6c 7f af 78 2d 64 af 41 50 19 30
       4.0847115e-10 -2.3230798e-10 -2.0752633e-10 5.5775123e-10
0001f0 41 94 08 b0 cb de 88 2f 92 33 8c 2f 66 e1 7c 2f
       -4.9687193e-10 2.489656e-10 2.5502495e-10 2.2999344e-10
000200 b6 96 1f 30 a2 1f 3a ae 13 37 01 b0 3d ee 44 af
       5.8058036e-10 -4.23196e-11 -4.700819e-10 -1.7910735e-10
000210 e0 f6 8b ae a3 80 99 2f 4a dc 66 ae 38 7d 62 2f
       -6.364842e-11 2.792194e-10 -5.24916e-11 2.0599067e-10
000220 01 24 29 30 6f 0c 37 b0 63 9d 31 30 9f 1d 2f 30
       6.1533006e-10 -6.659268e-10 6.4615885e-10 6.3706723e-10
000230 45 3e 1f 30 99 ee 39 30 2c a6 11 30 7f 99 6c 2f
       5.7932353e-10 6.7641676e-10 5.2986837e-10 2.1518608e-10
000240 85 47 9b 2f 73 3c c0 b0 5d be 04 2e bb 5e 45 af
       2.8245153e-10 -1.3987019e-09 3.01824e-11 -1.79507e-10
000250 d9 da d5 af c4 31 03 b0 25 81 25 30 c1 8a 44 af
       -3.8899975e-10 -4.7728244e-10 6.0210176e-10 -1.7875391e-10
000260 12 99 03 af c2 fe 29 b0 78 92 b7 ae 8c 27 e9 af
       -1.1968762e-10 -6.1843874e-10 -8.3478946e-11 -4.2410553e-10
000270 8b 73 30 af 26 05 9d af e8 ad 92 b0 8d cf e8 2f
       -1.6048156e-10 -2.8561792e-10 -1.0672325e-09 4.2348028e-10
000280 c3 3a 8e af 84 21 50 30 b8 55 64 2f 62 4e 04 b0
       -2.5871402e-10 7.571759e-10 2.0766933e-10 -4.813271e-10
000290 b6 8b 03 b0 12 df 82 30 d0 1b c2 b2 ef 4c 77 af
       -4.7856064e-10 9.522145e-10 -2.259722e-08 -2.2491851e-10
0002a0 90 e6 01 b0 2d 74 16 30 2d 70 67 2d 39 e5 e8 2e
       -4.7257576e-10 5.473478e-10 1.3155738e-11 1.0590857e-10
0002b0 39 80 bd ac db 90 6c 2f b5 25 fd 2f dd 4c 15 30
       -5.3859387e-12 2.1515538e-10 4.6047224e-10 5.4315114e-10
0002c0 99 b4 a0 af c2 34 85 af 52 2b 43 af ec 0b 8c ad
       -2.9232153e-10 -2.4230046e-10 -1.7750537e-10 -1.5921452e-11
0002d0 56 b1 3a b0 d7 01 e5 2f 88 4c 1e 30 0d 00 58 af
       -6.7918415e-10 4.1656165e-10 5.758882e-10 -1.9645104e-10
0002e0 0f 25 06 b0 11 c8 3b 30 e7 f0 8f 2f 4e 17 0d 30
       -4.880158e-10 6.8314515e-10 2.618272e-10 5.132862e-10
0002f0 d2 d8 85 2f 71 68 da 2f 1a 02 a7 2f af 93 fa 2f
       2.434662e-10 3.972818e-10 3.0378616e-10 4.557967e-10
000300 e6 68 52 ae 0e 67 1a 2f 30 e5 38 30 3d d4 e9 ac
       -4.784164e-11 1.4042831e-10 6.7264505e-10 -6.6458215e-12
000310 58 6a 06 30 61 c9 95 af f6 05 5b ad 58 5a 7f 33
       4.890004e-10 -2.724603e-10 -1.2450032e-11 5.945398e-08
000320 7f 48 5c 30 be aa 14 30 ec 75 1a 30 0b 44 0e b0
       8.0138557e-10 5.4084726e-10 5.619245e-10 -5.1755994e-10
000330 bf 66 4b 2f de 9e 39 b0 b7 75 82 2f 1e 15 6a ae
       1.8499245e-10 -6.752837e-10 2.3730504e-10 -5.3224196e-11
000340 30 b5 27 2e f0 04 14 30 35 63 24 b0 c8 bb d2 af
       3.813233e-11 5.3849103e-10 -5.9803834e-10 -3.8332204e-10
000350 aa 2d fe 2f 81 f7 8e 2c 9d e6 b3 30 d2 e0 c9 af
       4.6234777e-10 4.063361e-12 1.3089508e-09 -3.6721431e-10
000360 71 c0 04 b0 aa fd 06 2f dd b4 63 af 49 bd 0c 30
       -4.8294796e-10 1.2277349e-10 -2.0709785e-10 5.1200694e-10
000370 0e b7 70 af ba 6e 8e af 94 d4 36 b0 b3 e0 02 31
       -2.1892907e-10 -2.5908325e-10 -6.6513306e-10 1.9045217e-09
000380 eb 2d 32 30 fd 89 50 b2 68 3a b6 af 86 aa 68 2f
       6.4821276e-10 -1.2138568e-08 -3.3147107e-10 2.1160859e-10
000390 60 a4 76 30 d1 94 d2 2e c6 69 17 30 89 d6 94 30
       8.972787e-10 9.5761295e-11 5.5083793e-10 1.0829392e-09
0003a0 b8 67 f5 2e cc e6 ae 30 50 91 25 b0 c3 3d 74 30
       1.1159734e-10 1.2725763e-09 -6.023315e-10 8.885445e-10
0003b0 14 c5 6b 30 8d cc f0 ad c4 eb 3a 2f ec ed 07 30
       8.5772567e-10 -2.737568e-11 1.7000362e-10 4.945082e-10
0003c0 60 e8 ae 2f 86 cf 36 b0 c3 76 c9 2f 30 2e e9 af
       3.1815528e-10 -6.6506123e-10 3.6646072e-10 -4.241527e-10
0003d0 82 da 2f b0 a5 6d 44 30 81 d2 7b af 0a 69 05 30
       -6.397515e-10 7.14602e-10 -2.2903103e-10 4.853439e-10
0003e0 29 ad 29 30 91 55 a3 af 86 bf cc af 7c 1c 2e 2f
       6.1727917e-10 -2.9710326e-10 -3.724347e-10 1.5835327e-10
0003f0 28 a2 26 30 88 a7 ba ae 0e c3 0a b0 9c ee 49 af
       6.0620886e-10 -8.48806e-11 -5.0481297e-10 -1.8365615e-10

output_layer.bias f4 [9]
000000 60 ca 74 3f 2d 96 5d 3f 45 f2 74 3f b2 2f 91 3f
       0.956213 0.86557275 0.95682174 1.134268
000010 8d e8 87 3f 8c 8c 8f 3f df e2 85 3f 44 de 6c 3f
       1.0617844 1.1214767 1.045986 0.9252665
000020 74 db 73 3f
       0.95256734
