ngzhii/long/results/train/DQN_dist_30m/best_model.pt (torch, 160623 bytes, 8 tensors)

layer1.weight f4 [128, 40]
00000000: 3b12 f0bc 2023 0fbc c006 1f3d 7eb3 1b3e
00000010: 29d8 f93c eccf b63a fae2 603d ebaa fdbc
00000020: 8203 0ebe fe0c 943a 1f62 fd3d 2ff3 ce3c
00000030: 8203 b0bb c3af 83bb f577 c6bd 4846 0d3d
00000040: e0d8 1d3d d897 a7bc 9b90 07bc 1ab4 a1bc
00000050: ccfd 073d 1b05 263d 6de7 ccbc 9615 43bc
00000060: d82a 293d 2393 693b b014 9ebb 8fcd 99be
00000070: 65da 5abc fd91 58bc 43f9 803c 6ef5 41bb
00000080: a4da 05bd dd9e 9f3b e935 063d 59ec 1e3d
00000090: 6df2 ae3c 2361 b73c dd0a 013d 2d75 acbb
000000a0: 8627 9b3e b6d3 6f3e 72fd 893e 2776 a2bc
000000b0: a31a 823e 194f 343e b246 323d abae a43e
000000c0: 1465 aa3e f099 823e a9ca 303e cd8e 7f3e
000000d0: 57ff be3e 337d b73e 4b0a 263e 8aed 743e
000000e0: 8676 973e 11ba 683e 040e 8b3e 9c84 9a3e
000000f0: 901a 8e3e 8d69 5d3e 09f6 993e 304e 823e
00000100: ca05 693e 2c52 4d3e 486d 6b3e f006 233f
00000110: da96 983e 4718 693e 2884 873e 4e83 943e
00000120: b521 963e f696 6a3e 8002 2a3e 10ff 953e
00000130: 28f5 893e 34b3 773e 0393 523e 364a 8c3e
00000140: 177a de3d 38bc 9e3d e9b5 123e c858 acbe
00000150: b30a 063e 183b 773e 81a8 89bf 5d80 bd3d
00000160: 899e 46bc 087e a13d 2c33 7f3d 7120 0c3e
00000170: e4b1 533e ff43 2f3e 511b 42bf dbb5 a43d
00000180: 6881 1c3e ee56 db3d 3b07 9e3d f472 123e
00000190: 7747 d03d a445 d1be 152d f43d 48a1 ab3d
000001a0: 0f98 dd3d ca9b d8be a4d6 013e 8eed b73d
000001b0: 28cf 1c3e fe88 ce3d 8321 0e3e abd3 043e
000001c0: bdcf b53d d891 183e 8731 d3be 64d8 183e
000001d0: 992a 033e 4b3a ce3d 0fb1 ddbe 5449 f43d
000001e0: 0a23 283e 02d4 5c3e 3c26 3f3e 07ec 42be
000001f0: c6f1 453e db34 4e3e 2bd1 343d 0e1c 103e
00000200: e838 95bd 76de 6b3e f283 8c3e 82a7 623e
00000210: 674c 2dbe e94d ccbd 1418 3d3e 606f 413e
00000220: 96dc 683e aec4 683e 401b 433e 4a09 3f3e
00000230: 92fd 233e e724 263b 64fc 263e a894 5f3e
00000240: 4422 353e d36d 133c 305e 4e3e b5c7 2fbf
00000250: f43f 243e 4ad0 4f3e ec1a 623e ca7d 313e
00000260: 62ac 553e 4c11 553e 72f6 72bc 72c8 5e3e
00000270: 34e9 513e b252 123e 3554 e23c f4f5 313e
00000280: a6a2 043e 786c eb3d cf53 e63d a86b 80be
00000290: 15df df3d d31b 823e d431 95bf e578 e63d
000002a0: ff38 7b3d d07f 0d3e 034f 883d 602b 1d3e
000002b0: 6001 5e3e f410 533e e447 c1be 1e92 023e
000002c0: f12b 143e 02a9 d73d 4509 0b3e ee07 b53d
000002d0: f0fd d23d 051e fcbe cb6a ad3d 8244 133e
000002e0: b78d c73d 0de6 e4be 5073 dd3d 304c 123d
000002f0: ba4e d13d c0b4 1c3e 73b1 193e edbb e33d
00000300: b68d b53d 7449 023e 278d fcbe a11b 073e
00000310: 2a7a b93d 0a26 003e 7fd3 ecbe 1738 103e
00000320: 6bca 203e 0444 033e 906d ca3d 9246 8b3f
00000330: 1c28 ee3d 1135 293e 2e50 303f dc81 c03d
00000340: c93c 8c3e aa8f 063e e292 a63e 71a6 063e
00000350: faff ad3e e431 a93e 202d 64be 4be0 153e
00000360: b79a e13d 3515 123e 8c5a c63d 2b92 103e
00000370: cbd6 023e fffc cb3e b6de 163e 1ec2 e23d
00000380: 206c 253e 8623 cb3e 909b a73d e8e6 183f
00000390: 4dfa 1c3e 272a ac3d e6c8 093e f828 bc3d
000003a0: 4d66 fe3d 7c4f c13d b9e2 d63e 4414 993d
000003b0: dfdc c63d 6c67 323e 4d28 cb3e 24d1 bc3d
000003c0: 56f6 873e 73a0 8e3e b07c 923e d0f0 103e
000003d0: 8605 973e c709 273e 73a3 423d e1ef 963e
000003e0: 7859 0b3f 40fd 803e 2918 2c3e d6e4 713e
000003f0: 8891 a43e b724 893e 8421 203e 44c6 803e
-0.029305568 -0.008736402 0.038824797 0.1520519 0.030498581 0.0013947464 0.05490396 -0.03096529
-0.13868526 0.0011295376 0.12372231 0.025262443 -0.005371512 -0.004018755 -0.09690849 0.034490854
0.038536906 -0.020458147 -0.008274223 -0.0197392 0.033201024 0.040532213 -0.025012696 -0.011907002
0.041300625 0.0035640679 -0.0048242435 -0.3003964 -0.013357733 -0.0132184 0.015743857 -0.002959575
-0.032679215 0.004871233 0.032766256 0.038799617 0.021355832 0.022385186 0.0315045 -0.005262992
0.3030359 0.23420605 0.26951176 -0.01983173 0.25410947 0.17608298 0.04352445 0.3216451
0.3328024 0.2550807 0.17264809 0.24956818 0.37304184 0.35837707 0.16214864 0.23918739
0.29582614 0.22727229 0.2715913 0.30179298 0.2775464 0.21622296 0.30070522 0.25450277
0.22756115 0.20050877 0.22990906 0.6368246 0.2980259 0.22763167 0.26468015 0.29006428
0.2932259 0.2290915 0.16602516 0.2929616 0.26944852 0.24189454 0.20563893 0.27400368
0.108631305 0.07750744 0.14327206 -0.33661485 0.13090019 0.24143636 -1.0754548 0.09252999
-0.012122759 0.07885367 0.06230466 0.1368425 0.20673329 0.17115782 -0.7582293 0.08042499
0.1528374 0.1070994 0.07716223 0.14301664 0.10169881 -0.40873444 0.11922661 0.08380371
0.108200185 -0.42306358 0.12679535 0.08980857 0.15313399 0.10084723 0.13879971 0.1297137
0.088775136 0.14899385 -0.41248724 0.14926296 0.12809218 0.10069712 -0.43299147 0.11928049
0.16419616 0.2156525 0.18666929 -0.1903535 0.1933051 0.2013735 0.04414479 0.14073202
-0.07286245 0.23034081 0.27444416 0.22134212 -0.16923676 -0.09975798 0.18466216 0.18890142
0.22740397 0.22731277 0.19053364 0.18655887 0.16014698 0.0025351585 0.16307217 0.21834052
0.17688853 0.008998352 0.20153117 -0.68664104 0.16040021 0.202943 0.22080582 0.17333141
0.2086654 0.2080738 -0.014829265 0.21756151 0.20499116 0.14289358 0.027628044 0.1737898
0.1295267 0.11495298 0.11246454 -0.25082135 0.109312214 0.25411853 -1.1655831 0.112535276
0.061333653 0.13818288 0.06655695 0.15348577 0.21680212 0.20611936 -0.3775016 0.12751052
0.14469887 0.105302826 0.13577755 0.08839403 0.10302341 -0.49241653 0.08467635 0.14381602
0.09743827 -0.44706765 0.1081301 0.03571719 0.10220094 0.15303326 0.15009098 0.111198284
0.0886492 0.12723333 -0.4932644 0.13194133 0.09056504 0.12514511 -0.4625511 0.14083897
0.15702216 0.12818915 0.09884179 1.0880911 0.11628744 0.1652415 0.68872344 0.09399769
0.27390125 0.13140741 0.32533938 0.1314943 0.33984357 0.33045876 -0.22282839 0.14636342
0.11015838 0.14265902 0.09685239 0.14118259 0.1277725 0.39841458 0.14733395 0.11072181
0.16154528 0.3967554 0.08183968 0.59727335 0.15329857 0.084064774 0.13455543 0.09187502
0.12421856 0.094389886 0.4196985 0.074745685 0.097100966 0.17422265 0.39679185 0.09219578
0.26555127 0.27856788 0.28610754 0.14154363 0.29496402 0.16312324 0.04751916 0.29479888
0.54433393 0.25193214 0.16806091 0.2362245 0.32142282 0.26785824 0.15637785 0.25151265

layer1.bias f4 [128]
00000000: 61f4 c7bb ed81 fe3e 4c3f 423c 1d45 e83c
00000010: e1d4 25be 605c 573e 5088 e73e 0898 ca3d
00000020: ae56 123c d28b 613e 46d6 e7bd ab52 3a3e
00000030: ec32 043f d3df cfbc 97d9 d03c 47bc a5bc
00000040: 8ba0 96bc ff67 423e 6998 de3e c340 e8bd
00000050: a7b2 b23c 2a6d 3bbd e1f6 843e 4c4e 57bc
00000060: f01c 223d a2af f7bd 5989 a8bc aed5 883e
00000070: ad59 5a3c 56df bf3e 0cef f23e 8353 ddbc
00000080: 5c38 4d3e 56b3 d6bc 96e3 cf3d 3bae 283c
00000090: 4474 d8bc e94e 17be 5783 3cbd bc5b 15bc
000000a0: 0f14 c1bc 48d7 b5bd d057 2cbe 5cfd b93d
000000b0: 86f9 a23d c668 bdbc b250 a53e 5e17 19bd
000000c0: 1832 c6bd 8724 5ebe 3333 bfbc f1fc 013f
000000d0: d2d9 90bc c3ef e6bb 3ca8 ac3d f25f aa3e
000000e0: aa2e 543e 3d47 d8bd f81b f03b ccde 45bc
000000f0: 0aa0 553e d88d 783e fd22 8dbb b63b 083d
00000100: cf9b 9abd 4f4c 32bd f8b6 d0bc a124 3f3e
00000110: 36bd 9bbd b2cf 2e3e a4f1 033f 5c9a 483e
00000120: 02bd c0bc 5aa9 f0bc 08c8 673e 7976 1c3e
00000130: a890 ed3c 3f6f c13b fc43 bfbc 38e8 a13e
00000140: eaec ddbd 3277 443e a686 993e 62c2 ce3c
00000150: ec9d 153b 8a66 e73e 8f08 643c 37b3 5e3e
00000160: c88d 373e cd99 d63b 18fe 82bd 3505 8f3e
00000170: de17 203e 7413 aa3d 4107 0f3d 24e6 14bd
00000180: 4e76 253e a5dd 753d d7bd 6abe 622b fbbc
00000190: e426 003f caff 28bd dfe3 9a3d 6178 253e
000001a0: 2891 013d 1979 3f3e c2bb dbbd ff91 9cbd
000001b0: e51f 88ba e8a7 003d d2c9 c23d 3023 debc
000001c0: a7b2 be3c 3f75 083f 79fa 61be 4ae8 1f3e
000001d0: 4434 fd3c 82d0 323c e6f7 8b3c b3e4 c7bc
000001e0: aa17 a43e 7d82 033f f80e f93e 3965 16bd
000001f0: 12a1 153e 5659 d83b 0a87 bb3c 4f88 b93e
-0.0061021303 0.497085 0.011855911 0.028353268 -0.16194488 0.21031332 0.45221186 0.09892279
0.008931799 0.22025993 -0.11320166 0.18195598 0.516402 -0.025375282 0.02549438 -0.02023138
-0.0183871 0.18984984 0.43475655 -0.11340477 0.021813704 -0.045758404 0.25969604 -0.013141226
0.03957838 -0.12094046 -0.020573305 0.26725525 0.013327044 0.3747508 0.47448003 -0.02701736
0.2004103 -0.02620856 0.101508304 0.010295446 -0.026422627 -0.14776196 -0.046023693 -0.009116109
-0.023569135 -0.08878952 -0.16830373 0.090815276 0.07957749 -0.023121249 0.32288128 -0.0373758
-0.096775234 -0.21693622 -0.023339843 0.5077658 -0.01768199 -0.007047625 0.08430526 0.33276325
0.20720926 -0.105604626 0.007327553 -0.012077045 0.20861831 0.24272859 -0.0043071494 0.03326007
-0.075492494 -0.043529805 -0.025477871 0.18666317 -0.076044485 0.17071417 0.5154059 0.19590133
-0.023527626 -0.029377628 0.226349 0.15279569 0.028999642 0.005903154 -0.023347847 0.3162248
-0.108362034 0.19186094 0.2998554 0.025239173 0.0022829724 0.4519542 0.013918056 0.21748053
0.17925179 0.006549096 -0.06396121 0.2793366 0.15634105 0.08304492 0.034919027 -0.03635229
0.16158411 0.06002583 -0.2292398 -0.030660335 0.5005934 -0.041259564 0.07562994 0.16159202
0.031632572 0.18698539 -0.10729171 -0.07645034 -0.0010385482 0.031410128 0.095111504 -0.027116388
0.023278547 0.53303903 -0.22068204 0.15615955 0.030908711 0.01091397 0.01708598 -0.024401044
0.32049304 0.51370984 0.48644233 -0.036717627 0.14612225 0.0066024465 0.02289154 0.36236808

layer2.weight f4 [128, 128]
00000000: 0161 a4bf 53fc 0a3e 8a5f 1bc0 e1d4 4fbd
00000010: a8c3 abbf 36a9 353e bdd8 6b3e f0eb 0f3e
00000020: af7b f6ba ac7a 673e fd73 f6bf 3267 253e
00000030: 73cf 433e 0e00 84bc 7ba5 673e 26fb 93bc
00000040: b77a 043c d4c3 633e 703a 6a3e a957 96be
00000050: dc0f 26c0 e96c cbbf ebb2 94bf f9cf df3b
00000060: 016c 5fbe c1c6 b0bd 255c 09bd 4143 6f3e
00000070: e65d 4f3c b7ec 2a3e d583 573e e146 15bf
00000080: 5b63 d8bc 7879 fabb 8ab6 233e 0823 12c0
00000090: ccaf 883c d5a2 a1be 1a6b f8bd fbe5 0abc
000000a0: 98f1 d8bb e1dc 5bbe 51ad a9be c431 bebc
000000b0: f36c 40be db55 5b3c 1485 5b3e bbea ff3a
000000c0: b7ca 0ebf 4ea6 86bf 06c2 803c d402 393e
000000d0: f577 ee3b b5ca 6f3c 2ec6 e3bd b012 5e3e
000000e0: 96b1 533e f8f9 f7bd 4d79 8f3c 4530 08bb
000000f0: 713c 253e 9bee 613e 4d87 b03c e9bc 59bc
00000100: d9a1 6abe 7101 09c0 89a5 85bc 4627 4d3e
00000110: b4f0 e0be 4f48 773e 4747 2d3e 3ccd 443e
00000120: 04a7 fcba e136 073c 15ba b0bf 69ee e63d
00000130: 57d9 27bf e586 31c0 0209 4fbc d0ee 413e
00000140: 8359 e5bd ff64 5e3e 7f29 683e 7303 ea3b
00000150: 26c8 1fc0 ef90 483e 840f 3d3c 5c5f 4e3e
00000160: ba42 513e 588d f0bf ae85 aabd d9b7 f33d
00000170: 2f31 3f3e a9ae 18c0 3811 b53b 70b8 8ebf
00000180: e8e8 343e d4cb 6d3e ff69 a0bf c789 a93b
00000190: 3315 553e f7ae a1bf 7b20 3f3c aff6 763e
000001a0: 4d28 783c beb7 413e e74d b6be 8c30 00c0
000001b0: 6553 b4bf c2b5 fcbb edf6 edbf a3dc dabf
000001c0: a39c 04be 3321 0f3e 592a acbf 31c2 6d3e
000001d0: 8ad5 1cbe 38d3 003c ff7e 3fbc c3a9 aebc
000001e0: 5d5d 4b3e b6f0 1e3e d34d 413e c822 973e
000001f0: 9ec8 a7bd ff4d 963c 3082 55bc cfdc 663e
00000200: 42d5 5f3c 4893 92bc 87d5 83bc 0384 9b3c
00000210: 73a1 753b 4167 8abc e17b 00bc 4d76 b2bb
00000220: 4324 9c3c f251 c93a 8afd 10bc 269c 94bc
00000230: 80d7 bcbc 492a 15bc 127a cf3b bed6 9ebc
00000240: f6b0 49bc 12f0 0abc 3b91 9d3c 543b d63b
00000250: 7140 823c 3c7f bb39 83df f53b 25fe 733c
00000260: 75e3 3a3c b3a3 443c 65bb 843b c591 9c3c
00000270: a90b dcbb 1067 56bc 1350 523c e7bd b53b
00000280: c2a4 9abc 59ad 30bc 4332 04bc bad8 db3a
00000290: edc0 013b 68ce 463c bcee 6bbc fb6a 173c
000002a0: 5d6a 8dbb db66 b5bc 5661 a03c 7077 fe3b
000002b0: ce98 a03b b561 d73a ccd4 1fbb 31f9 22bc
000002c0: 610b af3c 8f0e 9cbc eae3 67bb 06b6 61bb
000002d0: 9bf6 b0bb ad44 f5bb 7f58 4bbc 729e 5dbc
000002e0: a145 debb d140 a5bb 033b 92bc 3253 8cbc
000002f0: 8d81 bcba 8fdd 073c 2523 9ebc 5f66 edba
00000300: 6373 6e3c ca3f abb9 fc61 f3bb 1bf4 abbc
00000310: e686 29bc 8e22 953b efb3 cc3b 57ea 883c
00000320: acdf 34bb 73e7 6f3c c608 b4bc b90e 5dbc
00000330: 0ca8 92bc af2f 7abb ea0d 77bc 733a 383c
00000340: 7b38 213c 186b 0e3c 8deb 9a3c 9ff9 51bc
00000350: dabe 43bc 4ea1 523c 3d13 3a3c e041 2a3c
00000360: 85ab 3bba 97c3 303c 9d00 2c3c 63ff 9abb
00000370: b638 613c dcd6 aebc 4563 053b fef6 0e3a
00000380: 5038 a33c 63fc 4a3c c8c4 a13c 97db acbc
00000390: 6648 36bc 1910 a2bb 6afd 843b 8925 673c
000003a0: 614b 87bc 175a 8bbb 1e0f 63bc ad50 143c
000003b0: 7207 523b 2d68 0e39 18a5 363c af87 90bc
000003c0: b51a 683c d21a 59bc 3456 a5bc 7607 073c
000003d0: aa78 4e3b bd69 5abc e237 a43c 4911 83bc
000003e0: ffca 2f3b 3d27 99bc fe88 1dbc 97c1 4ebc
000003f0: 5eee ffbb 5cc5 553c b4ee b93b e232 073c
-1.2842103 0.13572817 -2.4277062 -0.050740127 -1.3419085 0.1774033 0.23031898 0.14054847
-0.0018805171 0.2260539 -1.9254147 0.16152647 0.19122104 -0.016113307 0.2262172 -0.018064093
0.008085898 0.22242671 0.22873855 -0.29363754 -2.594718 -1.5892612 -1.1617101 0.006830212
-0.21818544 -0.08631659 -0.03353514 0.23365499 0.0126566645 0.16691862 0.21046384 -0.5831128
-0.026414564 -0.0076438747 0.15987602 -2.2833881 0.016685389 -0.31569543 -0.12129803 -0.008477683
-0.006620597 -0.21470977 -0.33140042 -0.02321709 -0.18791561 0.013387169 0.21437484 0.0019524911
-0.5577807 -1.0519502 0.015717518 0.18067485 0.0072774836 0.0146357315 -0.11121784 0.21686816
0.20673212 -0.12108225 0.017513895 -0.0020780724 0.16136338 0.22063677 0.021548891 -0.013289669
-0.22913302 -2.140713 -0.016314285 0.20034513 -0.43933642 0.24148677 0.16921721 0.19218916
-0.0019275849 0.00825283 -1.3806788 0.11275942 -0.6556601 -2.7738583 -0.012636425 0.18938756
-0.11198714 0.21718214 0.2267208 0.0071415245 -2.496591 0.19586538 0.011539344 0.20153564
0.2043561 -1.8793135 -0.083262786 0.119003005 0.18671106 -2.3856604 0.0055257343 -1.1150036
0.17666972 0.23222286 -1.2532347 0.005173895 0.20808868 -1.263152 0.011665459 0.2411754
0.015146327 0.18917748 -0.3560631 -2.002963 -1.408795 -0.007712097 -1.8590981 -1.7098583
-0.12950377 0.13977508 -1.3450423 0.2321861 -0.15315834 0.0078628585 -0.011687993 -0.021321183
0.19859834 0.15521511 0.18877344 0.29518723 -0.081925616 0.018347738 -0.013031527 0.2254517
0.0136616845 -0.017892495 -0.016093029 0.018983847 0.0037480264 -0.016894938 -0.007842035 -0.0054462315
0.01906026 0.0015359505 -0.008849511 -0.018140864 -0.023051977 -0.00910432 0.0063316906 -0.019389506
-0.012310257 -0.008480089 0.01923429 0.006537834 0.015899869 0.00035762216 0.0075034513 0.014892136
0.011406769 0.01200192 0.0040506595 0.019112477 -0.006715257 -0.013086095 0.012836474 0.0055463198
-0.01887739 -0.010783517 -0.008068624 0.0016772964 0.001979883 0.012134172 -0.01440018 0.009241815
-0.004315658 -0.022143772 0.019577663 0.007765703 0.0049010282 0.0016432317 -0.0024388311 -0.009947107
0.02136773 -0.01904991 -0.003538365 -0.003444077 -0.0054004914 -0.0074849934 -0.012411236 -0.013526546
-0.0067832028 -0.005043127 -0.017850405 -0.017129514 -0.0014381871 0.00829257 -0.019303868 -0.0018112174
0.0145538775 -0.00032663188 -0.007427452 -0.020990422 -0.010347104 0.0045512384 0.0062470357 0.016713304
-0.002759914 0.014642584 -0.02197684 -0.01349228 -0.017902397 -0.0038175394 -0.015079001 0.011244404
0.009840126 0.008692525 0.018911147 -0.012815862 -0.011947358 0.012855841 0.011357126 0.010391682
-0.0007159042 0.01078882 0.010498193 -0.0047301515 0.013746431 -0.021342687 0.0020353359 0.0005453675
0.019924313 0.012389275 0.019747153 -0.021100802 -0.01112566 -0.0049457666 0.0040585296 0.01410807
-0.016515436 -0.004252683 -0.013858585 0.009052438 0.0032047895 0.00013580984 0.01114776 -0.017642824
0.014166524 -0.013251023 -0.020182706 0.008241525 0.0031505027 -0.013330874 0.020046178 -0.015999453
0.0026823876 -0.018695468 -0.009615181 -0.012619398 -0.007810398 0.013047542 0.0056742076 0.0082518775

layer2.bias f4 [128]
00000000: 7001 fb3d 5e7d 493b f867 2a3f 372d 003e
00000010: f7c2 033e 8f24 193e c58e 073b adf8 b3bc
00000020: db53 05bc 10ae 8bbb 9341 afbc f152 123e
00000030: 42fb bd3d 51eb 893d 637a adbc d742 63bc
00000040: 09c1 10ba e6c4 023e 909c cc3d 1c63 ae3d
00000050: f269 ec3d 2dd5 e93d 7d3b 4bbc b9b5 273e
00000060: 705b ff3d 18b3 b03d b52c a53e 4d7d 963d
00000070: 8bfe ba3e 118c a9bd 5569 263e 6b98 423f
00000080: f4cc 0b3e 4860 b93d 5f4a 293f a381 023f
00000090: 53df 94bc f0d8 0d3e 82ad de3d b12d de3d
000000a0: 2bba 303b 18b1 993d 159a 2dbc 9346 9fbc
000000b0: 1a26 6c3e e615 5cbc 4b68 003e 6189 803b
000000c0: 1624 073c 0cd0 a1bc a37a bd3d ec2c 1a3f
000000d0: d900 dd3d 595e 103e 4afb 813d 6f17 24bb
000000e0: b350 323e b182 183e ed7e 86ba 557a 88bb
000000f0: 6ac7 053f 1090 dd3d a25b 0b3e 4adc 8a3c
00000100: b05c 1b3e 7f3f c53c 077d f03e 9895 95bc
00000110: a75a 3a3e b6b8 34bc aa47 023e 76d7 aebd
00000120: 623f 5e3e 5c0b 883d ec81 0bbc 6878 ec3d
00000130: 5149 7a3d debd d03c 43da f93d dafa a63d
00000140: 07d7 bf3d ab39 05bd 9cc2 2c3f de0a 1e3e
00000150: cede ee3d 7cd2 173e 3a7a 833d 645f 2e3e
00000160: f469 e03d 8d63 7f3d ec48 963d e420 b1bc
00000170: 4b71 993d 5225 003e 3eee 203e d9e5 043f
00000180: 2235 a23e 7ad7 513c bb9e 093c 1b23 aebc
00000190: 0aab ab3e e292 123f a336 f23d 2719 f83e
000001a0: 8ce8 a03a 609d fe3d aca7 e03e 5c02 913d
000001b0: f671 283e f964 113d 58fe b23d 62b9 2c3a
000001c0: a890 a23d 1a56 003e 0f6f 983d 52c4 d43d
000001d0: 1441 0d3e 6674 373b 78bf 143f 282e d43d
000001e0: cf78 2d3c a454 a93d ae3d e83d 14b6 823c
000001f0: d218 ed3d 5d61 9dbc 4775 a93a 1e33 ddbb
0.122561336 0.003074489 0.66564894 0.12517248 0.12867342 0.14955352 0.0020684463 -0.021969164
-0.0081376685 -0.004262693 -0.021393573 0.14289452 0.09276439 0.06734336 -0.021176523 -0.013870916
-0.00055219285 0.12770423 0.099907994 0.08514997 0.11543645 0.11417613 -0.01240432 0.16377915
0.12468612 0.086279094 0.3226067 0.07348118 0.36522326 -0.08278669 0.16251118 0.7601382
0.13652402 0.09051567 0.66129106 0.5097906 -0.018172896 0.13852286 0.10872938 0.10848559
0.0026966434 0.07504481 -0.010595818 -0.019442832 0.2306141 -0.013432955 0.12539785 0.003922627
0.00824835 -0.019752525 0.09251907 0.60224795 0.10791177 0.14098491 0.06346758 -0.0025038382
0.17413597 0.14893605 -0.0010261216 -0.0041649737 0.52257407 0.10818493 0.13609174 0.016950745
0.15172076 0.024078129 0.46970388 -0.018259808 0.18198644 -0.011030367 0.1272265 -0.0853719
0.21703866 0.06642792 -0.0085148625 0.11546403 0.061105076 0.02548116 0.12199833 0.08153315
0.09367185 -0.0325257 0.6748445 0.15433833 0.1166359 0.14826387 0.06419797 0.17028576
0.10957709 0.0623508 0.073381275 -0.021622129 0.07492312 0.12514237 0.15715882 0.5191322
0.31681162 0.012807721 0.008399661 -0.021256974 0.3352893 0.57255375 0.118268274 0.4845669
0.0012276336 0.12432361 0.43877923 0.07080528 0.16449723 0.035496686 0.087399185 0.00065889035
0.07937747 0.12532845 0.07443058 0.10389008 0.13794357 0.0027992963 0.5810466 0.10360366
0.010587885 0.08268097 0.113398895 0.015955962 0.11577 -0.019211465 0.0012928628 -0.0067504784

layer3.weight f4 [128, 128]
00000000: 48ed aabf 8b67 b33b 67be e63e 1231 abbf
00000010: 2a77 2140 9ea0 afbf 28c6 95bc b5f0 0d3c
00000020: 1fef 7f3c ad99 85bb 2165 5bbc 1f77 acbf
00000030: dc59 ce3f 7869 cf3f 0bba 8dbc 6955 debb
00000040: de48 9fbc 3d17 6440 26a0 3840 c35e a9bf
00000050: a571 1e40 8693 a7bf fd88 6a3c 78c5 ffbe
00000060: 6463 abbf 357c adbf 0ef6 183f 2b71 cf3f
00000070: 9417 863e 076b 823f 4a5c 5fbf cf64 d93e
00000080: 3667 a4bf 16e6 b6bf ac78 523e a968 853e
00000090: 5b25 5d3b fabd 2140 f2f4 2140 67e2 acbf
000000a0: 2a99 e5ba 1964 d13f 9c96 403c b770 3c3c
000000b0: 8544 c73f 0474 13bb eba1 abbf b3e1 87bc
000000c0: 52d0 64bc 6b5d 10bb 94d6 cd3f 1540 863e
000000d0: 35c9 1140 c5c5 6340 1611 b5bf 1af6 5bbb
000000e0: 08bd 3740 2a8d b4bf b580 70bc 8531 84bc
000000f0: f279 ab3e 09a5 adbf f44b 3640 6a5c 4f3c
00000100: 4295 b3bf 3e57 e53f 8636 d13e f7cb 133c
00000110: dfb6 3a40 9c52 e33f f4e3 a7bf 31e4 813f
00000120: b6a1 233f df91 c23f f680 d7bb a533 6340
00000130: 5060 adbf 49cc e23f 662a aabf 4f6e afbf
00000140: faf4 3840 9111 1940 e765 543e 57d8 bb3f
00000150: 6636 b0bf a114 3740 31e6 b0bf 0437 83bf
00000160: cd2e a9bf 075f c93f a043 b3bf f6a0 9f3c
00000170: f27d b2bf 0bd2 3640 f43d 2040 4745 c23e
00000180: 015d 143f 7657 2cbc bc59 06bc 8c4d 883c
00000190: 59ae 653e 276c a63e f303 6440 54e0 b13e
000001a0: 92ea 1f3c 8305 b5bf c6b9 5c3e 756b c83f
000001b0: 942a 10bf a025 3840 f33e b1bf 622d 94ba
000001c0: 1c01 abbf 4897 1f40 7087 c33f 20c8 acbf
000001d0: 0374 abbf eb51 abbc dce6 a53e 8a95 96bf
000001e0: f443 7d3c 108b b1bf 33e6 adbf 50f9 813c
000001f0: 88e1 a7bf 8de8 b339 4a4a afb9 bc2f 45bc
00000200: b0ad a1bb 5f49 1bbc 362c 7fbc daa4 bc39
00000210: b1ee a2bc 777c c3ba dc1d 9f3c 1858 3fbc
00000220: 783a 56bc 94a6 59bc 0ee1 843c dd16 0dbc
00000230: c1f2 033b bc49 43bb e2b5 113b dd1f 8aba
00000240: 3d96 8abc 55d9 8d3c 9b23 b3bc 7201 0bb9
00000250: 275f 2cbc 16d8 a8bc 1994 88bb 543f 893c
00000260: 14d1 3fbc 8b5b b5bc c11f 623c 734f 843c
00000270: 970b 40bc 3b1f 933c d456 dbbb aee7 073a
00000280: e030 283b d1b1 933c 8f4e 7d3c 35f8 6bbb
00000290: 285f 68bc 1e67 d43b 4b30 29bc b418 8dbc
000002a0: 41a3 a5bc f64b 563c 465c ffbb 19bb 8cbc
000002b0: fbc3 b8bb 7d76 8cba ac52 47bc 8355 dbbb
000002c0: e5bf 903c c267 833c d646 283a dda4 95bc
000002d0: 0756 36bc 747f 22bc ff30 43bc ec47 b23a
000002e0: 551f 7e3a d24a 5bbb daee 72bc 553c 973c
000002f0: bb2b 31bc f5ec 9b3c 2f60 303c e7c4 12bc
00000300: 66cf 143c d157 5e3c f81a a03a 65ad 2d3c
00000310: 4e8b ab3c 353e f3bb e10f 283c 4946 a7bc
00000320: 3d46 033c 775d 8fbb 0d02 06bb 4e71 843c
00000330: 18a4 86bc 118f 803c 30e8 19bc a92c 3cbc
00000340: 745d ac3c 093d 33bc e5a8 363a aa0c cd3b
00000350: 3b05 a6bc 8603 9abc ff82 e2bb ad1c 8ebc
00000360: 8ef5 823c d879 1e3a 9be9 5abb 4b74 903c
00000370: 125e 813c a168 b0bc ab0e 80bb 0e6c 9abb
00000380: d0f7 a6bc 8a45 d23b ed99 043b 94dc afbc
00000390: 069c 003c 37d8 ec3b 6467 8dba c014 1cbb
000003a0: e943 2cbb 3693 8dbc 312b 9cbc 21a0 94bc
000003b0: db52 b0bc c37b 96bc 2d73 1abb 46b9 fdbb
000003c0: d295 cb3b 8635 5c3c 4153 383c 1484 8b3c
000003d0: 2220 66bc 5a9b 80bc 81a8 30bc 0a7b 9fbc
000003e0: 3cae 63bc 1cb5 9abc eedb 5abc 55f0 723c
000003f0: 9118 a4bc f3d0 963c ec99 643c 1b74 0dbc
-1.3353662 0.00547499 0.4506714 -1.337435 2.5228982 -1.3720891 -0.018282965 0.008663346
0.015620976 -0.0040771575 -0.01339081 -1.3473853 1.6121173 1.6204062 -0.017300626 -0.006785084
-0.019443925 3.5639184 2.8847747 -1.3232044 2.4756863 -1.3091896 0.014314887 -0.49955344
-1.3389707 -1.355353 0.5975045 1.6206411 0.26189864 1.0188912 -0.87250197 0.42459723
-1.2843997 -1.4288967 0.20553845 0.26056412 0.003374419 2.5272202 2.5305753 -1.3506593
-0.001751696 1.6358672 0.011754658 0.011501483 1.5567786 -0.002249957 -1.3408788 -0.016587114
-0.013965683 -0.0022028338 1.6081109 0.26220766 2.2779057 3.558946 -1.4145839 -0.0033563436
2.8709126 -1.410558 -0.014679124 -0.016136894 0.33491474 -1.356599 2.8483858 0.012656311
-1.4029925 1.7917249 0.4086191 0.009020797 2.9174116 1.7759585 -1.3116441 1.0147763
0.63918626 1.5200766 -0.0065766526 3.5500271 -1.3545017 1.7718593 -1.3294189 -1.3705539
2.8899522 2.3916972 0.20741998 1.4675397 -1.3766601 2.860634 -1.3820249 -1.0251164
-1.3217407 1.5732125 -1.4005013 0.019485932 -1.3944685 2.85657 2.5037813 0.3794348
0.5795441 -0.010518899 -0.008200105 0.01663854 0.2242979 0.3250439 3.562741 0.3474146
0.009760516 -1.4142307 0.21555242 1.5657793 -0.5631497 2.8772964 -1.3847336 -0.0011305029
-1.3359714 2.4936085 1.5275707 -1.3498573 -1.3394779 -0.020913085 0.32402694 -1.1764386
0.015458096 -1.3870564 -1.3585876 0.015865952 -1.3115702 0.00034314804 -0.0003343395 -0.012035307
-0.0049340352 -0.009477942 -0.015574506 0.00035980978 -0.019889208 -0.0014914413 0.019423418 -0.011678718
-0.0130754635 -0.013284344 0.016220596 -0.008611408 0.0020133706 -0.0029798588 0.0022233655 -0.001053806
-0.016917342 0.017315546 -0.021867564 -0.00013256611 -0.010520733 -0.02061085 -0.0041680452 0.01675383
-0.011707563 -0.022138378 0.013801516 0.016151166 -0.011721513 0.017959228 -0.0066937003 0.0005184364
0.0025663897 0.018029125 0.015460624 -0.0036006097 -0.014182843 0.006482019 -0.010326455 -0.017223693
-0.020219447 0.013079634 -0.0077929823 -0.017179059 -0.005638597 -0.0010716465 -0.012165707 -0.0066935434
0.017669627 0.016040687 0.0006419247 -0.01826709 -0.011128909 -0.0099180825 -0.011913537 0.0013601757
0.0009694 -0.0033461344 -0.014827454 0.018461386 -0.010813649 0.019033888 0.010765119 -0.008958078
0.009082651 0.013570742 0.0012215069 0.0106004225 0.02094045 -0.007423187 0.010257692 -0.020419257
0.008012352 -0.0043751555 -0.0020448 0.01616731 -0.016435668 0.01569322 -0.009393737 -0.011485257
0.021040656 -0.010939845 0.0006967916 0.006257613 -0.020266166 -0.018800508 -0.0069125886 -0.017347658
0.01598623 0.0006045378 -0.00334034 0.017633578 0.015791927 -0.021534266 -0.0039079986 -0.004712588
-0.020381838 0.006416981 0.0020233348 -0.021467485 0.007849699 0.0072279233 -0.0010788259 -0.002381608
-0.0026285595 -0.01728211 -0.019063564 -0.018142762 -0.021523884 -0.018369561 -0.0023567185 -0.0077430336
0.0062129283 0.013440495 0.011250318 0.017030753 -0.014045747 -0.015699077 -0.010782362 -0.01946785
-0.013896521 -0.018885188 -0.013358099 0.014827807 -0.020031245 0.018410182 0.013952713 -0.008633639

layer3.bias f4 [128]
00000000: a74b 9c3e 38c9 153c fcc2 a83e b5d7 993e
00000010: 5294 b43e f4de 44bc 2dd1 a63e 3961 8dba
00000020: 1a8f c0bc 3eee b23e 0bb2 a4bc aa00 bd3e
00000030: 4cd8 a93e 0153 67bc 19df b83e 2a7a 393e
00000040: a85a b03e f567 ebbb a4bd b93e 950a b73e
00000050: 2058 b33e 49a9 93bc 3797 923e 723e 3ebc
00000060: a8d1 a63e 67e4 a03e 2380 863e cef3 b43e
00000070: fb46 5fbc db08 a03b 15ed b03e 1694 d8ba
00000080: 65d4 8a3e 37e3 4e39 a703 273e 1a1b 93bc
00000090: 321d 3a3e 1df2 c83b 722c 8d3e 2a13 273c
000000a0: c40d 1a3e a298 02bc ec33 7fbb fa19 913e
000000b0: 4192 64bc 2acd 9c3e 254b 3cbc 3bfe 0f3c
000000c0: 1403 2fbc 5d3c 62bc 39c2 0cbc 2241 ae3e
000000d0: 68c8 ba3e 8351 9c3e 752e 323e 9e98 a2bc
000000e0: 016d 22bc dde3 2ebc a7a0 ca3e 2fae 63bc
000000f0: 6d64 9dbc 0af1 9d3e 6852 0cbc 3a53 553b
00000100: 0833 af3e 0098 c13e fdff a23e c940 a43e
00000110: 476e 5f3e 7b8b a03e 77de aa3e 21ed 52bc
00000120: 08f1 a53e 27f6 9c3e c8b0 953e 365f 813e
00000130: 2382 a63e 1885 a03e 8c66 4cbc c192 adbc
00000140: e2fe a93e 69d8 c4bb 9803 483e ecb5 a63e
00000150: f122 ba3e 9309 b7b9 22c6 89bc 5c70 813b
00000160: 8aad 8c3e 2af8 863e 0127 893e 3492 ad3e
00000170: e650 bcbc 2688 b73e 8d73 b03e 2372 9cbb
00000180: ee37 b53e aa81 56bc 8fd0 b53e 93ee 9ebb
00000190: cc52 a33e 8f9b a83e d386 f03b 3813 923e
000001a0: 12b2 a03e 3840 a83e e475 383e 35e0 91bc
000001b0: 5d5b 8d3e e7d5 aa3e 50dc b63e 707b a23e
000001c0: 47eb b03e 63aa 083e 977c ae3e 7225 383e
000001d0: 3663 b73e c4b2 8ebc 6227 973e 1687 bb3e
000001e0: 3e26 433e d213 b2bc a3db 973e 0297 1a3c
000001f0: d853 a03e e122 b33e 8b3a 2f3e 3c8d 4dbc
0.30526468 0.009142213 0.3296126 0.30047384 0.3526941 -0.012016047 0.32581463 -0.0010786421
-0.023505736 0.3494739 -0.020104429 0.3691457 0.33172834 -0.014118911 0.3610771 0.18113008
0.34444165 -0.0071840235 0.36277497 0.3575026 0.35028172 -0.018025057 0.28630993 -0.011611568
0.3258183 0.31424257 0.26269636 0.35342258 -0.013627763 0.004883868 0.3455588 -0.0016523625
0.2711517 0.00019730335 0.16309987 -0.017957259 0.181752 0.006132378 0.27572972 0.01019744
0.15044314 -0.007970961 -0.003894086 0.2834013 -0.013950885 0.30625278 -0.011492525 0.008788641
-0.010681886 -0.013808337 -0.008591228 0.34034067 0.36481023 0.30530939 0.17400534 -0.019848164
-0.009913684 -0.010674444 0.39575693 -0.013896509 -0.019212926 0.3084796 -0.008564569 0.0032550828
0.3421862 0.3781128 0.3183593 0.32080677 0.21819411 0.31356415 0.33372852 -0.012873919
0.32410455 0.3065655 0.29236436 0.25267953 0.3252116 0.31351542 -0.012475621 -0.021188142
0.33202273 -0.0060072434 0.19532621 0.3256067 0.36354783 -0.00034911613 -0.01681811 0.003950162
0.2747615 0.2636121 0.2678757 0.33900607 -0.022987794 0.3584606 0.34463158 -0.0047743483
0.35394233 -0.013092438 0.3551068 -0.0048502176 0.31899107 0.32931182 0.007340291 0.28530288
0.31385857 0.32861495 0.18013722 -0.017807106 0.27608767 0.3336632 0.3571496 0.317348
0.34554502 0.13346247 0.3407943 0.17983034 0.3581788 -0.017419226 0.29522234 0.366265
0.19057557 -0.021737967 0.29659757 0.009435417 0.31313968 0.34987548 0.17112176 -0.01254588

output_layer.weight f4 [9, 128]
00000000: 35b6 a1bf f37a f4bb 86d2 5d3e 377d 3c3e
00000010: 2bad 5a3e 8cb1 bd3b 103b 773e 54d3 8ebc
00000020: 9164 943b 3825 8a3e 07f7 3dbc 8e36 743e
00000030: e753 2a3e 28e1 8c3c 8a85 7f3e 5ed3 b43e
00000040: 1188 2c3e adab 843b 35c4 313e 9c23 603e
00000050: b88e 5c3e 2d73 03bb 1fb4 a1bf 1503 263c
00000060: 0b80 83be 3a6b 0b3e 3a94 613e 4181 36be
00000070: 13b9 a6bc 496e 04ba be91 543e cd29 2a3c
00000080: 3b2b abbe b2b4 d23b c657 0d3e b299 4fba
00000090: c8ad 61bf 4eb1 87bc 6495 72bf 6e63 4dbb
000000a0: be1a 9c3e 8aa1 843c 2539 993b 95ec 84bf
000000b0: 9510 d2bb 099c c73d d5b9 fd39 f176 603c
000000c0: e4bb 133c bea3 2bbc d7bd 0b3c 6199 f23d
000000d0: a3c6 513e 3b62 1b3e 11a6 b03e e53e 833c
000000e0: 87a2 68ba 1ae1 6cbc 1c3d 71be 27f3 9c3c
000000f0: f4a8 213c 0949 053e 6959 9e3b b1f9 943c
00000100: 61c4 313e 0ae4 4a3e 7926 283e a0e4 453e
00000110: 23ed 4bbf be76 b13c 825b 093d fa66 dc3a
00000120: 46e7 96bf d89a 2d3e 1631 9ebf 934f 52bf
00000130: 00e7 4a3e d1e0 0c3e 49db 933c ff6f 1abc
00000140: 7847 393e 7fba 65bc 815c 70bf dd1a b13d
00000150: 5a64 843e a706 943c 308e a73a 654c 6fbc
00000160: d443 073e 8a72 8bbf 0850 6dbf 52ef 5b3e
00000170: b6d2 37bc adbe 883e b6b4 4e3e 3152 8e3c
00000180: ae03 903e 6853 6ebc 38fb 44be 1055 bfba
00000190: 67cc 033d bdef 053e c59d 10bc e5f6 68bf
000001a0: 51d9 9cbe 0420 6abe c47e 26bf 517d c43a
000001b0: 36e3 72bf 5078 813e 0c1c 523e 3683 5bbd
000001c0: bbbe 193e d37f a53e 3001 8b3e 848d 1bbf
000001d0: aca1 753e 2fb8 9d3b 60a2 373e 6931 483e
000001e0: 8655 4ebf 88cc 623b 5fbe 443e 0235 aa3c
000001f0: 8d66 5c3e 13b9 61be d759 33bf bb4c 953c
00000200: 9e9c 86bf c3f2 8f3c 89de 183e fe56 383e
00000210: 0856 3d3e 49fd 223c 2e76 523e 974f bdbb
00000220: 34be 63bb 6f2e 4e3e 673c 973c 1740 333e
00000230: 5761 4e3e 167b 8c3c a9c2 213e 1eec 953e
00000240: 26b6 343e 957c 5cbc ac45 413e 20e1 343e
00000250: 95ff 3f3e 51ea 9dbb e576 83bf a3eb a7bc
00000260: c422 4dbe 4f17 303e 0934 993e 6ad2 16be
00000270: f3d1 0b3c 13a7 6cbc 72d2 283e f04e 4bbc
00000280: 0220 70be 5542 213c afb2 243e 996d 293c
00000290: 5744 5abf 8f2c 413c f8eb 6cbf c487 1c3c
000002a0: 0e54 653e d9ff bd3b 53d5 9fba 5747 7abf
000002b0: b827 ebbb c37e 2a3e dc78 32bb 2ea1 c03b
000002c0: db85 9ebb 8318 bcbb df1c 4dbc bece 1d3e
000002d0: 5a1f 303e 7fd0 3c3e 4e0f 803e c505 a03a
000002e0: 7ac8 2f3c 3063 863c c1a9 52be 718d b1bc
000002f0: 7173 aabc a882 4c3e 20bb a6bc 3ae1 533a
00000300: 817f 383e 2ca2 303e dec3 4a3e bde2 393e
00000310: 72d6 61bf 9d41 223e 6f71 453e f9fc 493b
00000320: 46b4 7cbf 39fd 2d3e d5cb 82bf 547b 6fbf
00000330: cb6e 4d3e 9379 363e 2573 af3c 5fd5 733b
00000340: 768b 593e a7d9 77bc 45a0 63bf e63b 303e
00000350: e1ea 3b3e b7d6 973b 7911 c5bb dd3d 273c
00000360: 39f1 6d3e c3a6 75bf 6262 70bf 2854 4a3e
00000370: 361d 5bbc a38e 403e 3ae1 173e 0660 9a3c
00000380: 9b78 213e f5d1 6c3c 8c34 41be 11fd 83bc
00000390: 559d 213e 82ce 3a3e e54c b33c 3e78 74bf
000003a0: 2853 9f3d cd03 4abe 04cb 5dbf 3d41 c3bb
000003b0: 8005 75bf 7ef0 1d3e fa62 1b3e 0e4c bd3d
000003c0: 90e8 2c3e 4071 903e c935 223e 31ae 57bf
000003d0: 6ec8 3c3e e1dd 443a c0c3 4f3e b065 593e
000003e0: 76bb 60bf 9295 1dbc f272 7a3e 5cc8 053b
000003f0: 41fd 363e 08a7 1ebe f6d5 58bf 1da5 343c
-1.263373 -0.0074609458 0.2166234 0.1840714 0.21355121 0.0057889875 0.24143624 -0.017434753
0.00452859 0.2698152 -0.01159454 0.23848936 0.16633569 0.017197207 0.24953285 0.3531751
0.1684878 0.0040487857 0.17360003 0.21888584 0.21538818 -0.0020057664 -1.2633094 0.010132571
-0.25683627 0.13615122 0.220292 -0.17822744 -0.020351922 -0.0005051834 0.20758721 0.010385943
-0.3343142 0.006430232 0.13803014 -0.0007919326 -0.88155794 -0.016564038 -0.947592 -0.0031339782
0.30489153 0.01619031 0.0046760016 -1.0384699 -0.006410668 0.09746558 0.00048394376 0.013700233
0.009016965 -0.010476051 0.008529148 0.11845661 0.2048593 0.1517419 0.345017 0.016021201
-0.0008874316 -0.014457965 -0.23558468 0.019158913 0.009866942 0.13016142 0.004832436 0.018185468
0.17360069 0.19813552 0.16420926 0.19325495 -0.79658717 0.021663066 0.033534534 0.0016815357
-1.1789329 0.169536 -1.235873 -0.8215267 0.19814682 0.13757636 0.0180489 -0.009426116
0.1809367 -0.014021515 -0.9389115 0.08647702 0.25857812 0.018069578 0.0012783464 -0.014605616
0.13209468 -1.089433 -0.92700243 0.21478012 -0.011219671 0.26707974 0.20186123 0.017373176
0.28127807 -0.014546253 -0.19236457 -0.0014597494 0.032177355 0.13079734 -0.008826678 -0.9100173
-0.3063455 -0.22863775 -0.6503718 0.001499096 -0.94877946 0.25287104 0.20518512 -0.05359193
0.15014164 0.32324085 0.27149343 -0.6076281 0.23987454 0.004813216 0.17933035 0.19550098
-0.8059925 0.0034606773 0.19213246 0.02077723 0.21523495 -0.22043256 -0.7005896 0.018225065
-1.0516546 0.017571812 0.1492864 0.18001935 0.1848985 0.009948083 0.20552894 -0.00577731
-0.003475082 0.201349 0.01846142 0.17504917 0.2015432 0.017148536 0.15796913 0.29281706
0.17647609 -0.013457437 0.18874234 0.17664003 0.1874984 -0.0048191925 -1.0270659 -0.020498103
-0.20032793 0.17196392 0.29922512 -0.14728704 0.0085339425 -0.0144441305 0.16486529 -0.012408957
-0.2344971 0.009842475 0.16083787 0.0103410715 -0.8526053 0.011790409 -0.9254756 0.009553853
0.22395346 0.0057983217 -0.0012194313 -0.97765106 -0.0071763657 0.16649918 -0.0027232682 0.005878589
-0.004837734 -0.0057402267 -0.01251909 0.15410897 0.1719946 0.1843891 0.25011677 0.0012208751
0.01072895 0.016404718 -0.20572568 -0.02167389 -0.020807 0.19971716 -0.0203529 0.00080825726
0.18017389 0.17249364 0.1980128 0.181529 -0.8821784 0.15845342 0.19281553 0.003082095
-0.98712575 0.16991128 -1.0218455 -0.9354756 0.20061795 0.17819814 0.02141721 0.0037206037
0.21244606 -0.015127576 -0.88916427 0.1721035 0.18351318 0.0046337503 -0.006014046 0.01020762
0.2323655 -0.95957583 -0.9390012 0.19758666 -0.013373664 0.18804412 0.14832011 0.018844616
0.15768664 0.0144543545 -0.18867701 -0.016111882 0.15782674 0.18242839 0.021887252 -0.95495975
0.07779533 -0.19728012 -0.866379 -0.0059587047 -0.9571152 0.15423772 0.15174475 0.09243022
0.1688559 0.28211403 0.1584083 -0.8425017 0.18435833 0.0007509869 0.20289516 0.21230197
-0.8778604 -0.00961818 0.2445791 0.0020413613 0.17870046 -0.15493405 -0.8470148 0.011025694

output_layer.bias f4 [9]
00000000: 8858 14be d80e e6bd 7b16 b0bd c6d1 c6bc
00000010: 53b3 5abd 477d a2bd 6d09 d0bd a292 c0bd
00000020: 2762 89be
-0.14486897 -0.112333 -0.08598038 -0.02426995 -0.053393673 -0.07934051 -0.10158048 -0.09402968
-0.26832697
