ngzhii/long/results/train/DQN_robot_weight/best_model.pt (torch, 160623 bytes, 8 tensors)

layer1.weight f4 [128, 40]
00000000: 1ce1 353d 3b51 cb3d 45ce a33d b4a7 cabe
00000010: d417 f53d 270f cb3d 6339 5fbf 98d4 ad3d
00000020: e90b ef3b 5a3f b03d 607a 99bc 2215 8e3d
00000030: 4807 ef3c 9f8d a13d a90e 9dbe e301 b13d
00000040: e06c 683d 2a45 833d b204 613d 3660 cb3d
00000050: 9360 c13d d815 01bf be8b 8d3d 0ad4 163d
00000060: 6d10 4a3d 87c6 fcbe 82b4 f53d 2200 8e3e
00000070: 6a4f bd3d fc2e e73d 3de2 713d 9e53 fa3d
00000080: 90bd c53d 3207 a93d e614 0abf 0d6d c83d
00000090: 1a21 023e 6b3d 643d e29d fdbe cc37 8c3d
000000a0: 45da db3d e600 803d f2f8 e93d a173 9abe
000000b0: 45ec 8e3d 0adf 8a3d 2bcc 6dbf c63f b53d
000000c0: 8e31 9ab9 0e37 333d a815 edbc 3bc7 c53d
000000d0: bc1d b93d 26d0 bc3d 4da2 8abe da8c 523d
000000e0: c4e9 583d 204e 033e 9f93 a93d 8615 d93d
000000f0: 5550 223d c807 09bf 7653 d93d 8ecb 793d
00000100: 3c97 b83d c389 01bf 167d b03d 3ae2 8b3e
00000110: 7803 143d d496 663d fbfa 813d 417a 553d
00000120: d8d5 ea3d 9bba 443d c9cd f1be 8752 f13d
00000130: fa59 833d 6de0 933d 6ec6 fbbe b653 053e
00000140: 8ee2 8d3d b9a6 fd3d 89f3 943d 2d48 e9be
00000150: a3fc 5a3d a4d3 803d e5ea 58bf be29 a43d
00000160: 5a16 533d 0022 823d b87c cbbc 57ef 553d
00000170: de74 bc3d d938 f43c f58e 98be f221 c83d
00000180: 0405 373d d6a4 bb3d 20a7 e43d 3b75 363d
00000190: bbc8 e53d 349d efbe 236c 693d 48cc 953d
000001a0: 669a f13d c810 febe dea1 c63d b70a bb3e
000001b0: 5f9b c53d d4a8 e53d c311 833d 66ca 963d
000001c0: 60c5 c53d c714 d93d 4daf 08bf bc36 983d
000001d0: c01d 053e 24a9 c03d 50fd f2be 2c96 eb3d
000001e0: 463b 393d c838 093e ac3d df3d d35d cabe
000001f0: 0b9e 013e 5656 9c3d bbf6 7abf e5fe 043e
00000200: 7b74 e3bb ea6d ea3d f012 12bb 3a63 b53d
00000210: 5555 ed3d 34fb a13d e28f a5be ea7b 983d
00000220: 49d1 4b3d edcd 8c3d 36e7 3c3d fb56 e53d
00000230: 91d1 2b3d 9259 14bf 654f 903d c872 8b3d
00000240: 722a ec3d cf41 0bbf c18d ba3d 5e9f ac3e
00000250: 25e4 643d 3ac9 f93d 4337 8a3d 18f9 c63d
00000260: 4061 c23d da7c b73d 7bff 18bf 4ee3 d53d
00000270: 125f 623d 0bff 833d 177e 1ebf 65bf 093e
00000280: 2811 8abc 7d6f 61bd 2837 33bd 9892 323e
00000290: 684d 173d de4b 3c3c cb31 0d3e 41b7 6fbd
000002a0: 68f6 dabc c8eb 91bc f50f f83d 055c 3bbd
000002b0: ab98 e6bd e93f 0bbe 8237 0bbe 43fd ea3c
000002c0: 506f 25bc 6a34 acbc cc03 083d 00d7 98bb
000002d0: 64cd f1bc 3643 0e3b a5c0 45bd 53ea 0c3d
000002e0: 8e23 cfbc 79e8 b43c c5b2 d03c baf3 42be
000002f0: aabd acbc 7a13 08bd c712 e0bc b732 82bc
00000300: 4b78 f33b 3ac8 463c e9e3 c83c 67b8 bc3b
00000310: 083b 1fbb b9fa d1bc 3c71 ad3c 7f1c 4e3c
00000320: efa6 183d 4387 14bc c8f6 133d 2d58 eebc
00000330: 1b59 3cbb 5df6 973c 079c 37bc 63e9 ad3c
00000340: 0640 9dbc 67df 3cbd 5d6a 36bd 6313 6a3c
00000350: c739 3b3d 31cd 6c3c 3c94 a33c 1720 3abd
00000360: 49b5 473c 8984 0c3d 6bba a0bc 2ab9 eebc
00000370: 6e3b 4b3c 2536 053c b3a2 193a d4e0 dbbc
00000380: e50a 783c edfb 023d 0285 b0bb 4451 a3bc
00000390: ef5b 8ebc 9b8e a1bc cb7f 0f3d 143e 383d
000003a0: 83bc 3ebd 20ab 3ebd f05d 69bc d153 06bc
000003b0: e66e 3e3c dcaf b8bb 6e17 e53c 01e1 1cbd
000003c0: f1e8 863d 8903 0c3e 3897 083e a399 113f
000003d0: 4d77 953d e188 663d e913 0bbe 192b 373e
000003e0: 1e8a da3e d2a8 ab3d 2818 903d 1bd8 9a3d
000003f0: 0320 5a3c 0b5c c0bc 87dd 383f 2b57 673d
0.044404134 0.09927603 0.07998327 -0.39581072 0.119674355 0.099149995 -0.8719694 0.08487815
0.007295121 0.08605833 -0.01873511 0.069376245 0.029178277 0.0788834 -0.30675247 0.08642938
0.056744456 0.064096764 0.05493612 0.0993046 0.09442248 -0.50423956 0.06911419 0.03682331
0.04933207 -0.49370214 0.1199732 0.27734476 0.09243663 0.112882584 0.05905365 0.1222298
0.09655297 0.082533255 -0.5393814 0.09786425 0.1270794 0.055722635 -0.49534518 0.0684658
0.10734991 0.06250171 0.11424436 -0.30166343 0.069786586 0.067808226 -0.9288966 0.088500544
-0.0002941009 0.043753676 -0.02894099 0.09657141 0.090388745 0.09219389 -0.2707695 0.051403858
0.05295731 0.12822771 0.082801096 0.105998084 0.03962739 -0.535275 0.10611622 0.06098514
0.09013221 -0.5060083 0.08617608 0.27321035 0.03613612 0.056296185 0.06346699 0.052118544
0.11466569 0.048029523 -0.47227314 0.11783319 0.06413646 0.0722054 -0.49174827 0.13020214
0.069279775 0.123853154 0.07273013 -0.45562878 0.05346359 0.06290367 -0.8473342 0.08015774
0.051534988 0.06354141 -0.024839744 0.052230205 0.09201978 0.029812263 -0.29796568 0.097720996
0.044682518 0.09162299 0.11164689 0.044545393 0.11219927 -0.46799624 0.056987893 0.07314354
0.11797027 -0.49622178 0.096988425 0.36531612 0.09648775 0.11213842 0.06399872 0.07362823
0.09656787 0.10599666 -0.5339249 0.07432315 0.1299963 0.09407261 -0.47458887 0.115032524
0.045222543 0.13400567 0.10900435 -0.39524707 0.12657945 0.07633655 -0.9803273 0.1298786
-0.006941376 0.11446746 -0.002228912 0.088568166 0.115885414 0.07909241 -0.32336336 0.0744551
0.049760137 0.06875215 0.046118937 0.11198231 0.041947905 -0.57949173 0.07046393 0.06809002
0.11531533 -0.5439729 0.09109069 0.33715338 0.055881638 0.12196584 0.067488216 0.097154796
0.09491205 0.089593604 -0.5976483 0.104437456 0.055266447 0.0644513 -0.6191115 0.13451917
-0.016853884 -0.055037964 -0.043753773 0.17438734 0.036939055 0.0114926975 0.13788526 -0.058524374
-0.026728824 -0.017812625 0.121124186 -0.045742054 -0.11259588 -0.13598599 -0.13595393 0.028685218
-0.01009734 -0.021021087 0.033206746 -0.004664302 -0.029516883 0.0021707541 -0.048279423 0.034403156
-0.025285508 0.022083508 0.025475869 -0.19038287 -0.021086533 -0.0332217 -0.027352704 -0.015893323
0.0074301115 0.012132699 0.024522739 0.005759287 -0.002429666 -0.02563225 0.021172158 0.012580036
0.037268575 -0.009065452 0.03612402 -0.02909478 -0.0028739634 0.018550092 -0.011206633 0.021229452
-0.019195568 -0.04611149 -0.04453503 0.014286849 0.045709398 0.014453218 0.019968145 -0.04544076
0.012189218 0.034306083 -0.019620141 -0.029141027 0.012404306 0.008130585 0.0005860731 -0.026840605
0.015139316 0.031978536 -0.0053869495 -0.019936211 -0.017377822 -0.01972132 0.035033982 0.044981077
-0.046566498 -0.046549916 -0.014243588 -0.008198694 0.01162312 -0.0056361984 0.027965274 -0.038300518
0.06587399 0.13673224 0.13338935 0.56875056 0.072981454 0.05628288 -0.13581814 0.17887534
0.426835 0.08381809 0.070358574 0.0756075 0.013313296 -0.02348139 0.72213024 0.056479614

layer1.bias f4 [128]
00000000: 39bb 093d b052 1abb 824a 04bc 5857 963d
00000010: c962 51bd 4f03 babb 1a0e 443e 8b2a 563e
00000020: 6e69 9c3d 6fe8 923d b8ed 77bc 00bf 243e
00000030: a7df 283e 3665 613d 1878 ccbd 30c1 a2bc
00000040: 8754 0abd 1ec5 e4bd 7a10 27bd 70a0 ecbd
00000050: 47ab 0fbd a2e8 753e 2381 773d a765 873c
00000060: ea99 433d 95fd 263e 407d 51bc f87f adbd
00000070: 7898 8dbd 9fec 23bd f1d6 a4bd 6c22 3e3c
00000080: 5d19 9a3d a9fe 823e d5db 88bc 70f1 ca3c
00000090: e8ed cabd ddd3 70ba b4d3 9d3e ea8d 773b
000000a0: 4878 663b 6987 5c3e 0adc ecbb a643 82bb
000000b0: 47a4 0c3c 3e27 863e 2eb1 ff3d 95f3 1bbe
000000c0: ed6e 4b3d 69a4 ff3d 5034 9e3e 64ae 383d
000000d0: 6888 73bc 57a0 37bc 9acc 8e3c dd54 1d3d
000000e0: b3be f4bc dfb5 b33b 05c3 a53e 275f 8e3c
000000f0: 1b4b 723e 36eb d33d 8524 ad3d ff89 4dbd
00000100: c15d 9b3e 707f 2b3d e2ce 343e b355 413e
00000110: 2073 c73d 5c1a 793d b9e7 4d3e 35c5 0b3e
00000120: d332 ab3c a991 f03b 701d 8c3e 8c2f 3f3e
00000130: a31d 8d3e a9b3 64bc cf2e 4a3e 3c08 273e
00000140: 92d9 d8bc 7eb5 533e 2081 553d bff7 14bc
00000150: 344a 17be ab63 54bd 9542 573e 99a4 8d3d
00000160: 3815 c7bd a27a 47bd 00a5 b63e c0a6 693e
00000170: a679 bc3e 203f dd3d 3004 38bd 58ec 8b3e
00000180: e94b 8d3e 3dd8 973e 1f30 18be 94fe e73d
00000190: efa9 a23e 3073 82bc 37b8 3e3d 39b8 9a3e
000001a0: 76a6 a63d 8500 053c 5f60 5c3e 3a33 caba
000001b0: ac6b a33d d377 773e 9b4d 7c3d 44b7 9a3c
000001c0: 73a3 45bd 6624 8e3e 4304 073d b270 803d
000001d0: 8c65 d93b 082e fabd d609 b5bd 8979 da3d
000001e0: 02ae 2d3e 70bc 133e 1d58 1fbc d3f7 47be
000001f0: 9d28 783c 7135 91bb 2288 ba3c 8d55 f2bd
0.033625815 -0.002354782 -0.008074405 0.07340878 -0.0511196 -0.005676664 0.19146004 0.20914666
0.076372966 0.071732394 -0.01513236 0.16088486 0.16491567 0.055028163 -0.099838436 -0.01986751
-0.033772018 -0.111704096 -0.040787198 -0.115540385 -0.035075452 0.24014524 0.06042589 0.016527964
0.047754206 0.16307671 -0.01278621 -0.08471674 -0.06913847 -0.04002058 -0.08048809 0.0116048865
0.07524369 0.25584915 -0.016706387 0.02477333 -0.09908658 -0.00091868435 0.3082558 0.0037773796
0.0035166908 0.2153603 -0.007228379 -0.0039753495 0.008584089 0.26201814 0.12484966 -0.15229638
0.049666334 0.124825306 0.30899286 0.045088187 -0.014864065 -0.011207662 0.017431546 0.03841101
-0.029876089 0.005484327 0.3237535 0.017379357 0.23661463 0.10347597 0.08454231 -0.05018043
0.30344966 0.04186958 0.17657045 0.18880348 0.09738755 0.060816154 0.20107926 0.13649447
0.020898258 0.007341583 0.2736621 0.18670481 0.27561674 -0.01395885 0.19744419 0.16311735
-0.026470933 0.20674703 0.052125096 -0.00909227 -0.147744 -0.051852863 0.21021493 0.0691616
-0.09720844 -0.048700936 0.3567276 0.22817516 0.3681156 0.10803056 -0.04492587 0.27328753
0.27596977 0.29657164 -0.14862107 0.11327854 0.31770274 -0.015924066 0.0465624 0.30218676
0.08137219 0.0081178 0.21521138 -0.0015426644 0.07979521 0.24166803 0.061597448 0.018886216
-0.04825158 0.27762145 0.03296305 0.06271495 0.00663442 -0.12215811 -0.08839767 0.10667712
0.1696091 0.14427352 -0.009725598 -0.19528131 0.015146402 -0.0044314195 0.022769991 -0.11832724

layer2.weight f4 [128, 128]
00000000: 5eb4 ce3c ff3c f6bb 4c3c f4bb 8aa8 cebc
00000010: b372 753c b6e4 d1bc f668 42bb 3557 6f3c
00000020: b1a6 24bc 9115 393b 0728 b5bc 3da3 99ba
00000030: 2a34 5dbc 0c88 e73b b090 87bc 5547 22bc
00000040: 5f95 70bc 74e9 ca3b b7fd 6839 c1e6 1a3b
00000050: 3e47 abbc 5785 1d3c 8be3 aa3c 1c35 1f3c
00000060: 3aff 5fbc 8d88 c8bc 27de 9f3c 9af0 fd3b
00000070: 9176 d3bc 6385 a8bc 77ea 99ba 7ffa bbbc
00000080: d945 1c3c 24c6 003c 9162 473c 4a37 9dbb
00000090: 7bce e6bc c82a 4bbc f295 32bc 67be ae3c
000000a0: 38b4 d73c 3a00 4c3b b257 8f3c 362d d63b
000000b0: 475f 8f3b 2138 ebbc ca5d a63b 57a3 4ebc
000000c0: 2584 aeba 3551 b83c 38b9 b5bc 0272 373a
000000d0: ca44 aabc 5fc0 32bc 2757 663c c716 923c
000000e0: ab55 1dbc a8f0 a63c aaa3 433a 10fe 9d3c
000000f0: ab0f 0a3c ec22 3a3c c23c a23c cd58 7ebc
00000100: 0578 a9bc a0ba d33c ecf7 8c3c 94ef 853c
00000110: fec4 ccbc 7f96 7fbc 91c5 86bc d572 0d3b
00000120: 6dc5 743b c1d5 bd3c 9714 b7bb 8a9f d53b
00000130: f852 bfba dee7 c7bc c3dd 823a 0f84 9aba
00000140: 72a6 bbbc 648e 2cbc 538e 883b 18d3 853c
00000150: 036c 483c af67 adbc 9195 35bc e1bb b2bc
00000160: 9075 8dbb 23bc 27bc e434 8f3c 5e8e 5ebc
00000170: cbc2 b93c 7340 70bb 9411 4f3b 2baa af3b
00000180: 93e4 92bc ce49 c8bb 5622 a83c dcd4 ad3c
00000190: ed23 5bbc 26ac 06bc c234 873c e6ff d4bc
000001a0: ef9c 9ebc 9f7d 7ebc 38e6 97bb 61ff 073c
000001b0: 7790 eebc 7177 133c 5531 ebbb dfd7 aa3c
000001c0: f5a1 9b3c c23b 9abb fb3d b13c 12ab 7ebb
000001d0: b159 98bc bd25 e7bb 6d81 71bc 8c5b c6bb
000001e0: 98df 893b 0d22 243c 9e9f 873b e879 37bc
000001f0: cafd ae3b f061 50bc 7f2b c5bc 9bc9 b2bc
00000200: fff5 dfbf dd49 e3bf 3bfa d3bf 505a f5bf
00000210: e337 f1bf 4f4e f2ba 1f63 373e ffff 283e
00000220: a4fd 8a3c f4ae fbbc 4850 aebc 2bd6 403e
00000230: bcf6 463e 8090 d8bf c8b3 1cc0 054a eb3b
00000240: f20f 4dbb 55d9 08c0 82a6 603c d649 1ac0
00000250: 5d9a 04bc 9ac7 643e 8f8e eebf cc51 e4bf
00000260: da47 c23c c898 413c 6ec0 973b 03fc 1bc0
00000270: 792b 0ec0 cc99 d1be bf11 20c0 bd85 20bb
00000280: 017e f6bf d304 023e 9739 3e3c 79ff d7bf
00000290: f24f a3be c9bd 0f3b 431a a33d 4f94 9bbb
000002a0: 6472 bfbc ac4c 1e3e ec73 d63c f07a 30be
000002b0: e6dc 5bbe 1433 3e3e 8927 8c3d 2c7f ebbe
000002c0: 5140 dcbf 6fd7 503d 48f4 173e 49ed 48ba
000002d0: b116 3a3c abd3 4abc 2d62 b5bf 4c8b d33c
000002e0: fd9c 203c e64e 8d3b 9fb9 c23d d051 acbb
000002f0: dc31 5a3e 46dc 993c 8071 4bbe de67 97bf
00000300: e1f9 aa3c 23bd 3b3c 9fab 173e 3e7a 1c3e
00000310: bd08 103e 43aa 33be 8830 fc3d 9293 573e
00000320: ed0b b63c f99d ccbf 1c54 983d 5783 573e
00000330: 7039 263d 2d23 40bb 1b89 553e f7dd 603e
00000340: 7ea9 08bb 1617 4a3e d736 f83b 12bb 26bc
00000350: a2ce fdbe 0f51 f3bf d46b 07bf 8f18 523e
00000360: 5275 12c0 0735 babc 39db 0d3d 7c07 2a3e
00000370: 241a f73d a2d6 ae3d ffb8 e939 d2e6 1b3d
00000380: 69d3 603e 8f31 173e 1dd5 9bbf e14a 32bc
00000390: 9420 323d 48f1 20bc 89f7 f6bf 2dac 323e
000003a0: b2d3 1b3e 678e d3be 641d 213e 2323 d4bf
000003b0: 7dd9 5abd d2d2 20bf 74ac d93d 4865 d5bf
000003c0: 3e48 9ebc 79f2 103e 7b23 603b 1df8 be3c
000003d0: 087b 84bc edfa 3fbe 3f02 44bf 43e1 783c
000003e0: 0b2c 603e 7dcb 5b3d eaf2 1bbc 041f 9dbf
000003f0: 73ee 753c 1803 adbe d837 e9bf 1644 26c0
0.02523249 -0.0075145955 -0.007453477 -0.02522685 0.01498096 -0.025621753 -0.0029664612 0.014608194
-0.010049508 0.0028241614 -0.022113813 -0.0011721622 -0.013501206 0.0070657786 -0.016548485 -0.009904702
-0.01468405 0.0061923806 0.0002221976 0.0023636075 -0.020907994 0.00961431 0.020860454 0.009717252
-0.013671691 -0.024479175 0.01951511 0.007749629 -0.025813373 -0.020571416 -0.001174285 -0.022946594
0.009538137 0.00785974 0.012169496 -0.0047978507 -0.02817463 -0.012400337 -0.010900008 0.021331025
0.026331052 0.0031128065 0.017497871 0.0065361513 0.0043753716 -0.028713288 0.0050770985 -0.012612185
-0.0013314529 0.02249966 -0.022183046 0.00069978845 -0.020784754 -0.010910123 0.014058865 0.017833127
-0.009602944 0.020378426 0.00074630475 0.019286186 0.008426587 0.011360865 0.019804362 -0.015524101
-0.020687113 0.025845826 0.017208062 0.016349591 -0.024996277 -0.015599846 -0.016451629 0.0021583338
0.003734912 0.023173215 -0.0055871713 0.0065192627 -0.001459687 -0.024402555 0.0009984303 -0.0011788624
-0.022906516 -0.010531995 0.004167357 0.016336009 0.012232783 -0.021167604 -0.011083023 -0.021818103
-0.004316993 -0.010237726 0.017481275 -0.013583748 0.022675892 -0.0036659508 0.003159617 0.005360862
-0.017931258 -0.006112314 0.020524185 0.021219663 -0.013375265 -0.008219754 0.01650465 -0.026000928
-0.019361941 -0.01553288 -0.0046355985 0.008300633 -0.02912162 0.009000645 -0.0071775117 0.020854888
0.018998126 -0.0047068307 0.021636 -0.003885929 -0.018597456 -0.0070540593 -0.01474033 -0.0060533937
0.0042075627 0.010017884 0.004138901 -0.011198498 0.0053403126 -0.012718663 -0.024068592 -0.021824649
-1.7496947 -1.7756916 -1.6560739 -1.9168186 -1.884518 -0.0018486473 0.17908905 0.16503905
0.016966648 -0.030723073 -0.021278515 0.18831699 0.19430059 -1.6919098 -2.448473 0.0071804547
-0.0031290022 -2.138265 0.013711574 -2.4107566 -0.008093444 0.22341767 -1.8637255 -1.7837462
0.023715902 0.011816211 0.0046310937 -2.4372566 -2.2214034 -0.4093765 -2.5010831 -0.0024493777
-1.9257203 0.12697153 0.01161041 -1.6874839 -0.3189693 0.002193319 0.079639934 -0.0047479044
-0.023369975 0.15458935 0.026178323 -0.17234397 -0.21470985 0.18574172 0.06843478 -0.45995462
-1.7207128 0.050986703 0.1483928 -0.0007664753 0.011357949 -0.012379567 -1.4170586 0.025823258
0.009803054 0.004312384 0.09508061 -0.0052587762 0.21308082 0.018781792 -0.19867516 -1.1828573
0.020871105 0.011458668 0.14811562 0.15281007 0.14065833 -0.17545418 0.12313944 0.21052387
0.022222484 -1.598571 0.074379176 0.21046196 0.04058212 -0.0029317841 0.20853083 0.21959673
-0.0020852978 0.19735369 0.007574897 -0.010176437 -0.4957171 -1.9009112 -0.5289891 0.20517181
-2.2884107 -0.022730364 0.034632895 0.16604418 0.12065533 0.08537032 0.00044579056 0.038061924
0.21955647 0.14764999 -1.2174412 -0.01088211 0.0434881 -0.009823151 -1.9294292 0.17448492
0.15217474 -0.41319582 0.15733868 -1.6573223 -0.05343007 -0.62821686 0.10628596 -1.6671534
-0.019321557 0.14154996 0.0034200836 0.023311669 -0.016171947 -0.18748064 -0.7656593 0.015190425
0.21891801 0.05366086 -0.009518364 -1.227509 0.015010464 -0.33791423 -1.8220167 -2.5979056

layer2.bias f4 [128]
00000000: e8c1 8bbc f58c a0bd 3188 b3bc 4cb4 993e
00000010: dd81 70bd aab1 b7bc 2ff1 843b dfc3 cf3e
00000020: 67e7 5fbc bb92 923e c490 04bd 4ccd 0abd
00000030: 592f 9cbc 4e12 65bd 20d8 443e 5544 28bc
00000040: b3f5 833e f25c a33c ccdd cfb8 ff48 a63e
00000050: 53cb 223b a17f a83e e6eb 7ebb 9724 26bc
00000060: d9a3 cf3e 7161 a7bc 0220 1bbd 3592 dcbc
00000070: 75a6 a83c 5a18 54bd bbfe 8a3e 5aac 4b3e
00000080: edfe adbc 4dc5 f4bc cef4 d33e 4c8d 49bd
00000090: 0d9c 81bd 0a68 8d3a 7957 ae3d 24de eebc
000000a0: 9320 943c 345b 29bd b87a c63e 2aaa df3e
000000b0: a230 43bb 9381 9cbc 2021 17bd e0fa 21bd
000000c0: 2e9f 9abc 379c 56bd c6ef 14bd 2150 083b
000000d0: d43a 263b 6983 c03a bdcd 863e be33 953b
000000e0: c704 9f3e db93 ac3d 984b 8b3e 6cbe 42bd
000000f0: a6bf 873e 817c 3fbd f849 8d3b 90b7 7dbd
00000100: a513 d73e 77a5 afbb 5609 41bd 8a85 573c
00000110: 9536 3ebd 7546 2ebd d724 cb3a 972d 8f3e
00000120: 22bf a33e 7cb7 23bd b872 c8bc 09e6 8fbc
00000130: 2e24 a03c 3e8b ee3e 16b7 983c dd8d 89bd
00000140: e541 fd3a 38d0 d2bc d55b 7a3e 6520 c83c
00000150: 4b58 f2bc d84e 8dbd 0a56 bf3c 03ff 08bd
00000160: 6080 a63c b704 e83a 315d c6bc 473e b33c
00000170: fbc9 d93b 3ecf 08bd 8fbe 30bc 75d1 ffbb
00000180: 7859 ab3e 9315 093e 33a1 94bb 93c5 af3c
00000190: e3c2 c7bc c090 b73e ffec 9dbc e6f0 66bd
000001a0: 6447 9ebb 6546 9b3e 8539 bf3e 8a06 8d3c
000001b0: 644d 12bd 1b85 e3bc 256a 8d3b f2d5 d73b
000001c0: 8281 03bd 5829 54bc ddf6 643e 452f 2cbd
000001d0: 5b72 d0bb 3301 babc 481e 633d 015a 123d
000001e0: e00c 96bc 612a ab3e edd2 833e b9f5 cd3e
000001f0: 33b6 c1bc 25d7 b7bc 7a98 f1bc bc6a 4fbc
-0.017060235 -0.078393854 -0.021915527 0.30020368 -0.058717597 -0.022423584 0.0040570716 0.40579125
-0.01366601 0.2862757 -0.03236462 -0.033887193 -0.019065546 -0.05592566 0.1922307 -0.010270198
0.2577339 0.01994178 -9.911842e-05 0.32477567 0.002484043 0.32909873 -0.003889793 -0.01014056
0.40554693 -0.020432206 -0.037872322 -0.026925186 0.020587185 -0.051781036 0.2714747 0.19889966
-0.021239722 -0.029879237 0.4139771 -0.049207017 -0.063285924 0.0010788452 0.08512778 -0.02915866
0.018081939 -0.041346744 0.38765502 0.43684512 -0.0029783626 -0.019104755 -0.036896825 -0.039545894
-0.01887473 -0.05239507 -0.03636148 0.0020799714 0.0025364654 0.0014687601 0.2632884 0.0045532873
0.31058332 0.08426639 0.2720611 -0.04754488 0.26513404 -0.046749596 0.0043117963 -0.061942637
0.42007175 -0.005360301 -0.047128044 0.013154397 -0.046438772 -0.04254766 0.001549865 0.2796447
0.3198176 -0.039969906 -0.024468765 -0.017565744 0.019548502 0.46590608 0.01864199 -0.067165114
0.0019322006 -0.025734052 0.24449094 0.02442951 -0.029583117 -0.06899804 0.023356456 -0.033446323
0.020324886 0.00177016 -0.024214359 0.021880282 0.0066463924 -0.033400767 -0.01078762 -0.0078069516
0.33466697 0.13387136 -0.004535818 0.021456515 -0.024384921 0.35852623 -0.019278048 -0.056382082
-0.004830288 0.30327144 0.3734857 0.017215032 -0.035718337 -0.02777343 0.004315632 0.0065867836
-0.03210593 -0.01294931 0.22359796 -0.042037267 -0.0063612885 -0.02270565 0.0554488 0.035730366
-0.018316686 0.3343077 0.2574686 0.40226534 -0.02364645 -0.022441456 -0.029491652 -0.012659725

layer3.weight f4 [128, 128]
00000000: 7d1a 6ebc 8dd0 18bc 5aea 25ba 8e03 b2bc
00000010: cd4e 6e3c 7c9c 0bbc 3b95 943c 4d69 3f3c
00000020: 7121 b03c 7bd0 af3c d22b d73c dcf3 dfbb
00000030: 0be4 a53c d06c 583c 4662 5abc 28ce 3dbc
00000040: 83af 0b3c 1961 bfbb 5861 42bc 52bc a7bc
00000050: 513f 13bc 02ef e2bb 2878 9cbc 9460 9cbb
00000060: 56f4 d7bc c47b 213c aa7e 0abc 13d5 493c
00000070: 37c0 bc3c 4190 bcbc 3e1d b2bc be2e 1dbb
00000080: e6ce 38bc fa76 7dbb 3ccb c9bc 70b4 d2bc
00000090: 69ec a6bc 46e2 d13c 7e7e 00bc 602c a3bc
000000a0: d8a3 f4ba a10a be3b 0a8b 4fbc a376 45bc
000000b0: a1ba 8bbc 36ab c83c 6ca5 d13c e599 a5bb
000000c0: 20ec c53c bace d93c 748c 95bc 49e7 acbc
000000d0: 5103 c63b 146f 403c ebfa 8ebc a999 a73b
000000e0: 8273 cdbc e397 cb3c c78b afba f2d1 c93c
000000f0: 6770 bcbc ff50 85bc 03e4 423c df1d d93b
00000100: c639 cdbc 1ca7 a73c 8e33 45bb 9c5e d23c
00000110: 2dab 97bc 4e6f c03c 7e41 9e3c a559 7e3c
00000120: 0ef5 c3bb e175 c43c 200a 9cbc 7e5a 00bc
00000130: 9a8f c03c 7045 5abc 1dab c73c 9de6 213c
00000140: 9604 533c a3b6 133c 63f2 83bc 7fa3 823c
00000150: fcfb b8bc 6759 373a 5d3c 4a3b 6851 d0bc
00000160: 4981 113c 78db 6e3c 860a a73c 86ba 253c
00000170: 1d76 ad3c b3ed 1fbc b5ee 433a d6cb 22bc
00000180: 817d b1bc 4bd6 a63c b51f bbba fb65 8ebc
00000190: dba9 933a d598 20bc 9f94 adbc b754 5abb
000001a0: 1499 b7bc 5e9f 48bc c0c0 52bc 8f51 bebc
000001b0: 5091 8f3c 1c95 e4bb f8e6 ce3c a620 06bc
000001c0: ec5f 7a3c e4df d13c aa89 a1bc 2aad d1bb
000001d0: e5fb 9c3c fcfb a7bc ab7e 2fbc a7c1 9b3c
000001e0: e8f4 da3c 1365 eabb d0dd 5abb 0b1f 0abc
000001f0: cec0 bc3c b5f8 123b e475 37bc 1871 063c
00000200: 071e 823c 7983 c7bf ef5f f9ba c584 333f
00000210: 2cd8 cebf 8eb8 c6bf c5dd b5bc 55bb c03e
00000220: 8da6 fabb 49c4 1f3f fafb c7bf a2dd c6bf
00000230: 29c6 14bc c0b1 c7bf dfbe 1240 e934 9ebc
00000240: 8f3a 0440 c79b 6b3c 424a 2d3c ce73 2a3f
00000250: b3dc afbc 8385 2f3f 0940 8cbc 1750 cabf
00000260: f92c 0a3f 2a88 c13c 3784 bbbf c961 cbbf
00000270: 18ce 243a 38c3 c7bf 84d5 393f 58aa 3a40
00000280: 63a1 c5bc ed41 bfbf 954f f03e 0f15 c6bf
00000290: 7fdf cbbf 1d1e afbb 2b86 0ebd 4414 cebf
000002a0: 8d21 86bc cebd c6bf 5ee3 1d3f 2c86 da3e
000002b0: 8370 823b 1c96 f6bb 93c2 c6bf 8fee cbbf
000002c0: 1cb8 c3bf 56e8 ad3f 48f1 b43f ab84 8cbc
000002d0: 790c b1bc 7c42 533c 1c75 8b3f 3ccc 6bbc
000002e0: fa52 3a3f 2ef3 533d 8663 0540 4fd2 d2bf
000002f0: 3982 043f 73d7 cbbf 3af1 2bbc 6306 c2bf
00000300: 9f17 023f 7aaf 8bbc d7ab b13f a97e 2c3b
00000310: 4a07 c8bf 6aa0 c5bf f4a0 533c aaee fe3f
00000320: 05da f93f 6732 d1bf 8b58 ccbf ab2f e138
00000330: 4478 5d3c aff0 1140 fb5f 3c3c 5eb2 c6bf
00000340: a78f 793c bad1 073c 3bd4 3840 c543 3ebd
00000350: ee9b c6bf 92b8 c9bf 4394 203c a158 c9bf
00000360: 0ad8 2cbc a172 b8bb 06f6 7ebc 0415 573c
00000370: 5937 c43c 4d20 c7bf fa76 bfbf bc34 adbc
00000380: 164a fb3f 1301 7e3e d7cf 0f3b 3881 a33c
00000390: 0663 24bc ed15 293f 40a5 b0bd 9843 b8bf
000003a0: 3c90 413c e7bd 3f3f 5ed4 133f 6e7e 4a3c
000003b0: fa77 cbbf a119 c9bf 1dcd f33b 6b4c 2f3c
000003c0: 160c c7bf 716e 1fbc 1c01 3c40 c4d7 d0bf
000003d0: 6ce8 e23c f896 c4bb 9a3d b03f ff6f 2dbd
000003e0: 531d b23c e107 2b3f 0f20 8c3f b0d6 e73e
000003f0: 53d7 e93c a54c ad3c a491 cdbf f14e 8dbc
-0.0145326825 -0.009327066 -0.00063291716 -0.02173021 0.014545155 -0.0085211955 0.018137565 0.0116828205
0.021500321 0.021461716 0.026266012 -0.00683449 0.02025034 0.013209537 -0.013329094 -0.011584796
0.008525732 -0.0058404324 -0.011864029 -0.02047554 -0.008987264 -0.0069254646 -0.019100264 -0.004772255
-0.026361626 0.009856168 -0.008453051 0.012318867 0.023040874 -0.023018004 -0.02174246 -0.002398416
-0.011279797 -0.0038675652 -0.024633043 -0.025720805 -0.020376401 0.02562059 -0.007842658 -0.01991862
-0.0018664552 0.005799607 -0.012667427 -0.012052211 -0.017056765 0.024495702 0.025591575 -0.005053746
0.024160445 0.026587833 -0.01825545 -0.02110638 0.006042876 0.011745233 -0.017453631 0.0051147533
-0.025079492 0.024852699 -0.0013393097 0.024636243 -0.023002816 -0.016273974 0.011895183 0.0066258754
-0.025051963 0.020465426 -0.0030090543 0.025679879 -0.01851424 0.023490574 0.019318338 0.015524303
-0.0059801405 0.02398199 -0.019047797 -0.007834075 0.023505975 -0.013322219 0.024373585 0.009881643
0.012879511 0.009015712 -0.01610679 0.015947102 -0.022581093 0.0006994218 0.0030858733 -0.025429443
0.008880922 0.014578693 0.02039076 0.010115271 0.021174485 -0.009761262 0.000747423 -0.009936294
-0.02166629 0.020365855 -0.0014276417 -0.017382612 0.0011265831 -0.009802063 -0.021189032 -0.0033314654
-0.02241186 -0.012245027 -0.012863338 -0.02323225 0.017525345 -0.006975783 0.025256619 -0.008186495
0.015281659 0.025619455 -0.019718964 -0.0063988166 0.019163081 -0.020505898 -0.010711352 0.01901324
0.026728109 -0.0071531623 -0.003339637 -0.008430253 0.023041155 0.0022426073 -0.011197541 0.008205675
0.015883459 -1.5586997 -0.0019025783 0.70124465 -1.615972 -1.5525072 -0.022200475 0.37642923
-0.007649249 0.6240888 -1.5623772 -1.5536387 -0.009080448 -1.560112 2.2928998 -0.019312339
2.0660741 0.014380402 0.0105767865 0.66582954 -0.021467542 0.685631 -0.017120378 -1.5805691
0.5397487 0.023624498 -1.4649724 -1.5889217 0.0006286814 -1.5606451 0.72591424 2.916647
-0.024124807 -1.4941994 0.46935716 -1.5475177 -1.592758 -0.005344166 -0.03479592 -1.6099935
-0.01637342 -1.5526674 0.6167506 0.4268049 0.0039806976 -0.0075252187 -1.5528129 -1.5932177
-1.5290561 1.3586528 1.4136133 -0.017153105 -0.021612393 0.012894269 1.0895114 -0.014391955
0.7278286 0.051745586 2.0841994 -1.6470431 0.51761204 -1.5925125 -0.010494525 -1.5158199
0.5081729 -0.017051447 1.3880566 0.0026320613 -1.5627224 -1.543958 0.012916792 1.9916584
1.9519659 -1.6343507 -1.5964521 0.00010737715 0.013517443 2.2803152 0.011497493 -1.5523183
0.015232003 0.008289749 2.8879535 -0.04645135 -1.5516336 -1.5759451 0.009800973 -1.5730172
-0.010549555 -0.005628899 -0.015561586 0.013127569 0.023952173 -1.5556732 -1.4958184 -0.02114331
1.9631984 0.24805097 0.002194395 0.019959077 -0.010033375 0.6604908 -0.08625269 -1.4395628
0.011814173 0.74899143 0.5774592 0.012359245 -1.5895989 -1.5710946 0.007440223 0.010699372
-1.5550563 -0.009730921 2.9375677 -1.6315846 0.027698718 -0.005999442 1.3768799 -0.042343136
0.021742499 0.668089 1.0947284 0.4528098 0.028545057 0.021154711 -1.6060071 -0.017249556

layer3.bias f4 [128]
00000000: 6365 aabb 7fd5 c23e 9914 ac3e 9802 76bb
00000010: 472c 0e3e b765 2f3e 3f53 0f3e 89fd 453e
00000020: fae4 aa3a c071 263c b1cf 1d3e 03e8 7f3e
00000030: 5137 d63e a2f0 9b3e 91b8 2f3e f88f c03e
00000040: f9a1 bd3e 761f aa3e 7429 aa3e 0ecc ab3e
00000050: 090a bb3e ce85 b63e 88d6 d5bc d1ef c33e
00000060: 9bbc 4e3e 5d2c 5a3e ca05 e0bc d71c 4a3e
00000070: 98f3 ceba 17af c03e d0e3 ca3d a307 613c
00000080: 6888 1f3e 4cbc fa3d ec9a b13c 31e9 edbb
00000090: 3365 8abb 855a ad3e e975 9e3d aa74 bc3d
000000a0: a9ad 103e 999e c8bb 8bb5 60bc 03ea aa3e
000000b0: caef 0abb f808 033e 4755 aa3e fecf ab3d
000000c0: d782 843d 482c 483e 2584 b43d a062 2d3e
000000d0: 85e8 bc3e b070 443c 6a88 6d3e 525a 293e
000000e0: 54a8 bd3e 2459 51bb 1f8e f3bc 2379 b83e
000000f0: c8d7 f9bb e987 6b3e 4465 d33e db28 ae3e
00000100: e1c9 c23e 383a b7bc 13e6 c2bc 5f5a aabc
00000110: f254 283c a3df bd3e 7a4b 0b3e 6c4a b53e
00000120: 93bc 32bc f150 a33e 3121 2f3e 7b7f aa3e
00000130: d990 913e 5a5c 95bc fc90 bf3e a507 e7bc
00000140: aa61 1a3e 0f78 293e 2d24 2b3e b32d bf3e
00000150: 3357 ec3d 1518 6c3d a118 ae3e 2a93 f03e
00000160: 4d45 eebc 420c b33e fcf3 e93d 65bb 643e
00000170: 0a3c a23e a206 9e3e 15ac a93e 32e7 79bc
00000180: 1c77 a43d 93d9 773b a305 cf3e c86b b23e
00000190: f603 053e 0cf9 7ebc 434a e2bb cdf6 79bc
000001a0: ee8f ad3e 2be2 9f3e 555e b33e 7112 a93e
000001b0: 4353 8e3e 3c91 203e d1c8 9c3e 0286 c13c
000001c0: 95cc 95bc 7408 7dbb d02e 2a3e 1647 a1bd
000001d0: aafd ad3e bdc6 cf3e e1d0 023e 5f0a 9a3d
000001e0: 53e9 f43b f114 e33d 827e c23e e6db eb3d
000001f0: 08ec 143e fca1 2c3e 64d0 ac3e f432 543e
-0.0052000745 0.3805351 0.33609465 -0.0037538167 0.13884078 0.17128645 0.139966 0.19334997
0.0013038211 0.010158956 0.15411259 0.24990849 0.41839078 0.30457026 0.1716025 0.3760984
0.37037638 0.33227128 0.3323475 0.3355412 0.36531094 0.3564896 -0.026103273 0.38268903
0.20189135 0.21305986 -0.02734651 0.19737564 -0.0015789149 0.37633583 0.09906733 0.013734731
0.15579379 0.12242946 0.021680318 -0.0072604646 -0.0042234897 0.33858123 0.07737333 0.092019394
0.14128746 -0.006122422 -0.013715158 0.33381662 -0.0021200054 0.1279639 0.33268186 0.08389281
0.06470268 0.19548142 0.08814267 0.16932154 0.36896148 0.011989757 0.23196569 0.1653836
0.37042487 -0.0031944 -0.029730855 0.3602992 -0.0076246 0.23001064 0.41288197 0.34015545
0.38044646 -0.022366628 -0.023791349 -0.020795045 0.010274159 0.37084684 0.13603011 0.35408342
-0.010909217 0.3189769 0.17102505 0.33300385 0.28430822 -0.018232513 0.37415302 -0.028201887
0.15076318 0.16549705 0.16713019 0.37339553 0.115400694 0.057640154 0.34003165 0.46987277
-0.02908578 0.3497029 0.114234895 0.2233711 0.3168643 0.30864435 0.331391 -0.015252875
0.08030531 0.0037818893 0.40433988 0.34847856 0.12989792 -0.015562307 -0.0069058253 -0.015256596
0.33898872 0.3122724 0.35032907 0.33021882 0.277979 0.15680403 0.3062196 0.02362347
-0.018286029 -0.0038609775 0.1661942 -0.07874887 0.33982593 0.40581313 0.12774993 0.075215094
0.0074741035 0.11087979 0.37987143 0.11516552 0.14543164 0.16858667 0.3375274 0.20722562

output_layer.weight f4 [9, 128]
00000000: 7d0c e6bb 4d21 48bf 9e52 e1bd 4566 edbb
00000010: c3d4 a03e ab71 b93e 9689 b53e d286 993e
00000020: 69fb 8e3b c20f a43b 3c27 b03e d6f2 13bf
00000030: 46f5 0dbf d076 babe 83b9 9b3e e26f 4abf
00000040: 98bd 31bf 6179 28bf aa3b 4ebf 6fa3 0dbf
00000050: 36db 4ebf 9050 3fbf 1336 bfbc 0eda 35bf
00000060: 4872 b83e 5256 08bf ae06 8f3c 6a3f 943e
00000070: 8022 a83c b9da cfbe 293d c63e 7371 e1be
00000080: 69ae aa3e c324 8f3e a477 7fbe b9b5 80bc
00000090: 5295 c93c 8a00 36bf c0ee 963e 87f2 953e
000000a0: a67d b03e 6380 8fba 0a5a c5bb 24ea 1cbf
000000b0: 6c40 c5be 9ecf 673e e202 22bf 8a3d 503e
000000c0: 0583 98bf 1f3e 06bf 68ed ad3e b410 b23e
000000d0: c749 52bf 9a9e a0bc a38e 1cbf ff57 c03e
000000e0: 2d39 43bf 0d81 33bc 4512 9bbc c364 fabe
000000f0: e24b c9bc 99b2 a53e 9056 0bbf 1cde 32bf
00000100: 76fd 2fbf 4adb f5ba 2c93 c13c 4610 0c3f
00000110: 9885 193c 6fe6 68bf e4a3 b73e 19ba 31bf
00000120: 5730 bfbc 919a ccbe 9f48 b53e 0362 28bf
00000130: efcd 18bf de0b 29bc 5533 4cbf 3026 413c
00000140: 1e64 c63e 0671 b53e fb9d be3e bb1e 33bf
00000150: 6362 c63e 8478 853e ed82 47bf 9014 f5be
00000160: 6d02 99bc c699 26bf 8525 933e fd32 1ebf
00000170: 2595 59bf 54c9 09bf bd5f 1fbf 5e23 c4bc
00000180: 0857 c73e 1a11 70bc e92c cabe 897a 4abf
00000190: 29c0 8f3e 9b10 3b3c 5f30 05bc fbde 94bc
000001a0: a6fe 34bf 1cd7 1bbf 59d0 c2be a436 48bf
000001b0: 114e b6be 49ba 9c3e f983 fdbe 7942 a2bb
000001c0: 4430 45bc 038c bbbc cb4e 10bf 757a fc3e
000001d0: 04f9 34bf 20d4 d4be dc3b 8a3e 0ab4 c53e
000001e0: b1de af3c 91f1 ba3e 5b16 30bf ff2f 9b3e
000001f0: 2a32 a23e b9ed a83e 8f12 e0be 07d6 8c3e
00000200: 3ecd 423c 6d2c 4dbf 35a9 c03d 5883 dc3b
00000210: 2298 3f3e 7022 633e 5aa1 443e bb80 6a3e
00000220: 6e1c 3dbc 2bcb acbc a9f1 583e 13af 8cbe
00000230: fb90 c3bd 2dde a4bd 8c04 673e 16ac 4fbf
00000240: ff8a 53bf ad3c 41bf 07ef 42bf 2354 f4bd
00000250: 7370 47bf 57a4 52bf 227e 85ba 63ce 4bbf
00000260: 1a0f 8c3e a57e 90be d800 f8ba 445d 523e
00000270: dd29 76bc 8376 81bd ea20 473e 4266 eabe
00000280: 8324 503e e8ea 2d3e 5a4b b2bd a29d a3bc
00000290: 7f4b bbbc fd41 43bf 08b9 173e c9af 1a3e
000002a0: 0575 7b3e 3b6c dbb9 6162 b33c bec1 3ebf
000002b0: 3941 04bf 8efb 2a3e 52c0 39bf 80b5 fa3d
000002c0: 9b9b 57bf a118 06bf 0321 3b3e 5fdd 4e3e
000002d0: 17ee 43bf 02fa d1bb 6ba7 2bbf f330 753e
000002e0: bec8 41bf fb2d 9bbc df64 913c c486 e1bd
000002f0: 0c09 8bbc 9027 733e 23c1 43be 352e 3fbf
00000300: 1546 4abf 5e62 3d3c dfbb 04bc daab 333e
00000310: 7581 97bb 528e 49bf 6db0 7e3e 3b46 59bf
00000320: a9c9 13bc f8bd 94bd 248b 683e 08c7 41bf
00000330: e659 40bf 8943 90bc c1e0 44bf 0154 03bb
00000340: 20a5 683e c8ef 793e 4841 693e 1e5b 51bf
00000350: a469 2c3e 3ca8 f43d 6098 41bf 6049 523d
00000360: bf32 bcbc 0561 3cbf fe8b 1f3e b98e 31bf
00000370: ea3f 34bf 54ae 3fbf a208 42bf 0582 b3bc
00000380: 9302 383e f9fa 473c 2c27 0f3d f72c 56bf
00000390: d622 263e e7f0 b1bb 58b2 1a3c a75c 6dbc
000003a0: 978e 44bf ce3f 35bf a35d babd bca2 47bf
000003b0: 9d0e a6bd a765 6e3e 10ee 06be 01b3 a6bc
000003c0: aa89 bbbc 180c db3c 382b 04bf 0662 b93d
000003d0: d0f1 41bf 4343 ffbb 3776 223e 30e3 563e
000003e0: 1ecb d73c 7498 3a3e 047b 49bf 85d2 503e
000003f0: fa90 3a3e 09d4 423e b7bc eabd a2d6 673e
-0.0070205317 -0.7817581 -0.11002086 -0.0072448575 0.31412324 0.36219534 0.35456532 0.29985672
0.0043634665 0.0050067613 0.34404933 -0.57792413 -0.5545238 -0.36418772 0.30414972 -0.7907697
-0.6942992 -0.6581021 -0.8055979 -0.55327505 -0.8080324 -0.74732304 -0.023341214 -0.7103585
0.3602469 -0.53256714 0.01745924 0.2895463 0.020524263 -0.4059656 0.38718536 -0.44031867
0.3333619 0.27957734 -0.24947983 -0.015711652 0.024607334 -0.7109457 0.29479027 0.29286596
0.34470862 -0.0010948296 -0.0060226964 -0.6129477 -0.38525712 0.22637793 -0.6328565 0.20335975
-1.1914984 -0.5243854 0.3397019 0.34778368 -0.82143825 -0.019606877 -0.61155146 0.37567136
-0.7625912 -0.010956061 -0.01892961 -0.48905 -0.024572317 0.32362822 -0.5442896 -0.6987016
-0.68746126 -0.001875737 0.023629747 0.5471233 0.00937023 -0.90976614 0.35867226 -0.6942459
-0.02333848 -0.39961675 0.35406968 -0.65774554 -0.5968923 -0.010317771 -0.79765826 0.01178889
0.38748258 0.35437793 0.37229905 -0.69968766 0.38746938 0.2606851 -0.7793415 -0.4786725
-0.018677915 -0.6507839 0.28739563 -0.6179655 -0.849932 -0.5382283 -0.6225546 -0.023942646
0.38933587 -0.014652515 -0.3948739 -0.79093224 0.28076294 0.011417533 -0.008129208 -0.018172732
-0.7070106 -0.60875106 -0.38049582 -0.78208375 -0.35606435 0.30610874 -0.4951475 -0.004951772
-0.012035433 -0.022893911 -0.5637023 0.49312177 -0.7069247 -0.4156809 0.26998794 0.3861392
0.021468492 0.36512426 -0.6878411 0.30310056 0.31678897 0.32993868 -0.4376416 0.2750704
0.011889754 -0.80145913 0.09407274 0.0067295246 0.18710378 0.22181106 0.19202176 0.2290067
-0.011542423 -0.021092972 0.21185936 -0.2747732 -0.09549137 -0.08050189 0.22560328 -0.8112196
-0.82633966 -0.7548321 -0.76145977 -0.1193011 -0.7790596 -0.8228201 -0.0010184685 -0.79611796
0.27355272 -0.28221622 -0.001892115 0.2054339 -0.015024629 -0.063214324 0.1944615 -0.45781142
0.20326428 0.16984141 -0.087057784 -0.019972626 -0.022863148 -0.76272565 0.14816678 0.15106119
0.24556358 -0.00041851573 0.021897497 -0.7451438 -0.5166202 0.16697523 -0.7255908 0.1224165
-0.8422181 -0.5238133 0.18274312 0.20201634 -0.7653517 -0.006407977 -0.67052335 0.23944454
-0.75696933 -0.018942824 0.017748294 -0.11012033 -0.016972087 0.2374556 -0.19116645 -0.7467988
-0.79013187 0.011559097 -0.008101433 0.17546025 -0.004623587 -0.7873279 0.24871989 -0.8487279
-0.0090202475 -0.07262796 0.22709328 -0.7569432 -0.75137174 -0.017610328 -0.7690545 -0.0020039084
0.2271924 0.24407876 0.22778809 -0.8177966 0.16837174 0.11946151 -0.7562313 0.051339507
-0.022973416 -0.7358554 0.15580747 -0.693584 -0.70410025 -0.7487538 -0.7579442 -0.021912584
0.17969732 0.012205833 0.034949467 -0.8366236 0.16224226 -0.005430329 0.0094419345 -0.014487422
-0.76780075 -0.70800483 -0.09099891 -0.7798269 -0.08108256 0.23280965 -0.13176751 -0.020349028
-0.022892792 0.026739165 -0.51628447 0.090518996 -0.757596 -0.0077900006 0.15865408 0.20985103
0.026341971 0.18222219 -0.7870333 0.20392807 0.18219367 0.19026197 -0.11461776 0.2264047

output_layer.bias f4 [9]
00000000: 34da cebe e1c4 c7bc d18e 3ebd 8842 c23c
00000010: 4a3f 1b3b d67f 983c fb9c 71bd f603 39bd
00000020: 468c dabd
-0.4040085 -0.024385871 -0.04652292 0.023713365 0.0023688846 0.018615644 -0.0589876 -0.045169793
-0.10671286
