ngzhii/long/results/train/DQN_robot_weight/learning_rate_actor_0.01/best_model.pt (torch, 160623 bytes, 8 tensors)

layer1.weight f4 [128, 40]
5.6922483e-10 4.8836873e-10 1.1116178e-09 2.0609563e-09 9.80896e-10 3.6269687e-10 1.1925979e-09 -3.3331986e-11
1.3376354e-10 1.1128313e-09 1.262801e-09 -3.5337e-10 4.0195747e-10 -3.191742e-10 8.603923e-10 1.3372895e-09
-5.6638083e-10 -9.570184e-11 1.4084465e-09 1.2915163e-09 7.189968e-11 1.5585442e-09 8.6476093e-10 2.2073224e-10
3.949586e-10 6.699019e-10 1.4358937e-09 4.852287e-10 -4.8532045e-10 9.451891e-11 -5.402505e-10 7.25676e-10
-4.789571e-10 1.5745765e-09 3.282514e-10 1.6645824e-10 7.3811823e-10 1.7780849e-10 -5.03559e-10 -1.8946088e-10
-1.1761777e-09 -1.3211101e-09 2.3197719e-10 -8.5778856e-10 8.416267e-11 -9.972324e-10 3.8194192e-10 6.412566e-10
2.3217943e-10 6.162607e-10 -3.371059e-10 5.1758986e-10 6.992418e-10 -1.2583675e-09 -3.3630113e-10 -7.236081e-10
-1.5262709e-10 -9.517525e-10 5.6046806e-10 2.7362002e-10 -1.1554532e-09 -8.1111856e-10 -1.3995269e-09 9.481037e-11
-7.8258666e-10 -9.767703e-10 -2.5880229e-10 6.57049e-10 -2.1404326e-10 -4.9315246e-10 1.6405949e-10 7.8644175e-10
1.73511e-10 1.271614e-10 -6.8139144e-10 5.387178e-10 1.3162674e-10 -5.943603e-10 -5.231019e-10 2.2535714e-10
-7.4780127e-10 2.4147515e-10 5.0319093e-10 -4.6183413e-10 -1.1478379e-09 4.782478e-10 -3.2807715e-10 6.499362e-10
7.2068784e-10 5.650433e-10 5.8105104e-10 3.1105955e-11 3.3473113e-10 -1.4559397e-10 7.0401396e-10 -1.3997807e-09
-1.5272929e-10 -4.7013693e-10 -1.2326447e-09 4.781013e-10 -1.0658273e-09 2.4424793e-10 -1.3944281e-09 -3.7937803e-10
4.3539172e-10 -1.4064568e-09 -1.207259e-09 -2.7884392e-10 -9.821178e-10 -1.0242134e-09 -9.169895e-11 6.8524336e-10
7.641588e-10 -1.0710459e-09 -1.4198925e-10 -4.960586e-10 -4.0464293e-10 -7.5431655e-10 2.1998227e-10 -3.4105754e-10
-3.1221828e-10 3.2770947e-10 -1.1326651e-09 -3.67315e-10 7.136084e-11 1.1809854e-10 -1.380098e-09 -1.2368497e-10
7.0137385e-10 -2.8682207e-10 -1.0589194e-09 1.4558361e-10 5.388187e-10 -5.802018e-10 -2.2878233e-10 -7.8116263e-10
-7.2241024e-10 -1.5505137e-09 -7.6902307e-10 -5.428043e-10 -1.0924321e-09 3.8147974e-10 -1.5245342e-09 -4.293067e-10
-1.8398373e-10 2.584433e-10 -9.203672e-10 -7.771673e-10 -1.0657039e-09 4.4864062e-10 2.5535782e-10 6.748215e-10
5.995344e-10 -2.0896836e-10 -4.599895e-10 -8.101719e-10 -1.119523e-09 -8.196755e-10 -3.1048925e-10 6.7771966e-10
-9.322351e-10 -7.2230755e-10 -1.1890582e-09 3.395491e-10 -5.632569e-10 -6.724911e-10 -5.2644486e-11 5.350472e-10
-1.180069e-09 -7.8191065e-10 -3.300265e-10 -1.5238665e-09 -8.1307583e-10 -8.511808e-10 -1.5656518e-09 -1.6445769e-09
2.5600693e-11 -1.0841795e-09 5.6716326e-10 -1.3429191e-09 -9.972456e-10 -1.7643097e-10 -1.6724368e-10 -1.6464394e-09
-1.6321376e-09 3.214697e-10 5.655815e-10 -1.0361553e-10 3.2357494e-10 6.428899e-10 -3.3333683e-10 5.7360783e-10
-3.7188946e-10 5.801017e-10 -3.7781187e-10 -1.0356646e-09 4.5916435e-10 6.0628585e-10 -1.15076365e-10 2.7419186e-10
-4.0803705e-10 -4.5542128e-10 3.9393197e-10 1.0542727e-09 8.350294e-10 -5.112089e-10 -2.6594868e-10 -3.097448e-10
-1.5395141e-10 1.1464156e-09 -7.228271e-13 -1.0451972e-09 -2.1928785e-10 -7.799136e-10 1.2916684e-10 8.9675184e-10
-1.7882346e-10 8.712657e-11 -7.254005e-10 -6.344732e-10 6.5403544e-11 -5.9174465e-10 5.6900838e-11 2.7978095e-10
-6.3929195e-10 -4.284348e-10 -1.0299048e-09 1.02516266e-10 2.594948e-10 -4.3625226e-10 1.0622226e-09 1.1021786e-09
8.1637586e-11 6.1185107e-10 -1.397692e-10 -5.570487e-10 -1.0184643e-09 -2.5015676e-10 -2.4239291e-11 3.1413683e-10
-9.581106e-10 -5.943214e-10 -1.0150283e-09 9.198824e-10 -3.3107544e-10 -1.1204225e-09 1.1396593e-10 5.2069216e-10
8.1167056e-10 -8.9391355e-10 4.2243892e-11 9.879451e-10 5.7770913e-11 1.0955098e-09 3.8748246e-10 -1.008139e-09
00000000: a377 1c30 e53d 0630 93c7 9830 baa0 0d31
00000010: 36d0 8630 0c65 c72f cfe8 a330 7b98 12ae
00000020: 1713 132f 45f2 9830 dc8e ad30 6844 c2af
00000030: 7cfa dc2f c677 afaf ba80 6c30 b1cb b730
00000040: 82af 1bb0 5973 d2ae 4e93 c130 3181 b130
00000050: ec1b 9e2e 6634 d630 24b4 6d30 9ab2 722f
00000060: 7b21 d92f 2824 3830 0559 c530 ef60 0530
00000070: 6467 05b0 6ad9 cf2e c080 14b0 e978 4730
00000080: 9ca7 03b0 7c68 d830 4775 b42f d405 372f
00000090: 74e4 4a30 a480 432f d06a 0ab0 7f50 50af
000000a0: 13a7 a1b0 6e92 b5b0 c60f 7f2f 81c9 6bb0
000000b0: 5f13 b92e ff0e 89b0 8cf9 d12f 6c44 3030
000000c0: b348 7f2f 7e65 2930 7053 b9af 2646 0e30
000000d0: c434 4030 dff2 acb0 2de2 b8af 65e7 46b0
000000e0: b5d0 27af d0ce 82b0 6f0f 1a30 986c 962f
000000f0: e5cd 9eb0 65f5 5eb0 7a59 c0b0 7e7d d02e
00000100: a41d 57b0 0d3f 86b0 2f47 8eaf b79b 3430
00000110: d257 6baf 858e 07b0 a462 342f eb2c 5830
00000120: 01c7 3e2f c1d0 0b2f a94c 3bb0 e514 1430
00000130: a2b9 102f 6360 23b0 06ca 0fb0 65c8 772f
00000140: d68d 4db0 9bc0 842f ea50 0a30 60e5 fdaf
00000150: f5c1 9db0 b275 0330 c15c b4af 32a7 3230
00000160: e619 4630 6351 1b30 d5b7 1f30 31ce 082e
00000170: 3805 b82f 0f15 20af 9484 4130 6862 c0b0
00000180: 79ed 27af f23a 01b0 d469 a9b0 636b 0330
00000190: 777c 92b0 d746 862f 14a6 bfb0 b690 d0af
000001a0: f05b ef2f 4d4d c1b0 a6ec a5b0 cb4b 99af
000001b0: 33fb 86b0 4ec4 8cb0 eba5 c9ae b75b 3c30
000001c0: e50c 5230 1434 93b0 6c1e 1caf 055b 08b0
000001d0: 6e74 deaf 4f58 4fb0 81df 712f 957f bbaf
000001e0: d1a4 abaf 0229 b42f 1cac 9bb0 feee c9af
000001f0: 95ec 9c2e c9d9 012f e2ad bdb0 39fe 07af
00000200: ccca 4030 9eae 9daf 6a89 91b0 2512 202f
00000210: ff1b 1430 127c 1fb0 808c 7baf 6fb9 56b0
00000220: 1a93 46b0 da19 d5b0 3063 53b0 7534 15b0
00000230: 8a24 96b0 80b8 d12f c787 d1b0 8c03 ecaf
00000240: d14a 4aaf a914 8e2f 16fd 7cb0 49a0 55b0
00000250: 1f78 92b0 8ea4 f62f 6b62 8c2f 577e 3930
00000260: 7ccc 2430 5dc3 65af c4e1 fcaf c7b2 5eb0
00000270: b7dd 99b0 894f 61b0 7ab1 aaaf 484a 3a30
00000280: 1b20 80b0 e08b 46b0 446c a3b0 4aab ba2f
00000290: aed3 1ab0 5bda 38b0 6c88 67ae 9912 1330
000002a0: fd2f a2b0 12ee 56b0 1a6f b5af 4970 d1b0
000002b0: 207f 5fb0 86f8 69b0 7a2e d7b0 6807 e2b0
000002c0: a32f e12d 2d02 95b0 91e6 1b30 c491 b8b0
000002d0: 760f 89b0 e7fc 41af e9e2 37af f048 e2b0
000002e0: bd51 e0b0 d7ba b02f 4377 1b30 5cda e3ae
000002f0: 20e3 b12f 5bb7 3030 fd40 b7af 10ac 1d30
00000300: ca72 ccaf 0775 1f30 4bb4 cfaf 3557 8eb0
00000310: a36d fc2f 93a7 2630 3c0e fdae 13bd 962f
00000320: 1c52 e0af d95e faaf ff90 d82f ece5 9030
00000330: f887 6530 2185 0cb0 f334 92af b548 aaaf
00000340: 7845 29af ea8f 9d30 2f75 4bab 9ba6 8fb0
00000350: 0b1c 71af 8a61 56b0 3c05 0e2f 4d7f 7630
00000360: 549e 44af e697 bf2e 8665 47b0 1567 2eb0
00000370: ecd2 8f2e 54a8 22b0 a640 7a2e abcf 992f
00000380: 2cba 2fb0 d688 ebaf 8e8c 8db0 876f e12e
00000390: a5a8 8e2f 0cd5 efaf a3fd 9130 767b 9730
000003a0: e085 b32e 312f 2830 88ad 19af d11e 19b0
000003b0: 07fa 8bb0 6f86 89af 0836 d5ad d4b2 ac2f
000003c0: 85ae 83b0 a75d 23b0 2281 8bb0 f8da 7c30
000003d0: ba02 b6af 5dfd 99b0 1d9d fa2e 7420 0f30
000003e0: 3d1c 5f30 93b7 75b0 65ca 392e 3ac8 8730
000003f0: 4414 7e2e d390 9630 4f05 d52f bd8e 8ab0

layer1.bias f4 [128]
1.1892493e-09 1.8673119e-10 -6.362362e-10 -7.6121814e-10 4.5496396e-10 -4.5020116e-11 -1.0823702e-09 4.551907e-11
9.854356e-10 -6.9638884e-10 -9.372176e-10 1.0822557e-10 -1.5987799e-09 -2.530331e-10 1.286072e-10 9.571307e-10
-9.519084e-10 6.4826067e-10 -2.9099691e-11 -1.2287947e-10 -8.6244045e-10 -3.3759098e-10 -1.014362e-09 -1.4429997e-09
7.7553813e-10 1.495447e-13 1.9807209e-10 2.5552085e-10 6.224046e-10 -4.5930704e-10 5.3455596e-10 -2.6237515e-10
-5.7995014e-10 -7.0818316e-11 5.3616284e-10 3.4947029e-10 3.3267594e-10 7.254157e-10 3.810351e-11 -1.0679393e-09
-1.8353673e-10 4.0281628e-10 2.1822408e-10 -4.1485776e-10 -1.1787475e-09 -4.3816217e-10 -1.3015142e-09 -5.2739e-11
1.7495283e-09 -6.5236044e-10 1.5742073e-10 -1.2959627e-09 5.91061e-10 4.731433e-10 -5.206099e-10 3.814696e-10
3.1483055e-10 -5.051603e-10 -9.2969166e-10 -3.3808303e-10 3.9801593e-10 -7.251719e-10 -8.800738e-10 2.0992391e-10
7.870123e-12 3.8803694e-10 2.5029986e-10 -4.0700876e-10 -6.341501e-10 3.915531e-11 -7.431872e-10 2.6443678e-10
-3.7758252e-10 -8.166633e-11 6.4039146e-10 -1.4853277e-09 3.3717126e-10 -2.2966545e-10 -1.2170766e-09 3.8283382e-10
-1.2440454e-09 -5.524413e-10 4.729183e-10 -9.634983e-10 -4.2909098e-10 1.1191389e-09 1.0489117e-09 5.918809e-11
-1.048405e-10 -6.071051e-11 1.7329813e-10 4.1392384e-10 7.1315114e-11 -1.80113e-10 -1.0848599e-09 -1.2113682e-10
-3.6569495e-10 -1.2183096e-09 1.4672594e-10 -1.6825549e-10 -1.2435551e-09 -3.0745176e-10 -1.1685592e-09 6.4029254e-10
7.437965e-11 1.0179733e-09 -1.5672157e-09 -6.416222e-11 -1.4171986e-10 -1.2063577e-09 -1.0682651e-09 -7.3186485e-10
-5.9660743e-10 1.1390443e-09 6.2363403e-10 -7.2690404e-10 2.203355e-10 8.5873514e-10 -3.5850942e-10 -5.749389e-10
-9.819992e-11 -4.0137582e-10 -4.7535786e-10 -1.5734452e-09 -6.9841843e-10 -1.975427e-10 -1.1026452e-09 2.9448683e-12
00000000: fd72 a330 2850 4d2f 24e3 2eb0 f73d 51b0
00000010: 7c1e fa2f 2500 46ae 84c2 94b0 eb31 482e
00000020: ef6f 8730 026c 3fb0 6acf 80b0 94fd ed2e
00000030: 11bc dbb0 3e1b 8baf b567 0d2f 0b8c 8330
00000040: 4dd4 82b0 4a31 3230 aef6 ffad 7f1b 07af
00000050: da10 6db0 b597 b9af b169 8bb0 0a53 c6b0
00000060: a52d 5530 535f 282a 56c8 592f 5d79 8c2f
00000070: d415 2b30 b881 fcaf 08f0 1230 053e 90af
00000080: 5d6a 1fb0 2bbb 9bae 1b61 1330 921f c02f
00000090: fae3 b62f 9866 4730 bd94 272e c6c6 92b0
000000a0: ffcc 49af 5a73 dd2f 9ef0 6f2f 0a12 e4af
000000b0: 7e01 a2b0 d8e1 f0af f6e0 b2b0 d6f2 67ae
000000c0: 0e74 f030 c951 33b0 ff15 2d2f a21d b2b0
000000d0: 3878 2230 800e 0230 aa1a 0fb0 13b7 d12f
000000e0: 7614 ad2f 7fdb 0ab0 3c8d 7fb0 f5dc b9af
000000f0: c3cf da2f 7055 47b0 b0e9 71b0 54d0 662f
00000100: e273 0a2d 5853 d52f 939a 892f 64c1 dfaf
00000110: 5950 2eb0 f634 2c2e 2649 4cb0 2b60 912f
00000120: 0494 cfaf 0f96 b3ae 8b07 3030 5324 ccb0
00000130: a35c b92f 1485 7caf 1346 a7b0 1277 d22f
00000140: f5fa aab0 9ada 17b0 abfe 0130 156c 84b0
00000150: 30e5 ebaf 33d0 9930 4d29 9030 ef27 822e
00000160: f48b e6ae fb80 85ae 168b 3e2f 9a8e e32f
00000170: d7d2 9c2e 4d09 46af 1d1a 95b0 fc30 05af
00000180: fd0a c9af 7571 a7b0 ae53 212f b6ff 38af
00000190: b5e9 aab0 fd05 a9af 069b a0b0 9500 3030
000001a0: 0590 a32e c0e8 8b30 8065 d7b0 1e18 8dae
000001b0: 98d2 1baf f0cc a5b0 3dd2 92b0 692c 49b0
000001c0: 84fe 23b0 8f8c 9c30 586c 2b30 53cf 47b0
000001d0: ee42 722f 1d0c 6c30 b717 c5af ba09 1eb0
000001e0: a4f1 d7ae a0a8 dcaf 56aa 02b0 ae40 d8b0
000001f0: d4fa 3fb0 5433 59af e18b 97b0 083a 4f2c

layer2.weight f4 [128, 128]
-5.215506e-12 1.7653293e-10 4.2287812e-11 1.3161466e-10 -1.1763218e-10 3.7852693e-10 -5.6636057e-10 -1.0184845e-10
2.8781244e-10 -7.0607964e-10 2.2151078e-10 1.1570403e-10 -4.6137485e-10 -4.4636828e-10 -5.0777027e-10 -3.4330114e-10
-9.6205065e-11 -9.223965e-10 -2.2240028e-10 -5.577217e-11 -3.999302e-10 4.192253e-10 5.600048e-10 -1.9509726e-10
3.4785114e-10 -2.4756297e-10 1.4624067e-10 -6.845361e-10 -4.553843e-10 1.07524496e-10 -3.7864714e-10 -4.5137394e-10
2.5567495e-10 2.5899155e-10 -4.7818555e-10 -3.0620198e-10 -2.2087371e-10 -2.6618793e-10 1.2474302e-10 3.1904898e-10
1.655792e-10 -5.06245e-11 -3.0406633e-10 -4.7457926e-10 -1.0545073e-11 2.9470687e-10 -8.130988e-12 -2.721646e-10
-6.1792504e-10 1.4128036e-12 -1.7222379e-10 -8.787859e-10 5.970526e-11 -2.1608927e-10 -6.0860005e-11 -3.428143e-10
-6.6920225e-10 -9.826571e-11 -2.2464446e-10 1.0578343e-09 -1.2572363e-10 3.2569414e-10 -9.319105e-10 4.5902565e-10
5.2883403e-10 -9.839456e-10 -3.3668052e-10 -3.8410806e-11 3.573457e-10 3.3154995e-10 4.6845805e-10 1.6990255e-10
2.6268973e-10 -1.0780359e-10 -5.03824e-10 2.1791172e-10 1.00552656e-10 -2.1880367e-10 -3.6988002e-10 4.951295e-10
2.1906147e-12 -5.6147675e-10 1.606274e-10 4.5764487e-10 9.940271e-11 4.5438972e-10 -1.1843497e-10 -4.1856726e-10
6.34601e-10 -7.2405926e-10 -4.6197818e-10 2.4927914e-11 -1.4637389e-10 -2.1491506e-10 -9.966342e-10 -2.2907999e-10
2.5582542e-10 -1.6163262e-10 -9.627187e-10 -2.7357952e-10 3.660937e-10 5.3439136e-10 4.8055543e-10 1.0874975e-10
2.0743807e-10 -4.1467074e-10 -2.7862468e-10 -8.0565477e-10 2.0081717e-10 -8.044195e-11 -1.9035869e-10 5.6734e-10
-4.877775e-10 -3.554863e-10 -5.40208e-10 3.0975827e-10 -1.8384844e-10 -5.707951e-10 -6.063026e-10 2.7592123e-10
-5.016221e-12 7.379158e-10 -4.017262e-10 1.0662321e-09 1.5216593e-10 -3.7215748e-11 -2.2593795e-10 6.2690336e-10
-1.4721642e-10 3.6141848e-10 -6.0857097e-10 -6.1309213e-10 4.3364365e-10 -7.323172e-11 -2.0452014e-10 -8.9436625e-10
6.1195676e-10 -4.4376014e-10 2.6040653e-10 6.931468e-11 5.3955947e-11 2.6120683e-10 -6.29685e-10 4.255904e-10
-5.679209e-10 -2.2030996e-10 -3.9452297e-10 -1.2049836e-10 -3.5573603e-11 -1.6556942e-11 1.2496305e-10 -5.6015703e-10
4.4207318e-10 -1.6998918e-10 -2.371754e-10 7.330024e-12 5.06627e-10 1.4404905e-10 5.295045e-10 3.1697628e-10
5.1713267e-10 8.903858e-11 -6.304133e-10 2.1171626e-10 -2.8592256e-10 -1.1173743e-10 4.0541656e-10 -6.142597e-10
4.8186055e-10 1.0498355e-10 -3.8397178e-11 -2.438173e-10 1.4504058e-10 -1.9876564e-10 5.8228544e-10 5.716945e-10
-3.7284753e-10 4.7297893e-10 -3.7908962e-10 -4.846784e-10 -5.5035076e-10 5.3026983e-10 -9.651985e-11 -2.8507507e-10
5.253088e-10 1.0138921e-10 -2.0830351e-10 3.772142e-10 1.276452e-10 4.820168e-10 -4.764638e-10 -6.132084e-10
6.291875e-10 -2.3018538e-10 2.6782854e-10 -5.506747e-10 -4.0923245e-10 1.3045456e-10 3.541378e-10 4.682434e-10
6.200125e-10 6.061029e-10 5.17889e-10 -3.5316655e-10 -4.793916e-10 5.93019e-10 -5.5864896e-11 -5.829873e-10
-3.5088546e-10 1.220891e-10 -4.2220123e-11 -4.707884e-10 2.6058483e-10 3.0453268e-10 2.1161649e-10 -6.3499783e-10
-3.8752357e-10 4.647811e-10 -4.9853566e-10 1.4746376e-10 -4.2253878e-10 4.3672557e-10 9.2752445e-11 -8.1987195e-11
-3.037257e-11 -3.8021608e-10 -2.2830535e-10 4.482896e-10 6.1396266e-10 -3.6575376e-10 -2.1984936e-10 4.3229603e-10
2.2309872e-10 2.7796931e-10 4.1217865e-10 5.017104e-10 2.488493e-10 -5.3314353e-10 -3.4887473e-10 5.255986e-11
-3.5317252e-10 -4.3844497e-10 6.120743e-10 -3.291225e-10 -6.249747e-10 -3.8558065e-10 2.5819788e-10 4.4722057e-10
3.936949e-10 4.1798157e-10 2.0359936e-10 5.5332242e-11 -1.8962754e-10 -9.451596e-11 5.342244e-10 -3.3400127e-10
00000000: 1a81 b7ac 9a19 422f d8fb 392e 3cb6 102f
00000010: 8456 01af ee18 d02f 15ae 1bb0 95f7 dfae
00000020: 003a 9e2f f015 42b0 be8d 732f 946f fe2e
00000030: bda4 fdaf c064 f5af 2893 0bb0 57bb bcaf
00000040: a38e d3ae e28b 7db0 1d88 74af e249 75ae
00000050: 2cdd dbaf b778 e62f d6ee 1930 ff82 56af
00000060: b23b bf2f 6419 88af 17cb 202f f229 3cb0
00000070: a559 faaf e972 ec2e d929 d0af 3c25 f8af
00000080: 0d8f 8c2f d261 8e2f 5171 03b0 1956 a8af
00000090: 6cda 72af 9f56 92af 0a28 092f 2766 af2f
000000a0: 670e 362f 1fa6 5eae 8829 a7af 8c73 02b0
000000b0: c982 39ad 4e04 a22f b70a 0fad c39f 95af
000000c0: 9cda 29b0 9dd5 c62b b05c 3daf 0f8f 71b0
000000d0: 134b 832e b997 6daf 23d5 85ae d376 bcaf
000000e0: ecf2 37b0 ad16 d8ae cbff 76af 3c63 9130
000000f0: 0e3c 0aaf 600d b32f b014 80b0 1e5a fc2f
00000100: 635d 1130 823b 87b0 9217 b9af b9ee 28ae
00000110: f073 c42f 8245 b62f cec4 0030 51cf 3a2f
00000120: 4b6a 902f 0710 edae 767d 0ab0 b298 6f2f
00000130: 1d1e dd2e c293 70af fc57 cbaf a419 0830
00000140: 9b26 1a2c 6a56 1ab0 989c 302f ca97 fb2f
00000150: c096 da2e abcd f92f 7b38 02af 1b1c e6af
00000160: 1370 2e30 2407 47b0 a6f9 fdaf ac44 db2d
00000170: 96f0 20af 364d 6caf f3f9 88b0 49e0 7baf
00000180: 3aa4 8c2f 8ab7 31af a750 84b0 e566 96af
00000190: 1c43 c92f 73e4 1230 1518 0430 ab24 ef2e
000001a0: a014 642f b8f7 e3af f02c 99af ea74 5db0
000001b0: 02cd 5c2f cbe4 b0ae 354d 51af 01f3 1b30
000001c0: 4a14 06b0 406e c3af c27d 14b0 9a4a aa2f
000001d0: bc24 4aaf 22e6 1cb0 c1a8 26b0 76b0 972f
000001e0: 1a7e b0ac 35d6 4a30 f0d9 dcaf b58a 9230
000001f0: e74e 272f 35ad 23ae e16b 78af 6752 2c30
00000200: bddd 21af 21b1 c62f 6048 27b0 8686 28b0
00000210: eb65 ee2f cb09 a1ae 4ddf 60af 6ed7 75b0
00000220: a136 2830 b0f5 f3af f628 8f2f b26c 982e
00000230: ff4c 6d2e 9899 8f2f 2516 2db0 86f8 e92f
00000240: e11b 1cb0 be3b 72af 2ce4 d8af 467d 04af
00000250: 5174 1cae eba2 91ad f965 092f 8cf9 19b0
00000260: 4508 f32f b3e7 3aaf 7863 82af 7ef3 002d
00000270: b542 0b30 3462 1e2f 918c 1130 7242 ae2f
00000280: fa25 0e30 44cc c32e 6449 2db0 d4c8 682f
00000290: 0630 9daf 95b6 f5ae 4fe1 de2f afd8 28b0
000002a0: ec73 0430 7cdc e62e 61df 28ae 3c0a 86af
000002b0: 4b79 1f2f 8e8b 5aaf b20e 2030 6d25 1d30
000002c0: a0f9 ccaf ef02 0230 1f68 d0af 363a 05b0
000002d0: 7e47 17b0 6cc2 1130 d83f d4ae c0b8 9caf
000002e0: 5265 1030 0df5 de2e 3a08 65af 2e60 cf2f
000002f0: ee58 0c2f eb7e 0430 29f8 02b0 b48e 28b0
00000300: 22f3 2c30 6d17 7daf 843d 932f 495e 17b0
00000310: 59fa e0af b26f 0f2f 77b0 c22f b3b5 0030
00000320: 806d 2a30 b39a 2630 335b 0e30 c627 c2af
00000330: 2fc6 03b0 0102 2330 48b2 75ae 1640 20b0
00000340: bde6 c0af 073d 062f a2af 39ae ca68 01b0
00000350: 0e42 8f2f 2a6b a72f bfac 682f 008c 2eb0
00000360: 180b d5af 2084 ff2f 5409 09b0 5c23 222f
00000370: 0c4b e8af a917 f02f fcf6 cb2e b04a b4ae
00000380: 7994 05ae a806 d1af 3e06 7baf 2773 f62f
00000390: c8c3 2830 4413 c9af 18ba 71af 42a8 ed2f
000003a0: b54c 752f b4d0 982f fd98 e22f bbe8 0930
000003b0: 6dce 882f a48c 12b0 c1cb bfaf 2429 672e
000003c0: 9d28 c2af a509 f1af e63e 2830 e0ef b4af
000003d0: afca 2bb0 a7f9 d3af 1ff2 8d2f b3dc f52f
000003e0: a26f d82f adc9 e52f 20dc 5f2f 915a 732e
000003f0: 687f 50af c1d7 cfae b3d8 1230 809e b7af

layer2.bias f4 [128]
-4.029402e-10 -7.2235745e-10 -8.995074e-10 -1.6450313e-10 -3.49842e-10 -1.4481663e-09 -5.2410054e-10 -1.9827934e-10
-3.9936918e-10 -1.4575776e-09 4.279752e-10 -1.1261372e-09 -4.5738846e-10 -1.6784531e-10 -1.5698634e-10 -2.729501e-11
-7.9374934e-10 -3.7644218e-10 -3.6562178e-10 -2.562756e-10 -1.0991246e-10 -1.3290261e-09 -6.290923e-10 -5.7460113e-11
1.5912144e-10 -4.5582432e-10 -1.5585692e-09 -1.0597581e-09 -1.9252466e-10 -1.14986715e-10 -2.4132177e-10 -1.9238113e-11
-6.4018507e-10 -1.1217648e-09 -1.595069e-09 -1.154418e-09 -9.157864e-10 -1.2404882e-09 -1.5484715e-10 -9.625651e-10
9.547249e-10 -8.285453e-10 -3.3789244e-10 -2.881987e-10 -6.413094e-10 -1.457605e-09 -3.0573694e-10 -1.3663857e-09
-2.6488156e-10 2.932016e-10 -8.160357e-10 -6.8662376e-10 -1.1951344e-09 -1.4517442e-09 -3.167222e-11 -3.2839836e-10
-1.8138312e-09 -5.506541e-10 -1.0676573e-09 -8.14499e-10 -1.6423524e-09 -3.1467218e-10 -6.515218e-12 -2.2195791e-10
-1.4987194e-09 -1.6328942e-09 -6.0326294e-10 -1.1904724e-09 2.0313688e-10 -9.865304e-10 -7.6264367e-10 -4.3445444e-10
-5.807081e-10 -1.1174331e-09 -9.21826e-10 -7.7319995e-10 -4.341979e-10 -7.324022e-10 -1.982211e-09 3.258276e-10
-1.4997243e-09 2.3987763e-11 -1.4120363e-09 -1.3432567e-09 -1.7211914e-09 -3.6958145e-10 -4.1969178e-10 -5.978061e-10
-2.556645e-10 -1.1432105e-09 -9.875736e-10 -2.6497057e-10 -3.2991088e-10 -1.5300525e-09 -1.0445995e-09 -4.7495297e-10
-9.911381e-10 -8.4135865e-10 -3.2461225e-10 -8.104387e-10 -9.0756763e-10 -1.3396082e-09 -8.820489e-10 -1.3389726e-09
-8.594958e-10 4.5858847e-10 -3.8703843e-10 -3.7882808e-10 -2.4562818e-10 -2.317356e-10 -6.5784367e-10 -1.5522933e-10
-3.0471992e-10 -1.1932315e-09 -1.2082448e-09 -5.9110916e-10 -3.732231e-10 -1.1880565e-09 -2.022163e-10 -1.1283255e-10
-1.2727217e-09 -1.3868787e-09 -5.15308e-10 -1.1730843e-09 -2.8672056e-10 -6.788484e-10 -6.1608774e-12 -1.6997117e-09
00000000: cb84 ddaf 638f 46b0 3541 77b0 84df 34af
00000010: e253 c0af d208 c7b0 4c10 10b0 ac02 5aaf
00000020: 378e dbaf f453 c8b0 2848 eb2f 6ec6 9ab0
00000030: b473 fbaf 418c 38af ba9b 2caf e616 f0ad
00000040: 252f 5ab0 87f3 ceaf b100 c9af 96e3 8caf
00000050: 37b3 f1ae f3a8 b6b0 6fec 2cb0 56b6 7cae
00000060: b4f4 2e2f 9297 faaf 4735 d6b0 eca6 91b0
00000070: e0ae 53af c4db fcae 05ab 84af 6138 a9ad
00000080: 05f9 2fb0 972c 9ab0 8039 dbb0 79a9 9eb0
00000090: bdba 7bb0 cc7d aab0 9941 2aaf 404b 84b0
000000a0: 6537 8330 b1bf 63b0 22c2 b9af 5c70 9eaf
000000b0: 2348 30b0 eb54 c8b0 a614 a8af 6ccb bbb0
000000c0: c49e 91af 7530 a12f 684f 60b0 dabc 3cb0
000000d0: 0e42 a4b0 b586 c7b0 c04b 0bae f689 b4af
000000e0: 834a f9b0 d65c 17b0 dabc 92b0 46e3 5fb0
000000f0: 23b9 e1b0 2cfe acaf de3b e5ac 990b 74af
00000100: 80fb cdb0 5b6c e0b0 dbd2 25b0 069e a3b0
00000110: f359 5f2f 7496 87b0 47a2 51b0 07d8 eeaf
00000120: b39f 1fb0 2f94 99b0 bd63 7db0 1c89 54b0
00000130: ecb3 eeaf 3952 49b0 6d37 08b1 2820 b32f
00000140: dc1e ceb0 a4ff d22d 9c11 c2b0 a59d b8b0
00000150: 0a8f ecb0 f72d cbaf 5eba e6af dd52 24b0
00000160: 948d 8caf 251f 9db0 28bb 87b0 4bab 91af
00000170: d45e b5af f049 d2b0 9491 8fb0 d88d 02b0
00000180: 9238 88b0 5a45 67b0 1d75 b2af 8ec5 5eb0
00000190: 6578 79b0 461d b8b0 ac74 72b0 e906 b8b0
000001a0: a441 6cb0 971c fc2f d1c6 d4af 5043 d0af
000001b0: 1809 87af c6cb 7eaf a2d3 34b0 2cad 2aaf
000001c0: 8485 a7af 1aff a3b0 560f a6b0 9c7b 22b0
000001d0: 7b2e cdaf 0649 a3b0 d456 5eaf 141f f8ae
000001e0: eaeb aeb0 759c beb0 94a5 0db0 3c3a a1b0
000001f0: 55a0 9daf b699 3ab0 40c4 d8ac 4a9b e9b0

layer3.weight f4 [128, 128]
4.5080392e-10 4.2482237e-10 -1.0121607e-11 1.2247676e-10 -2.774769e-10 -8.0578405e-11 3.5568484e-10 4.0907405e-10
-9.799008e-10 -1.9040684e-11 -8.4068247e-10 -7.739557e-10 3.232164e-10 8.992481e-10 7.003965e-10 3.3895198e-10
-2.4617744e-10 1.3139918e-10 7.027166e-10 4.6248652e-10 7.156876e-10 -1.1805149e-10 4.451658e-10 -2.7849806e-10
5.455785e-10 -5.666357e-10 -6.466318e-10 2.3998617e-10 5.1520765e-10 3.5526976e-10 -5.129199e-11 6.6893385e-10
1.5914753e-10 1.398912e-09 -1.201034e-09 -5.1683824e-10 -1.0081566e-09 -2.565924e-10 -2.2123564e-10 2.8443475e-10
-1.0462559e-09 -3.5951608e-10 -1.0007267e-09 -6.3388633e-10 6.1283245e-10 -1.320273e-09 -1.8969408e-11 -4.8026355e-10
5.6250565e-10 4.3018897e-10 -2.2682296e-10 6.2589744e-10 -6.1220934e-10 -8.751e-10 1.1517875e-12 1.8961492e-10
-6.258835e-10 -1.7864772e-09 3.176279e-10 5.852913e-10 2.213283e-11 -1.7428732e-10 4.0370435e-10 7.9400025e-10
-7.986707e-10 -5.597949e-10 -9.196039e-11 -3.9962317e-10 -1.2504306e-11 -3.4068187e-10 -4.870144e-10 1.3837821e-10
6.132068e-11 1.629741e-10 -8.2109103e-10 -7.83145e-11 -6.293406e-10 -2.0612591e-10 -8.2482887e-10 -5.667129e-10
-8.7728574e-10 -1.5353337e-10 -1.163684e-09 4.701299e-10 1.3181357e-09 -4.5031773e-10 4.744879e-10 1.3276034e-10
6.163949e-11 -7.7448514e-10 -4.97602e-11 -7.5001944e-10 -7.952416e-12 3.661935e-10 -3.8904024e-10 -3.0421143e-10
-2.3368174e-10 4.1001186e-10 1.4769844e-10 -4.1074658e-11 -8.4441606e-11 -4.198839e-10 -5.0515255e-11 -6.101119e-10
6.9787753e-10 -5.013442e-10 -6.361568e-10 -1.7972603e-10 3.8826173e-10 -2.0534163e-11 2.0071975e-10 -5.7145705e-10
-4.878939e-10 -3.0805583e-10 5.3402577e-10 4.325659e-11 3.425273e-10 5.0451997e-11 1.3222682e-09 4.235511e-10
-7.4486245e-10 -9.992656e-10 5.364338e-10 -5.920076e-10 2.1001156e-10 -4.724865e-10 -1.996627e-10 -1.0001636e-09
-1.1512408e-10 2.4733324e-10 5.407406e-10 2.8583577e-10 9.2881647e-10 -6.3578455e-11 2.4583116e-10 -9.820215e-10
4.8594802e-11 -1.0988118e-10 -2.7998803e-10 9.143083e-10 -1.1618068e-10 -2.2205084e-10 -4.7916704e-10 2.8438008e-10
-5.0371023e-11 2.3463978e-10 6.0720634e-10 -1.8973312e-10 1.9616755e-10 1.9130465e-10 2.9848277e-10 3.6584194e-10
-2.8779915e-10 -7.039967e-10 -2.045854e-10 5.718493e-10 9.675211e-10 -3.9592357e-11 -1.1786354e-10 -3.6869313e-10
-1.8998832e-10 1.5227141e-09 1.4192576e-09 1.00419555e-10 5.5131705e-10 9.519308e-11 -4.857847e-10 1.7426337e-10
-3.3276365e-10 8.12993e-10 1.9059045e-09 9.741193e-10 9.826743e-10 1.1016583e-09 -2.9679595e-10 1.416776e-10
-5.6353977e-10 -6.8461586e-10 1.1871597e-10 -8.61139e-11 9.84538e-10 6.190459e-10 2.2761504e-10 -1.2340363e-09
2.6082037e-10 4.097099e-10 4.7978893e-10 3.8389442e-10 -6.206817e-10 -2.573088e-10 1.7614497e-10 -4.540021e-10
3.7545944e-10 3.2121997e-10 3.3247535e-10 3.8354453e-10 -3.458263e-10 -3.5750004e-11 1.102205e-10 -2.7428557e-10
6.141761e-13 -9.572484e-10 5.411046e-10 -1.938546e-10 6.2152017e-10 -1.0624418e-09 7.8362544e-10 -3.29783e-10
9.01053e-10 -7.265596e-10 -2.1110122e-10 3.5891345e-10 1.2047088e-10 -1.1762515e-10 -2.2221198e-10 4.8878424e-10
-8.928694e-10 6.5456016e-11 4.694395e-10 1.0837511e-10 3.2384714e-10 1.2860174e-09 -3.5569472e-10 6.554948e-10
-1.6813262e-10 -9.2774977e-10 -7.477132e-10 -1.6698225e-10 1.1835808e-09 8.166629e-10 1.1326205e-10 -3.3550315e-11
-2.3922667e-10 -1.8431612e-09 7.053704e-10 -5.704527e-10 1.5920297e-10 -3.176735e-10 1.5358531e-10 3.0455563e-10
2.2267967e-10 1.7097095e-09 -3.0544275e-10 -3.9137307e-10 -1.2576064e-10 1.0675476e-10 -3.090722e-09 -1.4635777e-09
1.7082628e-09 8.865142e-10 5.450862e-10 -3.84229e-10 -9.447075e-10 1.511883e-10 9.521256e-10 1.1386042e-09
00000000: 03d5 f72f 6f8c e92f aa0f 32ad 25aa 062f
00000010: 678b 98af 9c31 b1ae 318a c32f 0ee4 e02f
00000020: 32ad 86b0 cf7b a7ad c515 67b0 4abe 54b0
00000030: aab0 b12f f62e 7730 0686 4030 4057 ba2f
00000040: 6556 87af 9579 102f 4929 4130 3141 fe2f
00000050: 0aba 4430 8acc 01af 84bb f42f 1e1b 99af
00000060: adf7 1530 71c1 1bb0 abbe 31b0 0def 832f
00000070: 849e 0d30 c64f c32f a695 61ae 09e0 3730
00000080: 0cfc 2e2f d743 c030 a111 a5b0 4211 0eb0
00000090: 5b8f 8ab0 2b10 8daf 4c40 73af a25e 9c2f
000000a0: dbcb 8fb0 64a5 c5af f189 89b0 c93d 2eb0
000000b0: 4074 2830 fa74 b5b0 4fdb a6ad 8b03 04b0
000000c0: d19e 1a30 b77f ec2f fd64 79af 9e0b 2c30
000000d0: 6748 28b0 b08b 70b0 8519 a22b db7b 502f
000000e0: a30a 2cb0 1488 f5b0 279e ae2f 37e2 2030
000000f0: b4ae c22d 85a1 3faf 56f0 dd2f cd40 5a30
00000100: 7489 5bb0 10e0 19b0 1939 caae f6b1 dbaf
00000110: 63fa 5bad b64a bbaf 97de 05b0 0126 182f
00000120: 79d8 862e 2231 332f 25b3 61b0 2537 acae
00000130: e8fd 2cb0 49a3 62af 2cba 62b0 e0c6 1bb0
00000140: 7f25 71b0 cdcf 28af 7eef 9fb0 733a 0130
00000150: c729 b530 9690 f7af 1e6d 0230 b7f8 112f
00000160: f38b 872e 8ce3 54b0 01d9 5aae ed29 4eb0
00000170: 7fe6 0bad 2751 c92f 8ce0 d5af f43d a7af
00000180: c877 80af 0a68 e12f 6a65 222f f4a5 34ae
00000190: 66b0 b9ae 68d5 e6af 1f2b 5eae cfb4 27b0
000001a0: c4d4 3f30 f6ce 09b0 8edd 2eb0 619c 45af
000001b0: fb72 d52f d39e b4ad 96b1 5c2f b714 1db0
000001c0: 7b1c 06b0 015b a9af b9ca 1230 973e 3e2e
000001d0: 6f4e bc2f e6e3 5d2e 2dbb b530 85d9 e82f
000001e0: 09bf 4cb0 8856 89b0 2c74 1330 d5ba 22b0
000001f0: 00e9 662f 48e0 01b0 0e88 5baf 2176 89b0
00000200: 1829 fdae 0ff9 872f 3da3 1430 cf23 9d2f
00000210: a64f 7f30 7dcf 8bae a925 872f cff7 86b0
00000220: e2b8 552e 9ba1 f1ae d0ec 99af ba52 7b30
00000230: e97b ffae c125 74af 62b6 03b0 f056 9c2f
00000240: bb88 5dae 9dfe 802f 59e8 2630 209d 50af
00000250: 42b0 572f 7957 522f b717 a42f ad1f c92f
00000260: 2138 9eaf 5d83 41b0 acf1 60af 5130 1d30
00000270: 9ff9 8430 0821 2eae a397 01af f2b0 caaf
00000280: f5e4 50af bd47 d130 b00f c330 2fd3 dc2e
00000290: 7d8b 1730 f154 d12e 0f88 05b0 c79a 3f2f
000002a0: 52f0 b6af 4c79 5f30 07f9 0231 c7e1 8530
000002b0: c70e 8730 2869 9730 512a a3af b3c6 1b2f
000002c0: 96e7 1ab0 8f2f 3cb0 9387 022f d15d bdae
000002d0: 5a50 8730 7c29 2a30 f043 7a2f cb9a a9b0
000002e0: 3463 8f2f 8b3d e12f 25e2 0330 560c d32f
000002f0: 979c 2ab0 ff74 8daf 67ac 412f 1e97 f9af
00000300: 3869 ce2f b197 b02f bfc7 b62f 18db d22f
00000310: ba1e beaf ed3a 1dae a060 f22e 43ca 96af
00000320: 0de0 2c2b 2f90 83b0 dabc 1430 3825 55af
00000330: 98d7 2a30 5905 92b0 bd66 5730 d54c b5af
00000340: f8ad 7730 16b7 47b0 b61b 68af 9450 c52f
00000350: 8a75 042f 8954 01af 1d53 74af 225b 0630
00000360: 196e 75b0 76f0 8f2e de09 0130 c351 ee2e
00000370: 6f09 b22f b7bf b030 958b c3af 592e 3430
00000380: 20dd 38af 9604 7fb0 a487 4db0 5399 37af
00000390: 8cab a230 8b7b 6030 de10 f92e 4c8e 13ae
000003a0: 2984 83af 7852 fdb0 07e4 4130 0ace 1cb0
000003b0: a70b 2f2f 92a4 aeaf 6cde 282f 656e a72f
000003c0: c1d6 742f 0efb ea30 3feb a7af dd28 d7af
000003d0: 7946 0aaf 96c1 ea2e 8e64 54b1 1027 c9b0
000003e0: 27c8 ea30 e4ae 7330 08d5 1530 6d3b d3af
000003f0: f1d6 81b0 b93b 262f f1db 8230 137d 9c30

layer3.bias f4 [128]
-1.461372e-09 -3.0539074e-10 -7.36614e-10 -2.0988125e-10 -1.8957699e-10 -8.898749e-10 -9.699137e-10 -3.5922207e-10
-5.49495e-10 -1.5995486e-09 -8.720859e-10 -1.0235378e-09 -3.3101283e-10 -4.5244425e-10 -9.128335e-10 -2.3752378e-10
-2.7148755e-10 -9.2092217e-10 -7.563366e-11 -4.5450232e-10 -1.853706e-10 -3.2062694e-10 -1.6677902e-10 -1.2008414e-10
-1.0671057e-09 -2.2692233e-10 -2.0045342e-10 -5.8519906e-10 -2.7355318e-10 -5.802458e-10 -9.277447e-11 -5.418648e-10
-5.3756477e-10 -5.9395193e-12 -6.6642275e-10 -4.1833284e-10 -4.0082107e-10 -8.446556e-11 -7.7245826e-10 -4.16556e-10
-9.018517e-10 -8.882455e-10 -1.5334772e-10 -1.1141555e-10 -4.1742068e-10 -8.2263396e-10 -9.419732e-10 -4.8371573e-10
-5.4919125e-10 -6.3419286e-10 -9.981096e-10 -3.1899197e-10 -2.9304645e-10 -4.85235e-10 -1.2607294e-10 -4.4491824e-10
-9.098247e-10 -9.484293e-10 -1.1068935e-09 -9.850579e-10 -4.554789e-11 -6.3466954e-10 -6.0753713e-10 -1.0408636e-09
-5.5465584e-11 -3.3603678e-10 -5.5693183e-10 -1.3000691e-10 -4.0128612e-10 -4.67116e-10 -1.05756556e-10 -5.2390803e-10
-1.528531e-10 -1.4979562e-10 -2.0216477e-10 -6.024259e-10 -3.2436934e-10 -2.2053827e-10 -4.1062392e-10 -2.7396013e-10
-1.2158508e-09 -1.8606668e-10 -2.8992023e-10 -2.6768449e-10 -1.1612206e-09 -4.2367204e-10 -1.7887912e-10 -8.524711e-10
-4.9738624e-10 -8.53407e-10 -1.8035328e-09 -1.1993437e-09 -1.3363952e-10 -9.524419e-10 -2.4659674e-10 -3.4448555e-10
-5.883554e-10 -1.239992e-09 -4.499807e-10 -1.0498251e-09 -6.448828e-11 -5.7881605e-10 -4.8790294e-10 -1.4821562e-10
-1.1323313e-10 -3.7697287e-10 -2.9703484e-10 -3.7251555e-10 -3.237328e-10 -6.7540834e-10 -3.9039154e-12 -5.856093e-10
-3.433285e-10 -5.0237864e-10 -3.5562342e-10 -6.7588185e-10 -7.481551e-10 -1.2701874e-09 -9.2426783e-10 -1.1196142e-09
-3.5028852e-10 -2.2564556e-10 -9.357316e-10 -5.462194e-10 -9.184178e-10 -3.776795e-10 -4.4802126e-10 -3.9326153e-10
00000000: 75d9 c8b0 ede3 a7af 9a7a 4ab0 52c4 66af
00000010: 2e71 50af 619b 74b0 ce4d 85b0 037c c5af
00000020: 460b 17b0 1dd7 dbb0 97b7 6fb0 89ac 8cb0
00000030: eaf9 b5af debb f8af f2ea 7ab0 8094 82af
00000040: 7a40 95af 2324 7db0 f751 a6ae 84dd f9af
00000050: 2fd1 4baf 3b44 b0af 1f60 37af ae08 04af
00000060: 72a9 92b0 f580 79af 9f66 5caf b9db 20b0
00000070: 3063 96af 2b7f 1fb0 6203 ccae 58f2 14b0
00000080: c2c3 13b0 6ffa d0ac 552f 37b0 1dfb e5af
00000090: 8d5a dcaf e2bd b9ae eb54 54b0 0c01 e5af
000000a0: 2ce6 77b0 b828 74b0 8c9b 28af 6101 f5ae
000000b0: bd7a e5af b81f 62b0 bc76 81b0 78f6 04b0
000000c0: e6f5 16b0 5b53 2eb0 dc2d 89b0 215e afaf
000000d0: 9f1a a1af 6161 05b0 619e 0aaf ad98 f4af
000000e0: 3917 7ab0 e459 82b0 5a21 98b0 a562 87b0
000000f0: 5d52 48ae e674 2eb0 a0ff 26b0 220e 8fb0
00000100: b2f0 73ae f9bc b8af 9816 19b0 b1f1 0eaf
00000110: 009c dcaf 5e66 00b0 a68f e8ae c002 10b0
00000120: 5310 28af b8b3 24af 5348 5eaf f497 25b0
00000130: ed52 b2af 017c 72af 2ebe e1af 769c 96af
00000140: f21a a7b0 1d95 4caf a562 9faf 3e29 93af
00000150: d198 9fb0 8aea e8af ffad 44af 5253 6ab0
00000160: 72b8 08b0 2e95 6ab0 2be0 f7b0 28d6 a4b0
00000170: 2ef0 12af 12e7 82b0 6891 87af 0862 bdaf
00000180: d5b9 21b0 576c aab0 2761 f7af 7049 90b0
00000190: adcf 8dae 8f1a 1fb0 1e1d 06b0 fdf6 22af
000001a0: 9600 f9ae 373e cfaf f04b a3af e7ca ccaf
000001b0: 57f9 b1af a3a7 39b0 585b 89ac 97f8 20b0
000001c0: 31bf bcaf c117 0ab0 8c81 c3af f5c8 39b0
000001d0: bca6 4db0 bf92 aeb0 910f 7eb0 ece0 99b0
000001e0: ba92 c0af 9419 78af 219b 80b0 c624 16b0
000001f0: e873 7cb0 aaa1 cfaf 634d f6af a432 d8af

output_layer.weight f4 [9, 128]
-2.4024857e-10 -1.05182904e-10 2.6829655e-10 -2.9614702e-10 -6.47238e-10 3.30379e-10 1.251371e-09 -3.5750156e-10
-1.068064e-10 5.857572e-10 3.0681058e-10 1.7287821e-10 9.953013e-10 3.557206e-11 1.3877724e-10 2.3754962e-10
6.402556e-11 5.4712657e-10 9.1974806e-10 2.8434685e-10 -6.0228245e-10 2.445002e-10 -6.363073e-10 5.6580124e-10
-7.954059e-10 -3.686166e-10 -3.7009593e-10 1.4684708e-10 4.439906e-10 1.4667281e-10 -3.9323642e-10 -6.8894654e-11
-5.5388133e-10 4.1521875e-10 -6.435683e-10 -3.2753103e-10 2.2258675e-10 -3.2764447e-10 -4.7693594e-10 2.7756015e-11
-3.5829398e-10 -6.246041e-10 -1.507089e-10 1.0128239e-09 -7.268032e-11 -2.4651276e-11 1.064108e-09 2.4228447e-10
-6.457411e-10 -3.920821e-10 -2.8007588e-10 5.356312e-10 5.035471e-10 -2.0068669e-10 6.289024e-10 4.8592214e-10
4.4278727e-11 3.1301697e-10 -2.8447925e-10 1.182517e-10 1.8468014e-11 -3.4983814e-11 6.4272854e-10 -7.2168764e-11
1.1990314e-09 9.475869e-11 -4.963121e-10 1.8223664e-10 -4.4784726e-10 4.7772336e-10 3.8159465e-11 -1.0844954e-10
-5.536101e-10 -5.4322735e-10 -5.2912696e-10 -3.0723507e-10 -1.3748117e-10 1.4040282e-09 -3.7559184e-10 2.692129e-10
-4.893797e-10 5.2033194e-11 -5.1385757e-10 2.818125e-10 8.2604465e-11 -2.0072298e-10 -6.140595e-10 4.8116233e-10
1.571113e-10 -5.786283e-10 -2.380204e-10 1.3477146e-10 -3.5019276e-10 2.1272209e-10 -1.8111992e-10 -1.4588221e-10
2.797092e-10 4.794833e-10 -1.740226e-10 8.7623986e-10 -8.704125e-11 7.481337e-11 -5.8129244e-11 -5.721202e-10
5.755428e-10 4.851166e-10 -2.8506392e-10 2.3707458e-10 2.8264915e-10 3.8981332e-10 3.5279019e-10 -5.758567e-10
-5.004587e-10 -3.3800476e-10 -4.5693507e-10 5.9250377e-10 -1.843971e-10 6.905798e-11 -6.912276e-11 7.396492e-11
-4.628462e-11 -7.9490116e-11 1.4290542e-10 -6.360511e-11 3.6385495e-10 -7.224171e-12 6.959564e-10 5.8359667e-10
-8.641647e-11 9.833151e-10 1.9611726e-10 4.18049e-10 -5.3907784e-10 -2.8063846e-10 2.339845e-10 -2.9517053e-10
-4.471772e-10 -3.8358947e-10 -3.0738695e-10 -3.6080944e-10 4.4444717e-10 1.5309325e-09 5.7885463e-10 4.934136e-10
5.2463156e-10 4.6424356e-10 1.2969034e-09 4.4098358e-10 -2.0570629e-10 6.94117e-10 5.0645016e-10 3.071851e-10
2.4222385e-10 -4.6782794e-10 -3.341747e-10 -2.4747643e-10 -6.055285e-10 5.1912197e-10 3.148488e-10 -3.299823e-11
-2.2416297e-10 5.7094496e-10 -2.478459e-10 -4.488801e-10 3.2501564e-11 3.8822395e-10 3.0030559e-10 3.0449215e-10
3.9149878e-10 -5.632866e-10 -2.2232853e-10 2.688847e-10 -2.0429493e-10 3.0852793e-10 1.3393785e-09 -2.1185721e-10
-1.7707738e-10 -1.0931449e-10 4.4733237e-10 5.5758037e-10 6.178619e-11 4.849287e-10 -1.9943438e-11 -1.4637633e-10
8.3435155e-11 -2.9821032e-10 4.83338e-10 5.9460536e-10 1.9761219e-10 -5.7802246e-11 2.2418184e-10 -1.8232786e-10
9.1010216e-10 4.1817752e-10 -6.210422e-10 -4.804639e-11 3.207611e-10 -9.649406e-11 5.5618377e-10 -1.2174155e-10
5.5659918e-11 1.0933843e-09 4.898119e-11 1.2288001e-09 3.0623562e-10 8.6461144e-10 5.80434e-10 6.1984445e-10
-2.3284055e-10 4.7381613e-11 6.346119e-10 -1.9654217e-10 1.0754113e-09 -5.447182e-10 -2.0834591e-10 1.526843e-10
3.86257e-10 3.7737222e-10 1.6072647e-11 -4.209979e-10 9.0194047e-10 5.852498e-10 -5.1431553e-10 2.7962893e-10
3.2938333e-10 -7.052057e-11 9.940256e-11 2.1112899e-10 -5.248415e-10 2.442881e-10 6.461852e-10 -5.2400284e-10
5.890444e-10 4.2638082e-10 2.6217914e-10 1.495061e-10 -1.8761911e-10 -6.16337e-10 2.6024752e-10 -6.289311e-10
-6.977332e-11 4.808974e-10 -6.285963e-10 -1.1840037e-09 -1.2736509e-10 -1.9093074e-10 2.516723e-10 2.9944067e-10
-2.1663675e-10 3.2241138e-10 -2.2908188e-10 2.6192887e-10 -2.1750497e-10 -1.389469e-10 4.6471063e-10 -2.7147787e-10
00000000: fb13 84af b64c e7ae 627f 932f fdce a2af
00000010: 53e9 31b0 b6a0 b52f b4fc ab30 df89 c4af
00000020: a8de eaae 0003 2130 c0ab a82f e414 3e2f
00000030: 0dcb 8830 9472 1c2e 5296 182f 2398 822f
00000040: 30cb 8c2e 9c64 1630 84d1 7c30 4352 9c2f
00000050: dc8d 25b0 586a 862f 25e8 2eb0 b986 1b30
00000060: b7a3 5ab0 2da6 caaf 5f76 cbaf c775 212f
00000070: 1f16 f42f ba44 212f 1b2f d8af 3e80 97ae
00000080: ef3f 18b0 d844 e42f 18e7 30b0 e50f b4af
00000090: 9abc 742f dc1f b4af 6219 03b0 fd24 f42d
000000a0: 65f9 c4af 9bb0 2bb0 c9b4 25af 9333 8b30
000000b0: 62d3 9fae bdd5 d8ad f93f 9230 8232 852f
000000c0: fe7f 31b0 a68c d7af 2df9 99af b23b 1330
000000d0: fa69 0a30 48a8 5caf 12df 2c30 bb91 0530
000000e0: 6abd 422e 3915 ac2f e564 9caf e504 022f
000000f0: 4572 a22d 46dc 19ae 00ac 3030 67b3 9eae
00000100: 2bcb a430 6660 d02e dc6c 08b0 0e5f 482f
00000110: e634 f6af cb50 0330 bdd3 272e aa7b eeae
00000120: d92c 18b0 3a52 15b0 0072 11b0 7ee7 a8af
00000130: 8229 17af daf7 c030 da7b ceaf 5900 942f
00000140: 0985 06b0 2bd8 642e 833f 0db0 95ed 9a2f
00000150: 2ea6 b52e 7fb2 5caf 99ca 28b0 ca42 0430
00000160: e6be 2c2f 590d 1fb0 65da 82af cb2e 142f
00000170: 4085 c0af f2e3 692f ba24 47af 3166 20af
00000180: 92c5 992f a3cc 0330 0257 3faf e6db 7030
00000190: de67 bfae 2f84 a42e b6a7 7fae 6143 1db0
000001a0: 3934 1e30 0c59 0530 2eb7 9caf 4855 822f
000001b0: 5563 9b2f 594d d62f cef2 c12f 504a 1eb0
000001c0: a690 09b0 f1d1 b9af e533 fbaf bfdd 2230
000001d0: 2bbf 4aaf 30dc 972e a800 98ae 8ca6 a22e
000001e0: d98f 4bae f5cc aeae 4d20 1d2f 7ede 8bae
000001f0: 0808 c82f 8c2d feac 944d 3f30 f76a 2030
00000200: 2608 beae 5325 8730 1aa2 572f 2bd3 e52f
00000210: 3b2e 14b0 5a48 9aaf 64a2 802f 8f45 a2af
00000220: 99d6 f5af 6be1 d2af defc a8af 6a5b c6af
00000230: 6156 f42f e668 d230 461d 1f30 e5a0 0730
00000240: aa35 1030 7938 ff2f bb3e b230 ec6e f22f
00000250: 2c2d 62af 24cc 3e30 4336 0b30 76e0 a82f
00000260: fa29 852f 7798 00b0 e8b6 b7af 360d 88af
00000270: 4872 26b0 f6b1 0e30 0817 ad2f b420 11ae
00000280: 4478 76af aef0 1c30 3641 88af 42c6 f6af
00000290: 82f1 0e2e aa6d d52f 4118 a52f 7665 a72f
000002a0: 8e3a d72f c5d5 1ab0 eb73 74af 28d2 932f
000002b0: e99f 60af 729d a92f 3115 b830 81f0 68af
000002c0: dab2 42af 9662 f0ae 6fec f52f 3b44 1930
000002d0: 88de 872e d34b 0530 a16c afad 46f1 20af
000002e0: d179 b72e 5ff1 a3af e3db 0430 a271 2330
000002f0: e346 592f 8b37 7eae 947d 762f bb78 48af
00000300: bf2a 7a30 41e5 e52f f6b5 2ab0 6d4f 53ae
00000310: 1d57 b02f 5431 d4ae f4e1 1830 33db 05af
00000320: 7fcb 742e 0a46 9630 eb6b 572e 8fe2 a830
00000330: d55a a82f 9fa9 6d30 698c 1f30 ad61 2a30
00000340: 6501 80af f462 502e d870 2e30 b419 58af
00000350: accd 9330 23bb 15b0 2914 65af cfe0 272f
00000360: d758 d42f 6b76 cf2f 6260 8d2d 3072 e7af
00000370: 6bec 7730 4bdf 2030 bd5f 0db0 46ba 992f
00000380: 9514 b52f 8d13 9bae ab96 da2e 8723 682f
00000390: 7044 10b0 7e4c 862f 3e9f 3130 6c09 10b0
000003a0: 51ea 2130 c467 ea2f 6f22 902f 3a62 242f
000003b0: 164a 4eaf dc6a 29b0 9512 8f2f 17e1 2cb0
000003c0: e36e 99ae 2530 0430 88c9 2cb0 6dba a2b0
000003d0: 160a 0caf 3aee 51af ba5b 8a2f 879e a42f
000003e0: d331 6eaf 5e3f b12f d1e0 7baf 36ff 8f2f
000003f0: 3526 6faf 13c6 18af 357a ff2f 1d3f 95af

output_layer.bias f4 [9]
0.9981881 0.86121804 1.1582348 1.1934311 1.1724755 1.0775533 0.95683396 1.0513953
1.0214151
00000000: 4189 7f3f c978 5c3f 0a41 943f 5ac2 983f
00000010: ad13 963f 44ed 893f 12f3 743f 1f94 863f
00000020: bbbd 823f
