ngzhii/long/results/train/DQN_Train/best_model.pt (torch, 160623 bytes, 8 tensors)

layer1.weight f4 [128, 40]
00000000: a9dc 673e 3b75 6b3e 6185 3f3e fd8d 183a
00000010: c276 653e af42 6a3e decd a13d 382e 4b3e
00000020: 1e42 083e 2061 623e 9229 3b3e 1cfd 603e
00000030: 71ce f33d a9ee 023e 1f3c bc3d 2efe 553e
00000040: 108c 5f3e 11c3 5b3e 072c 5b3e e2b2 4d3e
00000050: 53f3 4c3e 22fd b13d fca3 5e3e ee92 483e
00000060: 031a 5e3e c986 9b3d dabf 483e 6fe7 463c
00000070: 26d5 533e 6836 473e b00a 703e e07c 483e
00000080: 540e 453e cec5 703e f466 da3d 8f67 673e
00000090: f2e6 653e 5b2b 613e 6447 e53d 898e 613e
000000a0: 492d 533d 4a7f b9b9 116c 473d 90c4 923e
000000b0: 3e41 853c e020 b9bc 1992 183c 3937 9b3d
000000c0: 28b4 4e3e 9bed 1c3d 05b5 19bd 0638 b53b
000000d0: fcd7 a73d 5919 9d3d 2b5d fd3e 51e3 653d
000000e0: 2e8d 3c3d c3a7 643d 7bf3 2c3d 84f2 ed3c
000000f0: f0c5 393d a9a9 f43c 75ee 2a3d 3722 163d
00000100: bcb9 d63c 3a93 3d3a c57e c03c cc8e 303e
00000110: 6372 fe3c 5d88 623d 9f41 473d 41d8 283d
00000120: 8acf d83c d1a7 0a3b 8d7b ee3c 2fac 123d
00000130: cf6b 33bb 98fc 283d c8bf 2e3d a5d8 8d3c
00000140: e1eb b43c 7636 c93c 901b e8bc ede9 30bc
00000150: e6b6 92bc 875d c73c a052 7cba 6b99 cb3c
00000160: b881 c53c ae46 cbbc 64ae ccbc 15f9 aabc
00000170: 16cf 14bc d4c4 c73c d726 5f3c 6edf 96bc
00000180: 7105 903c 217d 95bc 45bc 413c 1423 fe3a
00000190: f732 cdbc 1ebc 9dbc f0bd 573c d536 833c
000001a0: edcf 193c 90c5 cb3c 04f4 c5bc aeb7 39bb
000001b0: ef50 a83c 3c67 febc ce68 d93a 9129 9fbc
000001c0: 2c30 503c d2ac 353c 480e b23c 5ce5 80bc
000001d0: b989 b2bc b98b b7bb 09b8 2d3c 0d41 90bc
000001e0: da54 c73d b39a bd3d a9f0 be3d 915a 74be
000001f0: edd7 ee3d bfad ff3d b684 20bf aee2 b83d
00000200: 974d 193d 8188 d73d 2ec9 173d 1ae5 8b3d
00000210: 7b83 b63d efa0 ce3d b53e b3be ef8b d43d
00000220: d8ee 9e3d 3759 e83d 77fa c23d 2755 ab3d
00000230: 0566 b73d a190 b6be a59a 9e3d 08e6 8b3d
00000240: f4a7 db3d 0b83 c3be 697f c03d 3735 5b3e
00000250: 400d 813d 4757 843d d09f 963d 7785 e33d
00000260: 7b0c a53d b42a cc3d 012a c4be b0c0 8e3d
00000270: 783f 843d aae2 b53d 7f14 babe 1102 c23d
00000280: 7a35 a83e 1450 913e 981c 8d3e cb30 aabe
00000290: 5ec3 8b3e 1072 813e f2ce 28bd 4dfe 8e3e
000002a0: df45 ad3d 3779 9f3e dc8e 803e d50f 923e
000002b0: 8372 2e3e ccf7 fd3d 26fc 5d3d 11e1 9a3e
000002c0: b915 953e d596 9c3e 4b7f 973e af35 973e
000002d0: 1bf8 8d3e a6ef f23d 1690 823e 89b2 813e
000002e0: 56b9 823e 9e6a e73d 1e1d 9e3e 94f7 583a
000002f0: 3da8 8e3e 2d27 853e 83a3 923e e3eb 8c3e
00000300: a1a1 943e b10a 9d3e 0789 bc3d 63cf 9a3e
00000310: cdd4 933e 3d3c 933e 9ddb d53d 3242 963e
00000320: 8e55 0a3e 8469 123d 3867 3e3d 2d01 333e
00000330: b410 aa3d 5c66 833d 4a71 533d 66de e93d
00000340: baba 5ebd 425c 8b3d 2abe e13c 3942 5a3d
00000350: 144b 8fbc 221b 603b 2767 763e bc62 773d
00000360: 5895 6d3d caf5 263d 3c0c 523d 0666 b13d
00000370: 66d1 933d f06d 313d 6db2 983d 3d04 763d
00000380: ab59 3f3d e19d a43c ccba 463d 4958 9dbd
00000390: eb42 793d 8709 8a3d 5651 713d ead5 0b3d
000003a0: 0e3d 3b3d 3593 803d b861 973c 61ab cd3d
000003b0: 71f9 bd3d a5d2 aa3d 6557 283d 8e5f d63c
000003c0: e9cb dc3d 6761 853d d44c aa3d 87fa 48be
000003d0: 3a9f 973d 2d38 cf3d f0b7 1dbf a6a8 663d
000003e0: 27ce 74bb 375a 4a3d 08a2 463d 52fb af3d
000003f0: 2046 1f3e ade6 073e ec47 91be dc56 6e3d
0.22642769 0.22993939 0.18703224 0.0005819498 0.22408584 0.22877 0.07900594 0.1984185
0.13306472 0.22107363 0.18277577 0.21971554 0.1190461 0.12786354 0.09191155 0.20897743
0.21830773 0.2146113 0.21403514 0.2008777 0.20014696 0.086908594 0.21742243 0.19587299
0.2168961 0.075940676 0.19604436 0.012140139 0.20686778 0.19454348 0.23441577 0.19578886
0.19243747 0.23512957 0.10664168 0.22598098 0.2245138 0.21989195 0.11195257 0.22027029
0.05155686 -0.00035380787 0.048687045 0.2866559 0.016266461 -0.022598684 0.009312176 0.07578892
0.20185912 0.038312536 -0.03752615 0.00553036 0.081954926 0.0767085 0.49485144 0.05612499
0.046033077 0.055824053 0.04222439 0.029046305 0.045354784 0.029866057 0.041731317 0.036653724
0.026211612 0.00072317163 0.023497948 0.17241973 0.031060403 0.055305827 0.048646566 0.04122186
0.02646615 0.0021157155 0.029111648 0.03580874 -0.0027377491 0.041256517 0.042663366 0.017315218
0.022085132 0.024562102 -0.028333455 -0.01079796 -0.017909478 0.02433659 -0.0009625349 0.024853429
0.024109706 -0.024813976 -0.0249855 -0.020870725 -0.009082576 0.024385847 0.0136201 -0.018417086
0.01758072 -0.018248143 0.011824672 0.0019389116 -0.025048716 -0.01925474 0.013167843 0.016017357
0.009387952 0.024874479 -0.024164207 -0.0028338241 0.020546405 -0.031055085 0.001658702 -0.019429
0.012706798 0.011088567 0.021735325 -0.015734367 -0.021794187 -0.005601373 0.010602959 -0.017609144
0.09732981 0.09258022 0.09323246 -0.23862673 0.11662278 0.12484311 -0.627025 0.09027611
0.03742751 0.10524083 0.037057094 0.06830807 0.08911797 0.100892894 -0.3500878 0.10378253
0.077603996 0.113451414 0.09520429 0.08365851 0.089550056 -0.35657218 0.0774434 0.06830984
0.10725394 -0.38185915 0.093993016 0.21407019 0.06301355 0.06461959 0.073547006 0.11109441
0.08059021 0.099690825 -0.38313296 0.06970346 0.06457418 0.08881123 -0.36343762 0.094730504
0.328533 0.28381407 0.27560878 -0.3324035 0.2729749 0.25282335 -0.041212983 0.2792839
0.084605925 0.31147167 0.25108993 0.28527704 0.1703587 0.12400779 0.054195546 0.30249837
0.29118136 0.30583826 0.29589304 0.29533145 0.27728352 0.118621156 0.25500554 0.25331524
0.25532025 0.112996325 0.3088159 0.0008276638 0.2786273 0.2600645 0.28640375 0.27523717
0.29029563 0.3067222 0.092058234 0.30236349 0.28873292 0.28756896 0.104422785 0.29347378
0.13509199 0.03574516 0.046485156 0.17480917 0.08303967 0.06416008 0.051621713 0.11419372
-0.054377295 0.06804706 0.027556498 0.05328581 -0.017491855 0.003419586 0.24062787 0.060396895
0.058003753 0.040761746 0.0512812 0.086620376 0.07217674 0.043317735 0.07455907 0.060062636
0.046716373 0.020094814 0.048517987 -0.07682855 0.060854834 0.067400984 0.05891546 0.03413955
0.045712523 0.062780775 0.018479213 0.100424536 0.09276093 0.083409585 0.04109897 0.02616861
0.1078108 0.06512719 0.08315435 -0.19626819 0.07403417 0.101181366 -0.6160879 0.05631318
-0.0037354322 0.04940244 0.04849437 0.085928574 0.15554094 0.1327159 -0.28375185 0.058188304

layer1.bias f4 [128]
00000000: 0a3a 493e 14a7 253e 3740 f5bc 06a0 a8bc
00000010: 1150 923e 1dc1 7d3d e5bf d5ba 0e97 edbb
00000020: 11e4 573e 9b54 433e a18e 4a3e 89b1 9e3d
00000030: 0415 983e 06b9 febc 29fc e0bc 6199 57be
00000040: 1688 10bd cb42 e8bc 4231 623e 5f6b 2e3e
00000050: 2543 753b 1816 afbd 9efa 423e 513e b7bb
00000060: 045a 483e f325 a93e 5531 523e 1750 543e
00000070: fa57 883b 0e60 07bb e9ca 813c b92b a7bc
00000080: e75f 4c3e ee44 823e 6f65 5d3e c709 bd3c
00000090: 6ea1 36be 8743 523e 21e5 be3b 1e3f 3f3e
000000a0: 4aeb edbc e94d da3b 5940 933d 1e2d 4ebc
000000b0: ce14 6abe 323b 353e 9201 8bbd ed04 2a3e
000000c0: 6ada 363e d8db b6bb e540 2ebc 5d67 933c
000000d0: c37f 2cbc bebf 543e 8070 c8bd dac8 e3bc
000000e0: 1bde 9bbd 8333 333e 3eb7 0f3d 0735 d0bb
000000f0: 328a 423e ffcc 3bbe 3c94 b5bc 5978 81bc
00000100: a0df 3c3d a814 323c 9257 623e 882c 7e3c
00000110: db71 bbbc 2aeb 783d 7784 f9bc 5e80 eabd
00000120: 3656 3d3e 5997 d5bc 1dd5 453e 1134 593e
00000130: 588f 313e 7483 3ebe 9b72 b8bd b833 c5bd
00000140: 218a 5d3e 53b6 43bd 006d 273e aef2 5bbd
00000150: 14f0 2ebd 1477 a93b 90d1 073c a625 783e
00000160: c905 533e 03f6 403b fdb2 483e 41d7 bf3b
00000170: 7936 c5bd bffc abbd edf9 e6bb 3048 b23d
00000180: de9c c3bc f868 44bc 0f40 353e 208c 703e
00000190: 71f9 543e 0a8b f4bd 445d a53e cc71 5c3e
000001a0: ab90 553e f489 cd3c ef44 463e 4846 debb
000001b0: 050d 193e 7352 24be 4348 04bc 1a1a 27bc
000001c0: 457a 333e fe96 d2bd e422 84bb 286e e5bb
000001d0: 3d8e a9bc af3b 1b3e 8795 eabc a71d 8b3e
000001e0: bc1b 713e 998a 543e 2a09 8ebe 883c edbb
000001f0: 69bc 4d3e 251d 3fbd da50 f43c bf15 8ebc
0.19651046 0.16177016 -0.029937847 -0.020584118 0.2857671 0.061951745 -0.0016307799 -0.007250673
0.21083094 0.19075243 0.19780971 0.07748706 0.29703534 -0.031094085 -0.02746399 -0.21054603
-0.03528603 -0.028352162 0.22089103 0.17033146 0.0037424054 -0.08549136 0.19040915 -0.0055921455
0.19565588 0.33036765 0.20526631 0.20733677 0.0041608782 -0.0020656618 0.015843825 -0.02040659
0.19958459 0.25443214 0.21620725 0.023075951 -0.17835018 0.20533572 0.005825654 0.18676421
-0.029042859 0.0066621196 0.07190008 -0.012583999 -0.22859499 0.17698362 -0.06787409 0.16603442
0.17856756 -0.0055804066 -0.010635589 0.017993623 -0.010528508 0.20776269 -0.09787083 -0.027805734
-0.07610723 0.17500119 0.035086863 -0.0063539776 0.1899803 -0.18339919 -0.02216541 -0.015804457
0.046111703 0.010869183 0.22103718 0.015513547 -0.022881439 0.060771145 -0.030458672 -0.11450265
0.18489918 -0.026073145 0.19319578 0.21211268 0.17339838 -0.18604833 -0.09006234 -0.09629005
0.21634723 -0.0477813 0.16350174 -0.053698234 -0.042709425 0.005171666 0.00828971 0.24233112
0.20607676 0.002944351 0.19599529 0.0058545177 -0.096295305 -0.08397817 -0.0070488364 0.08705175
-0.023878511 -0.011987917 0.17700218 0.23490953 0.2079828 -0.11940582 0.3229772 0.21527785
0.20855968 0.025090195 0.19362234 -0.0067832805 0.14946373 -0.16047077 -0.008073869 -0.010199094
0.17527111 -0.10282706 -0.0040324796 -0.007001657 -0.020697707 0.15159486 -0.028635753 0.2717106
0.23545736 0.20755996 -0.27741367 -0.007239882 0.20091404 -0.046658654 0.02982371 -0.017344354

layer2.weight f4 [128, 128]
00000000: db2c 0c3c daf4 7abc 7753 a7bb 553c 15bc
00000010: 9c29 3d3b bf22 0a3c a89c 193c ccd8 93bb
00000020: 876b 9e3b 0830 7fbc f32a 043c f5a9 2e3b
00000030: bdb6 84bc 85c8 bd3a 79d7 cdbb 05b8 37bc
00000040: 5f15 3ebc f38d 46bc f349 6fbb 8648 b7ba
00000050: 682c 803c c6d9 443c 1d4e f13b ab1e c9bb
00000060: 7d14 a4bb d087 bebb ed7b 84b9 2dfa 95bc
00000070: 7543 0d3c 980e 083b 3000 d5bb c03e 94bc
00000080: 9a7c ea3a cdd3 60bc 38d2 f5bb 7869 0bbc
00000090: a614 98b9 64f6 473c 8374 83bc e3a3 e9ba
000000a0: 4b8b 85bc 66a8 81bb 0867 72bc 7838 41bc
000000b0: be43 973b e1cf 3ebc ecc8 353c c3cd 1cbc
000000c0: da4d 803c ebde dabb 82b9 06bb b087 43bc
000000d0: a159 943a 2356 8abc 93b3 11bc 3b7a cdbb
000000e0: 5ab3 9a3b 1597 273c 95cc 6ebc d438 a339
000000f0: 38bc 6b3c 420c 4e3c e3ef 79bc 3a94 293c
00000100: f52d fcb8 a122 813c 9e08 a4bb 5190 7ebc
00000110: ab75 e23a 47b6 963a b37c 8b3c 3ccf a6bb
00000120: 872d 3abb 0e33 7e3b 1ad0 1d3c 86c3 5ebb
00000130: ccb7 10bc e527 1abb fee9 5c3c dc22 a6ba
00000140: 3346 a7bb b077 58bc 3974 3c3c 2427 98bb
00000150: a68d 55bb 104b cb3b 40df 7fbc cd21 0bbc
00000160: b7a4 3bb9 2612 2d3c c6c6 58bc cb72 06bc
00000170: c4af ce3b cdc5 77bc ac91 9bbb 25d8 203c
00000180: 28ec 843b b12d 033c ea40 cb3a 58db e43b
00000190: b2c5 78bc 2c57 47bc ed80 193c ea07 9bbc
000001a0: 9b37 173c f1ae 4dbb afb4 b83b 9dcc 72bb
000001b0: 31c1 303b a846 16bc 636f 863b f282 203c
000001c0: 0e66 8ebb 1374 c03b ba64 a8bb 46cb 41bc
000001d0: dfc0 1bba c136 88bb 7cb1 ad3b 4fa0 ab3b
000001e0: b387 6fbc 48a2 733a 3a08 f0bb 90f0 5c3b
000001f0: 8533 e83a 2005 96bc 3221 64bc f7a3 823c
00000200: b8aa febb d3e9 783d e075 3bbc 42be a23f
00000210: f682 4a3c 5e2c 313c f22f 9a3f 884e 873f
00000220: fccd 96bd 6bce df3c 933d c8bc 4f07 b13f
00000230: 4e4b 613e 18fd 91bc dcdf e4bb 1107 7e3d
00000240: 2488 a13e 9d8f 0abc 5c4f 1d3e 0b98 273d
00000250: 559b 753c f08e a8bc 3b15 833d 1541 dd3b
00000260: 1454 3f3d 2790 643e c780 9dbd 009f 983d
00000270: fcf4 57bc 0779 e339 b029 bd3b 3c22 dabc
00000280: c2b1 a8bd dd24 283e ad67 77bd ac82 8c3f
00000290: d0d3 04be 3c19 4ebc 1fac bd3b 580e eb3d
000002a0: a884 443b 414c 723f 8a70 053f 2cfb 143c
000002b0: 5a10 833b fb01 333e dc3d 39bd dc4b aa3d
000002c0: c3ee 393d 1cd7 f5ba deac 543c 4f1d 653a
000002d0: 4e1b e13b f91b 27bd 15f2 593d 21e5 653b
000002e0: afa7 21bc 9861 bc3d 566c a83d 243b 9dba
000002f0: fd11 db3d 2fc2 f9bd bac6 7e3c a5f7 bbbb
00000300: ecf3 d43e 63f0 45bd 03ec 9cbb fd49 ddba
00000310: d83e 72bb 98b1 ad3e b9b9 413a 3fda 28bd
00000320: 38a5 943c cdec 973f 45d1 92bd 4591 90bd
00000330: f7eb ed3d 8f76 01be f857 9e3d 41ce 923f
00000340: 4442 94bc f4ff 20be c16d 503d 0183 a23f
00000350: d1fa 7cbd 6dc4 b3bb 56ef 11be 842f ed3d
00000360: 2348 38bd d660 553e 87d2 863d 04d2 00bc
00000370: c5b8 cdbc 04df 7dbc 2af6 ca3b b33d 503f
00000380: 7dd8 b73b c892 9c3f 8ee2 fcbc fa90 66bd
00000390: 0164 cdb9 34fb 103e 930c a23e 3202 49bb
000003a0: 5ef0 bc3d 9776 71bc 0134 65bd 6ff4 923f
000003b0: e52b b1bd b542 363e 08c7 a93f f8e1 6dba
000003c0: 7778 5cbd 7b5b 75bd bb8a ddbb 6893 2abb
000003d0: d1b7 f33a 17fe a5bb f4c0 623c 3cbb 203e
000003e0: fb76 1abd 00f5 9cbd 1cf8 24be 0bfb 063c
000003f0: c74f 09be 988e 803d cc7a d63b 91bb 38bc
0.008555616 -0.015317166 -0.0051063853 -0.009108623 0.0028863912 0.008431136 0.009375729 -0.004511928
0.0048345956 -0.015575416 0.0080668805 0.0026651595 -0.016200418 0.0014479315 -0.00628179 -0.011213307
-0.011601775 -0.012118804 -0.0036512583 -0.0013983406 0.015646175 0.012014812 0.007364048 -0.006137689
-0.005007325 -0.00581453 -0.00025269334 -0.01830777 0.00862204 0.0020760652 -0.0065002665 -0.018096328
0.0017889917 -0.013722372 -0.0075018667 -0.008509032 -0.00029007084 0.01220474 -0.016046768 -0.0017825331
-0.016301772 -0.0039568422 -0.014795072 -0.011793248 0.00461623 -0.011646242 0.011095267 -0.009570542
0.015662123 -0.006679406 -0.0020557349 -0.011934206 0.0011318215 -0.016886776 -0.0088929115 -0.0062706745
0.0047210874 0.010228892 -0.014575143 0.00031132123 0.014388137 0.012576165 -0.015254947 0.010350281
-0.000120248566 0.015763583 -0.00500591 -0.015537337 0.00172775 0.0011498415 0.017027235 -0.005090622
-0.0028408484 0.0038787755 0.009632135 -0.0033991053 -0.008832883 -0.0023522314 0.013483522 -0.0012675184
-0.005104804 -0.0132121295 0.011502319 -0.004643338 -0.003258565 0.0062040165 -0.015617192 -0.008491945
-0.00017895071 0.010563409 -0.013230985 -0.00820608 0.006307574 -0.015122843 -0.00474759 0.009817158
0.0040564723 0.008006499 0.0015507017 0.0069841556 -0.015183853 -0.0121667795 0.009369117 -0.018924672
0.009229566 -0.003138479 0.0056367735 -0.0037048229 0.002697062 -0.009172119 0.004102634 0.009796845
-0.004345662 0.005873212 -0.0051389607 -0.011828249 -0.0005941521 -0.004156918 0.005300699 0.005237616
-0.014619756 0.0009293896 -0.0073251994 0.0033712722 0.0017715549 -0.01831299 -0.01392393 0.015947325
-0.007771816 0.060769867 -0.011441678 1.2714312 0.012360325 0.010813801 1.2045882 1.0570841
-0.07363507 0.027320107 -0.024443423 1.3830355 0.22001383 -0.01782088 -0.006984694 0.062018458
0.3154918 -0.008457092 0.15362304 0.040916484 0.014990647 -0.02057597 0.06400534 0.006752143
0.046711043 0.22320615 -0.07690578 0.07452202 -0.013180967 0.00043386986 0.005772792 -0.026627652
-0.082370296 0.16420312 -0.060401607 1.0977378 -0.12971425 -0.0125792585 0.0057883407 0.11477345
0.0029986296 0.94647604 0.52124846 0.009093087 0.003999752 0.17481224 -0.04522501 0.0831525
0.045393717 -0.0018756124 0.012980668 0.0008740024 0.00686971 -0.04079816 0.053209383 0.0035079198
-0.009866639 0.09198302 0.082237884 -0.0011995775 0.1069679 -0.12195241 0.01555031 -0.0057363086
0.41592348 -0.048324954 -0.004788877 -0.0016883012 -0.0036963727 0.33924556 0.00073900406 -0.04122376
0.018145189 1.1869141 -0.07168821 -0.07058958 0.11617272 -0.12642883 0.077316225 1.1469194
-0.018098004 -0.15722638 0.05088592 1.2696229 -0.061762635 -0.0054860623 -0.14251456 0.115813285
-0.04499067 0.20837721 0.06583124 -0.007862572 -0.025112519 -0.015495066 0.006193896 0.81344146
0.005610524 1.2232294 -0.030869748 -0.056290604 -0.00039175156 0.14158326 0.31650218 -0.0030671475
0.09225534 -0.014737747 -0.055957798 1.1480845 -0.0865095 0.17798884 1.3263865 -0.00090745045
-0.05382582 -0.059901696 -0.0067609227 -0.0026027802 0.001859421 -0.0050656903 0.013839949 0.15696424
-0.037711125 -0.076639175 -0.16110271 0.008238564 -0.13409339 0.062771976 0.0065454002 -0.011275188

layer2.bias f4 [128]
00000000: 8753 05bc cec3 353e 54f7 c3bb 740c 05be
00000010: cd21 d5bc 6b01 fdbd 3e0a 523e bdae 713c
00000020: c8e1 263b 574e 17be bbb6 f2bd be55 a2bb
00000030: 51d4 343e 334f 02be 0d25 8f3e 2382 0dbe
00000040: b4b4 a7bd b817 17be 24c5 2b3e 5f2d 023c
00000050: cfb3 843b f027 af3e a6f3 f4bd cded 6b3c
00000060: d5da 1cbc a464 0ebe b84d 953b 3519 91bc
00000070: 2baf f4bd 8723 273c 7d09 15be 69f2 2b3c
00000080: 69fc e4bb e7f7 083c 619f 0ebe eaae b33e
00000090: 0381 21bc 9542 933e 71a0 a23e 57a1 ad3e
000000a0: 01f1 fdbd b82d 04be 2ca3 fcbd 82f7 1b3e
000000b0: b3ff 03be 89ab 0ebe eca6 0cbe 73f5 b23e
000000c0: f881 e7bb bd42 5fbc 5597 12bc 991e 963e
000000d0: 990a 0bbe d752 843e 6512 2b3c 7f62 0abe
000000e0: 1f41 90bc 633f 8a3c 4589 7bbc 3cc0 23bc
000000f0: a1d8 fcbd af84 13be 7041 5c3c 4c66 01be
00000100: 5268 d03e b0cb a1bc 4aaa f4bd 3012 a7bb
00000110: c34b 89bc cd18 b33e b80c 12be f672 8cbb
00000120: b4b0 413e 665c a23e 1378 80bc 6891 ed3b
00000130: 7e97 44bb c6a0 f4bd e026 a1ba edd2 793e
00000140: 5129 dfbd 023c 04be fd53 0ebe 230f aa3e
00000150: 2a62 1bbc 47d5 9d3e 3679 4e3d e906 3abc
00000160: 9b29 28bc c62c 96bc 9342 81bc 0bfc 113c
00000170: db05 b73e a3b5 5f3e a7d2 b5bb ab05 11be
00000180: 63d5 18bc e6ac af3e f5ae 09be 24f9 b03e
00000190: 890f 4dbb 4c6a 0dbe fff9 6f3c 0570 493b
000001a0: 9fd3 f7bd 87c0 e93e 9e02 e4bb 9d6e 1ebe
000001b0: f90f 13be 405f 00be 3926 02be 3e10 c3bd
000001c0: b3af 1cbc 06a3 923b 7a15 a53e e2bd 993e
000001d0: 8e16 b43e b338 62bc 219a aebb ba2c 1abe
000001e0: 09b2 a43e 292e 19bc 1f0a 0cbe 8e5b 10be
000001f0: a8a2 133c 02b4 09be d0dd 07be 9ad0 07be
-0.00813759 0.17750475 -0.0059804115 -0.12993032 -0.026017094 -0.12353786 0.2051172 0.0147511335
0.0025464166 -0.14775978 -0.11851259 -0.004954069 0.17659117 -0.12725525 0.27957955 -0.13819174
-0.08188763 -0.14755142 0.16774422 0.007945388 0.004049755 0.34210157 -0.11960535 0.014399958
-0.009573658 -0.13905579 0.004556384 -0.017712215 -0.11947473 0.0102013415 -0.145544 0.010494807
-0.0069880974 0.008359886 -0.13927986 0.35094386 -0.009857419 0.28761736 0.31763032 0.33912155
-0.123994835 -0.12908065 -0.1233581 0.15231135 -0.1289051 -0.13932623 -0.1373555 0.34952888
-0.007065054 -0.0136267515 -0.008947213 0.2932022 -0.13578261 0.25844452 0.010441397 -0.13514136
-0.017609177 0.016875928 -0.015352552 -0.009994563 -0.12346006 -0.14406084 0.013443336 -0.1263668
0.4070459 -0.019750446 -0.119465426 -0.0050986037 -0.016759759 0.3497986 -0.14262664 -0.0042861653
0.18915063 0.3171112 -0.015682256 0.00725 -0.0029997523 -0.119447276 -0.0012294911 0.24396868
-0.10896552 -0.12913516 -0.13899226 0.33214673 -0.009483853 0.3082678 0.050408565 -0.011354187
-0.010263826 -0.018331897 -0.015778815 0.008910189 0.35746655 0.21846633 -0.0055487934 -0.14162318
-0.009328219 0.343116 -0.13445647 0.3456508 -0.0031289777 -0.1381008 0.014647006 0.0030736935
-0.121009104 0.456547 -0.00695832 -0.15471883 -0.14361562 -0.12536335 -0.12709893 -0.09524582
-0.009563374 0.0044750003 0.32242948 0.30027682 0.35173458 -0.013807463 -0.005328432 -0.15056124
0.3216708 -0.009349384 -0.13675736 -0.14097425 0.009010948 -0.13447574 -0.13268209 -0.13263169

layer3.weight f4 [128, 128]
00000000: 86c5 24bc e4f9 3d3c 8399 0c3c 01e2 83bc
00000010: c3d0 113c 8194 3f3c c227 4ebc 6d94 343c
00000020: d31f 5fbc d0a0 bb3b ac95 f1bb 62cc 243c
00000030: 4fc9 fab9 b6ca fc3b 4d77 20bb 3006 e9bb
00000040: 9304 e43a ba99 cb39 f9f7 3c3a 5429 823c
00000050: a8a5 70bc 1bee 0fbc 65c7 bb3b 074d 2ebc
00000060: f6c7 0ebb 94a6 4939 cdd7 213a 9380 0ebc
00000070: 1afa 7cbc fe55 65bb f4fa fe3b 7a51 3ebc
00000080: 69cb 9bbb 87b2 1fbc 23d0 f63b 89d5 9dbb
00000090: e400 a43b 50e3 d63a d800 3abc dba8 1d3c
000000a0: 7185 89bc 5fe5 95bc e7d8 493c 89d5 1fbc
000000b0: dd5f b5bb 74e5 2dbc 4e0e 5d3c 069e 883a
000000c0: d97f 853c 6644 143c a822 263c a5a4 353a
000000d0: 9a80 2d3c 0f6b 1abb 5ccc 60bc 8a9e 87bc
000000e0: d560 7a3a 076f 253c ff03 7d3c 7a82 243c
000000f0: d620 833b bd62 3bbc 4fb0 3b3b bd06 9bbc
00000100: 098f 98bb c4e0 aaba 0837 76bc 2538 803c
00000110: 6fe0 16bc a0b3 8dbc ca27 673c 067e 5d3c
00000120: a68c 4bbb a537 9fbc df9a 16bc 6f7b 2d3b
00000130: 70ad da3b f396 433c 55fb b7bb cfd1 693b
00000140: 7be1 5a3b aff0 8dbc 31f7 3b3b 7125 303c
00000150: 42fc de3b e11c b33a 4a56 a33b 3db9 9c3b
00000160: 5c31 8b3c f92a 5fbb 10d5 783c a415 47bc
00000170: 305d a5bc 1688 2b3c 4af8 853c c6ef 1c3c
00000180: 6744 01bc 8dac bbbb 582b 2f3c 1650 1e3c
00000190: 1dbd 6a3c 7124 b7ba 794b 0abc 7cf5 e0bb
000001a0: 834d ed3b 72dd 8fbb a0b6 bdbb 8781 0d3c
000001b0: c362 10bb 914a 6c3b 7c1d 83bb 6bbd 05bc
000001c0: 3756 29bb 399a 1a3c 3eca 36bb 32a2 fcbb
000001d0: e6a5 1ebc 6546 6a3b daf0 7cba bd2f ef3a
000001e0: 623b 21bc bafd 023c f1c4 26bc 9536 8cba
000001f0: cfc3 a03a ec7b 72ba bb67 2fbb fcc7 c3ba
00000200: abea b4ba b7ad 8bbf 7a72 183b 48bf 1c3e
00000210: 5c0d 13bf a236 2b3e 203f ec3c 5ada 8a3b
00000220: 848d 863c 49a0 153e 5652 283e 1ad8 d1ba
00000230: 5f7f 9cbf 8663 253e 0873 65bd 84f3 0d3e
00000240: 2adf 0b3e 1434 223e 812c 8dbf ee70 66bc
00000250: 9f6c 0fbc 2064 743d 81b9 203e 0adf 1e3b
00000260: 3b8b 13bc 90f0 233e 8336 be3b cc0c 0fbc
00000270: 275c 0f3e 3b58 a53a 0596 233e f417 90ba
00000280: f693 4dbb 9028 363b 5aad 203e 8c48 a73d
00000290: 015f 20bf f3a2 153d b278 893d 1826 ad3d
000002a0: 4cae 2d3e a9a1 183e 7766 1a3e f26c 8cbf
000002b0: 77e8 1f3e e45b 2a3e 5a21 283e 26f5 ac3d
000002c0: 2f78 e33b 6ce3 0fbb 092c 52bb eafc b43c
000002d0: b838 223e d85f f5be 08dd 64bc 8067 143e
000002e0: a5a9 31bc efa4 823b 1e83 cebb 1185 f0ba
000002f0: d094 153e 6038 223e df79 923b f80c 293e
00000300: 7dae ddbd 375d 19bf 16ac 103e 9527 733c
00000310: 7eb6 c8bb ee0b cfbd 3a30 363e ebc3 853c
00000320: 74b7 803e 0406 493d 8ca5 c0bb 3518 acb9
00000330: 424a 8a3b ecaf 0b3e bdfa 763c bcf5 84bf
00000340: baf8 113e d387 0b3e efa8 083e d1b5 893d
00000350: bd94 3abc 1787 aa3d d7fa aebd 1061 5fbc
00000360: d16f 813b 0c41 43bc f8d4 713a 8424 883a
00000370: 85c1 943d 7b54 8fbf d41a d4b9 3a3a 163e
00000380: 0d09 94bb 6355 74bd ef75 0c3e ccb2 e5bd
00000390: 3758 10bc 1625 233e dbb3 a0bb f2a1 093c
000003a0: f9e7 2a3e ef96 97be 0100 903c 4cfa 0d3e
000003b0: 27cc 1a3e b44b 203e 0c0c 1d3e c75c 193e
000003c0: ed18 1f3b cffb dd3b 7514 2abd 8304 653d
000003d0: 5f91 693d 5331 30bc 5f55 343a a02f 113e
000003e0: fd50 083d 601b f93b 3f84 183e 65ae 2a3e
000003f0: fb27 54bc 5592 263e bdaf 273e d6f7 083e
-0.010056859 0.011595223 0.008581522 -0.016098978 0.00889987 0.011693121 -0.012582721 0.011021716
-0.013618427 0.0057259575 -0.0073725786 0.010058494 -0.00047833702 0.0077145947 -0.0024485171 -0.0071113333
0.0017396383 0.00038833712 0.00072085817 0.015888847 -0.014687933 -0.008784796 0.005730557 -0.010638482
-0.0021786666 0.00019230909 0.00061738194 -0.008697647 -0.015440488 -0.0034993882 0.007781381 -0.011616105
-0.004754473 -0.009747154 0.007532136 -0.004816715 0.005004989 0.0016394649 -0.01135274 0.009622778
-0.016787263 -0.01829785 0.01231978 -0.009755501 -0.0055351094 -0.010613788 0.01349218 0.0010423071
0.016296314 0.009049511 0.010140099 0.0006929136 0.010589743 -0.0023562347 -0.013720598 -0.01655509
0.0009551172 0.010097272 0.015442847 0.010040874 0.004001717 -0.011437115 0.0028639024 -0.018924112
-0.004655723 -0.0013036956 -0.015027769 0.015651772 -0.009208783 -0.017297566 0.014108608 0.013518816
-0.0031059175 -0.019435713 -0.009192198 0.0026471277 0.0066735074 0.011937845 -0.005614678 0.0035678034
0.0033398557 -0.017326681 0.0028681273 0.010751114 0.006804974 0.0013665223 0.0049846517 0.0047828243
0.01699131 -0.0034052713 0.015187517 -0.012151156 -0.020186037 0.010469457 0.016353745 0.009578651
-0.007889844 -0.0057273568 0.010691486 0.009662649 0.014327315 -0.0013972652 -0.008440846 -0.0068652015
0.007241906 -0.004390412 -0.005789593 0.008636839 -0.0022031523 0.0036055187 -0.0040013175 -0.008162837
-0.0025838742 0.009436184 -0.0027891542 -0.007709765 -0.009683108 0.0035747525 -0.0009648927 0.001824848
-0.009840818 0.007995063 -0.01017879 -0.0010697419 0.0012265387 -0.0009250033 -0.002676471 -0.0014936919
-0.0013802847 -1.0912389 0.0023261593 0.15307343 -0.5744226 0.1672006 0.028838694 0.0042374553
0.016424902 0.14611925 0.16437659 -0.0016009838 -1.222637 0.16151246 -0.056017905 0.13862425
0.13659349 0.15840179 -1.1029207 -0.0140650105 -0.008753925 0.0596658 0.15695764 0.0024241828
-0.009005363 0.16009736 0.005804838 -0.008731078 0.13999997 0.0012614796 0.15975197 -0.0010993467
-0.003136871 0.0027795173 0.15691128 0.08168134 -0.62644964 0.036532354 0.06712474 0.084545314
0.1696102 0.14905418 0.1507815 -1.0970747 0.15616022 0.16636616 0.16418973 0.08445196
0.0069418172 -0.0021955622 -0.0032069704 0.022093255 0.15841949 -0.47924685 -0.013968714 0.14492607
-0.010843669 0.003986947 -0.0063022515 -0.0018350204 0.14607549 0.15841818 0.0044700946 0.16508853
-0.108242966 -0.5990786 0.14128146 0.01484098 -0.0061252704 -0.10109697 0.17791834 0.016328773
0.25139964 0.049078003 -0.0058791097 -0.00032824432 0.004220278 0.13641328 0.015074429 -1.0387492
0.14255038 0.13626032 0.13345693 0.06724132 -0.011388001 0.083265476 -0.08543938 -0.013633981
0.003950097 -0.011917364 0.0009225155 0.0010386859 0.072634734 -1.1197656 -0.0004045578 0.14670649
-0.0045176805 -0.059651744 0.13716863 -0.112157434 -0.008810095 0.15932116 -0.004904253 0.008400427
0.16690053 -0.2960734 0.017578127 0.13865012 0.1511694 0.15653878 0.15336627 0.14976798
0.0024276332 0.0067744027 -0.041523416 0.055912506 0.057023402 -0.010753947 0.00068791764 0.14178324
0.03328036 0.0076021403 0.14894198 0.16668089 -0.012948985 0.16266759 0.16375633 0.13375792

layer3.bias f4 [128]
00000000: fdd2 9dbb 311f 3f3e a38a 703e 479e 8d3e
00000010: 5153 483e d00a a93e 0bc6 b03e 8621 593e
00000020: 732c ad3e 10c6 0f3e f514 23bc 2b28 9d3e
00000030: a48f b03e 21e8 9c3a fbc8 b23e b0d1 853e
00000040: 6ffc 793c 3895 973e b20b 6b3e 8610 b63e
00000050: d749 913e 370a 963e 665d 883c c3f3 5c3e
00000060: cef3 843e 3e62 893e c8fe 9d3e ff72 523e
00000070: 3bdd 803e 6866 8e3e 3c4c 383e 2ba1 703e
00000080: 580c 83bc 198c a23e b058 a83e 92a8 b13e
00000090: c584 b13e 2075 6f3e 8a6b 4e3e 3574 573e
000000a0: ba7a 3c3e d4ca 4a3e f160 b03e af6d a63e
000000b0: 1cb8 ae3e 0c3e 413e 2066 a53e 3e7e a33e
000000c0: c056 4c3e 5eef b53e ba6a 603e 76f1 9cbb
000000d0: 3328 26bc f418 573e 58e2 ae3e 6a8d af3e
000000e0: 0f94 31bc ef32 ab3e 1d40 693e e6c8 8cbc
000000f0: 5f31 863e e28c 3c3e edc9 643e 4462 acbb
00000100: 1d65 893d 2c56 b23e 61c0 a93e 44cc 2a3e
00000110: 1f5b 003e b793 7d3e 410b 823e b7ed 6b3e
00000120: d72c 673e 816a b43e 4534 37bb 7db9 b83e
00000130: 3a1e 813e acb7 563e 9b7c 82bc 8429 9b3e
00000140: 5b3f 44bc 198b ae3e 8241 b03e 1fa6 983e
00000150: 3ba4 96bb df1a 6a3e 6166 3b3e d32f 593e
00000160: 93e0 b73e 17c7 403c 10bc a33b 85f3 0c3e
00000170: b79e 1b3e 712b 653c a58b ab3e af8a 553e
00000180: a820 a4bc 811e be3e 57fa e53b c1d4 883c
00000190: 2d76 a43e 6dcc 463e aaf0 703e 79bc 80bc
000001a0: ebc4 a53e 7c5c 203e 0591 ae3e ad18 363e
000001b0: 20b1 b03e 4619 2dbb a5cb 6b3e 3809 aa3e
000001c0: 469e 663e 69e1 a23e 87c8 a93e 84e9 b33e
000001d0: ddb7 923e c1e0 4c3e 4db4 ad3e f140 ef3b
000001e0: 6b7b 943a 1eef 4f3e 8d96 edbb 162d b23e
000001f0: f004 61bc 3cf4 6d3e 2f02 8c3e 5243 a33e
-0.0048164115 0.18664242 0.23490386 0.2765982 0.19563033 0.33016062 0.34526095 0.21204194
0.33822975 0.14040399 -0.009953727 0.30694708 0.3448459 0.0011971035 0.3491896 0.2613654
0.015257939 0.29606032 0.2295368 0.3555948 0.28376648 0.29304668 0.016646098 0.21577363
0.25967258 0.26832765 0.30858445 0.2055168 0.25168785 0.27812505 0.17997831 0.2349898
-0.015997097 0.3174751 0.32880163 0.3469892 0.34671608 0.23384523 0.2015821 0.21040423
0.18406191 0.19803935 0.3444896 0.32505557 0.3412484 0.18871325 0.32304478 0.31932253
0.19954967 0.35534185 0.21915713 -0.0047895266 -0.01014142 0.21005613 0.34157062 0.34287578
-0.010838523 0.33437297 0.22778364 -0.01718564 0.26209542 0.18413118 0.22342654 -0.0052607376
0.06708739 0.3483137 0.33154586 0.16679484 0.1253476 0.2476338 0.2539921 0.230399
0.22575699 0.35237506 -0.002795474 0.36079016 0.25218374 0.20968503 -0.015928557 0.3030511
-0.011977996 0.34090498 0.34424978 0.2981424 -0.0045972145 0.22861813 0.18300773 0.2120965
0.35913524 0.011766217 0.004996784 0.1376477 0.15197264 0.013987408 0.33504978 0.20853685
-0.020035103 0.37132648 0.007018368 0.016703011 0.3212141 0.1941392 0.23529306 -0.01571487
0.323768 0.1566028 0.34095016 0.1778285 0.34510136 -0.002641277 0.23026903 0.33210158
0.22521314 0.318126 0.33160803 0.35139096 0.28655902 0.20007612 0.3392662 0.007301443
0.0011328285 0.2030606 -0.007250613 0.34800023 -0.013734087 0.232377 0.27345416 0.318873

output_layer.weight f4 [9, 128]
00000000: 3b5f 06ba ca19 54be 7d95 2f3e 203b 413e
00000010: 6328 2f3e e93a 4ebf c7c0 4bbf ab3f 3d3e
00000020: 3f22 56bf 2943 373e 4f1c 123c a93a 85bd
00000030: ca70 54bf 7d9d af3b 8917 62bf a6ea 4b3e
00000040: 2fe1 06bb 456f 343e c54f 81be 82c6 44bf
00000050: fd6d 04bf 5679 453e f1d9 30bc a3cd 3b3e
00000060: 6854 f53d 25ae 423e cce1 1abf 0f1e 98be
00000070: 1857 403e a62f 18bf af25 e83d 828c 433e
00000080: 994c 5f3c 9794 4bbf 757f 9bbf 9a81 5abf
00000090: f4ec 58bf 10ee 10be 7d96 4e3e 7c2c 0e3e
000000a0: 049d 81be 0810 1e3e 5395 143e 0695 52bf
000000b0: 7afd 4abf 8b51 3f3e 6b5a 38bf 01cc 89bf
000000c0: a2d5 1b3e 77bc 55bf 13ca 5bbf 47d6 18bc
000000d0: 1f73 2dbc d561 1d3e 40f5 6ebf d950 4ebf
000000e0: 5ba3 5b3b b084 36bf 7e8b 90be 0e9d cfbb
000000f0: 09aa 6ebe 4eac 61be b505 193e 00a6 433c
00000100: b42d a9be 1602 3ebf cb11 48bf 0159 a1be
00000110: d8db a5be fe95 553e 3192 253e 96e5 2d3e
00000120: 6c98 c13d 9336 47bf d2db 483c 52ee 7abf
00000130: cafd c13d 6a69 063e 6660 523c 431d 283e
00000140: 0797 b73b 84fd 3dbf 0adc 3cbf f4a0 2ebf
00000150: 6fb0 133c 6a47 073e 6c68 183e d1b6 5e3e
00000160: 4b53 6dbf 4330 913b 3954 2d3c 5c0f 9dbe
00000170: 1ae2 a6be f3b4 baba 05e0 44bf 0756 f13d
00000180: 2cc3 cfbb 1a6e 69bf 9f45 6d3c 53ef 67bc
00000190: 2566 91bd 1470 213e ead5 103e a662 dc3b
000001a0: ff4b 51bf 9b7f 8cbe 96a2 5dbf bc7e 293e
000001b0: 9170 6abf 8f24 a639 ac28 443e f238 66bf
000001c0: 2a9a 533e b615 5cbf 1de9 49bf 5845 46bf
000001d0: def2 e23d 8463 0d3e f1be 4cbf b6d1 bdbb
000001e0: 0329 5e3c 1d58 273e bf41 3cbb 3929 47bf
000001f0: 2c77 203b 1371 113e ba4e e73d f389 53bf
00000200: 0879 56bc 49c4 003d 0882 103e e025 123e
00000210: f313 e63d 4599 49bf 54ce 57bf f88d df3d
00000220: adc5 57bf a176 c03d 11a6 793c 99e8 c73d
00000230: ff08 4ebf c81b f2bb 4a4e 5dbf 82f0 2c3e
00000240: 0d19 633c 75ae 613e 7015 e0bd d244 54bf
00000250: 69a4 39bf 7b12 373e 8a41 6d3b 5398 fa3d
00000260: fd3a 013e 4900 1f3e 08b0 42bf c04c 1b3d
00000270: 28ce 173e 640a 39bf 5ce7 b03d 4b6e 193e
00000280: 3156 8abc 6d24 50bf 526e 76bf c22f 58bf
00000290: e200 51bf fccd 663d 981d 093e 3201 e63d
000002a0: e203 1c3d 7ebb d43d 5886 703e 996d 55bf
000002b0: 03f7 4fbf e4c5 553e f5e4 4fbf 591b 70bf
000002c0: 7090 e53d 0698 57bf f416 f6be 46fa 7eba
000002d0: 9c57 24bc e238 f33d 91b4 5dbf bdd3 55bf
000002e0: 5646 21bc 1fe6 51bf 47b3 fdbd 3712 893c
000002f0: 932b 293d 9d0f fe3c 9d22 c63d 1d9c 6b3c
00000300: 54d5 eaba 7fbd 54bf 500b 4ebf baeb ec3c
00000310: cd9d 98bc eceb 0a3e f55a 103e 7d2d 6c3e
00000320: 761a ad3d 45a2 55bf f342 0b3c d9b5 6bbf
00000330: 7af4 dd3d 6795 fd3d 5528 c0bb e4f4 1a3e
00000340: 620a 0e3c 0207 53bf 61e3 58bf d54d 4abf
00000350: 43d1 853b 4740 e93d d28a e23d ed35 113e
00000360: 708d 5dbf 10cf 87bb 0873 b03b 8209 a8ba
00000370: 1759 babb 72ba 1fbc 5bc2 4abf 1b0a ab3d
00000380: 6364 c33b de66 5bbf 9501 3e3c deb3 8bbc
00000390: b2a8 ac3d 5dca cb3d 7175 d03d f4cd 573c
000003a0: ccf6 48bf 34b2 943c 2031 5ebf 5ee0 d23d
000003b0: deed 5cbf e51e 953b a4cd 1d3e 00fa 48bf
000003c0: c36b 183e 6623 4bbf 8a20 58bf e33f 51bf
000003d0: 0f3a 063e e764 e13d 0b9a 56bf e3a8 933b
000003e0: d3c2 b73b 3b90 f33d 8454 533c c02a 53bf
000003f0: ead3 7fba 6841 f03d 930d f23d d82d 4cbf
-0.0005125885 -0.20712963 0.17146869 0.1887021 0.1710525 -0.8055864 -0.7959103 0.18481319
-0.83646005 0.17896713 0.008917882 -0.06505329 -0.829846 0.0053593502 -0.8831716 0.1991373
-0.0020580997 0.17620571 -0.25256172 -0.768654 -0.5173033 0.19284567 -0.010794149 0.18340163
0.1197899 0.19011743 -0.6050079 -0.29710433 0.18783224 -0.59447706 0.113353126 0.19096568
0.013629102 -0.79523605 -1.2148272 -0.85354006 -0.8473656 -0.14153314 0.20174594 0.13884157
-0.25315106 0.15435803 0.14510088 -0.8225864 -0.79293025 0.1868345 -0.72012967 -1.0765382
0.15218213 -0.834907 -0.85855216 -0.009328431 -0.010586529 0.15369351 -0.9334297 -0.80592114
0.0033514115 -0.71296215 -0.28231424 -0.006335861 -0.23307051 -0.22038385 0.14943583 0.011941433
-0.3304268 -0.7422193 -0.7815215 -0.31513217 -0.3239429 0.20857999 0.16169049 0.16982111
0.094529 -0.7781765 0.0122594405 -0.980199 0.094722345 0.1312615 0.012840366 0.16417412
0.0056027207 -0.7421496 -0.7377325 -0.68214345 0.009014233 0.13210836 0.14883584 0.21749426
-0.9270522 0.004430802 0.010579162 -0.3067578 -0.32594377 -0.0014244601 -0.76904327 0.117839865
-0.006340405 -0.91183627 0.014481931 -0.01415618 -0.07099561 0.1576541 0.14144102 0.006725627
-0.81756586 -0.27441105 -0.8657621 0.16552252 -0.9157801 0.00031689226 0.1915614 -0.8993064
0.20664278 -0.8597063 -0.7887133 -0.7744956 0.110814795 0.13807493 -0.79978853 -0.0057928218
0.013559583 0.16342206 -0.002872571 -0.77797276 0.0024485094 0.1420329 0.11294313 -0.8263237
-0.01309038 0.031437192 0.14112103 0.1427226 0.11234274 -0.78749496 -0.84299207 0.1091575
-0.84286004 0.09397627 0.015237347 0.09761161 -0.80482477 -0.0073885657 -0.86447585 0.16888621
0.013860953 0.22039206 -0.10941589 -0.8291751 -0.72516495 0.17878143 0.0036202394 0.12236085
0.12620158 0.15527453 -0.7604985 0.03791499 0.14824736 -0.7228148 0.08637878 0.1498348
-0.016886802 -0.8130558 -0.96262085 -0.8444787 -0.8164197 0.056348786 0.13390195 0.11230697
0.03808964 0.10387324 0.23488748 -0.8337036 -0.81236285 0.2087627 -0.81208736 -0.9379173
0.1120919 -0.84216344 -0.48064387 -0.00097266247 -0.010030653 0.11876084 -0.8660365 -0.8352621
-0.00984343 -0.8199176 -0.1238771 0.016732318 0.04130132 0.031013304 0.09674571 0.014380482
-0.001791636 -0.8310165 -0.8048601 0.028920997 -0.018629933 0.1356656 0.14097197 0.23064227
0.08452313 -0.8345073 0.008499849 -0.9207435 0.10837646 0.12382012 -0.005864183 0.15132481
0.008669468 -0.8243257 -0.8472195 -0.7902501 0.004083784 0.11389213 0.11061634 0.14180727
-0.8654394 -0.004144557 0.0053848065 -0.0012820216 -0.00568689 -0.009749042 -0.7920281 0.08351537
0.0059628948 -0.8570384 0.011597057 -0.01705354 0.084306136 0.09950707 0.1017865 0.013171662
-0.7850158 0.01815138 -0.8679371 0.10296701 -0.86300457 0.004550802 0.15410477 -0.7850647
0.14884858 -0.7935089 -0.8442465 -0.8173811 0.13108085 0.11005574 -0.838288 0.004506217
0.0056079417 0.11892744 0.012898568 -0.82487106 -0.00097590557 0.11731225 0.11818995 -0.7975745

output_layer.bias f4 [9]
00000000: 94d0 34be 90c7 0bbd 2b7e 603d d7d6 1cbd
00000010: 4d68 ec3c 4a46 8d3c 9fcb 453d 533b 87bb
00000020: 1843 41be
-0.17657691 -0.034125865 0.054807823 -0.038290825 0.028858328 0.01724543 0.04828989 -0.004126945
-0.1887325
