ngzhii/long/results/train/DQN_dist_30m/learning_rate_actor_0.001/best_model.pt (torch, 160623 bytes, 8 tensors)

layer1.weight f4 [128, 40]
000000 bc c5 ff bb 4a 79 31 bb 11 d8 b1 bb a2 a5 38 bb
       -0.007805554 -0.002708035 -0.0054273685 -0.0028174897
000010 d5 9b 1b bc 84 96 b6 3a d6 ed 86 bc 98 d0 86 ba
       -0.0094976025 0.0013930355 -0.01647083 -0.0010285554
000020 e6 c1 b8 bb b1 38 d3 bb 44 02 38 bc db 4c 9f 3b
       -0.005638349 -0.006445967 -0.011231009 0.004861457
000030 da 91 67 bc de 40 21 39 ae be b0 3b 1b 4c 41 bb
       -0.014133895 0.00015378321 0.0053938245 -0.0029494825
000040 93 f8 83 bb d2 e2 d7 bb f0 b8 a5 bb 6c 1f 7c bb
       -0.004027435 -0.0065883184 -0.0050574467 -0.0038470877
000050 54 b5 73 bb fa 30 3c bc f3 f0 63 3b 0c 7b 69 bb
       -0.0037186937 -0.011486286 0.0034781068 -0.003562632
000060 bb c1 d1 3b b7 8c 8b bc 6c 05 dc 3b cb 71 4c b9
       0.0064012683 -0.017034872 0.0067145135 -0.00019497347
000070 20 03 18 b9 ec 3c e4 3b 8c ab ba 3b 49 e2 93 bb
       -0.00014497014 0.0069652703 0.0056967195 -0.0045130593
000080 7e 37 67 bb 14 8e 94 39 76 f9 8b bb a4 84 11 bc
       -0.0035280879 0.00028334616 -0.0042716814 -0.008881722
000090 e1 b3 48 bb b4 a2 b8 bb 39 4c b3 bb f7 09 84 3b
       -0.0030624794 -0.00563463 -0.005471733 0.004029508
0000a0 ef ee ea 3b e4 91 ad 3b a6 33 14 ba 6b 96 94 3b
       0.0071695964 0.0052969325 -0.0005653448 0.004534533
0000b0 9e 38 2f bb 3c ee 90 3b d0 9d 4e 3b 65 3b 6f bb
       -0.0026736627 0.004422931 0.003152717 -0.0036503908
0000c0 95 e8 a2 3b d3 94 53 bb 46 62 c5 38 86 aa c8 3b
       0.0049715736 -0.003228475 9.411997e-05 0.0061238436
0000d0 5f 50 e3 ba 78 e4 28 39 43 97 65 bb 3d cb e6 bb
       -0.0017342678 0.0001610684 -0.0035032786 -0.007043271
0000e0 de da ce bb d0 38 66 bb 41 9e 15 3b 29 d0 6f bb
       -0.006312712 -0.0035129078 0.0022829922 -0.003659258
0000f0 4b 1e 04 ba da bf b8 3b 34 45 13 39 2e 89 7f b9
       -0.00050399144 0.005638105 0.00014044793 -0.00024369798
000100 50 96 c1 ba 1a a0 11 39 d3 06 12 bc 97 ed 14 bc
       -0.0014769528 0.0001388792 -0.00891276 -0.009089849
000110 44 05 06 3b ef 7a 93 bb 05 2f a4 3b a8 0e c2 bb
       0.0020449916 -0.004500739 0.005010488 -0.0059221573
000120 ca 58 a5 bb 7d 79 40 3b 49 0d 0c bc 8f c8 12 bc
       -0.005045985 0.0029369288 -0.008548089 -0.00895895
000130 44 fe 65 3b 4b 21 99 bb 13 87 f5 3b ae 8f cd bb
       0.003509418 -0.0046731583 0.0074929087 -0.0062732315
000140 8c a9 99 3a 30 c6 cd 3b 2b 75 1a bb 61 70 0c bc
       0.0011723503 0.0062797293 -0.0023568373 -0.008571715
000150 a2 cf c0 bb c6 d5 9e 3b e0 9c b8 bb ea 48 e8 bb
       -0.0058841268 0.004847261 -0.0056339353 -0.00708877
000160 13 bd f2 3a d7 f4 33 bb 5e e9 6d 3b da fa 8c bb
       0.0018519483 -0.0027459168 0.0036302428 -0.004302365
000170 b3 b7 91 3b a6 ac 31 bc 0c de 28 b6 8a 7b ce 3b
       0.0044469475 -0.010844385 -2.51632e-06 0.006301348
000180 0a a1 ee bb 5c 8c bf 3a d4 73 3d 3b c3 24 07 b9
       -0.007282381 0.0014613974 0.002890815 -0.00012888298
000190 e7 3b 0c bc de 65 b1 3b 54 86 ac ba 12 f9 08 bb
       -0.008559204 0.005413755 -0.0013162591 -0.002090041
0001a0 05 8d fa bb c7 b9 6f b9 b7 6e 0a bc 7e c7 d0 3b
       -0.0076462054 -0.00022862024 -0.008449248 0.0063714376
0001b0 3e c8 ca 3b 50 4c c7 3b 70 a5 22 bc 19 fd d4 bb
       0.0061884215 0.006082095 -0.009927139 -0.006499898
0001c0 fb db 86 b9 5f 9b 02 bb 7e 2a b1 3b 66 d7 b2 3b
       -0.0002572237 -0.0019929034 0.005406677 0.0054578064
0001d0 86 44 76 3a 70 50 94 bb cc 34 f0 39 f0 10 8b 38
       0.0009394366 -0.0045261905 0.00045815704 6.631191e-05
0001e0 12 4f 9f bc cb 22 52 bc 15 94 6f bb bd e6 ab bb
       -0.019446883 -0.012825678 -0.003655677 -0.005246012
0001f0 82 82 ce bb b5 e0 08 bc 33 d0 d2 3b d0 af 01 bb
       -0.006302179 -0.008354356 0.0064335107 -0.001978863
000200 ea f2 1d bc 9a 2b be bb b2 af 3a bc 78 cf 6f bc
       -0.009640435 -0.0058035376 -0.011394428 -0.014636867
000210 6d 59 1a bc a8 7c cc bb a7 1e 33 bc d3 d2 85 bb
       -0.009420735 -0.006240446 -0.010932601 -0.00408397
000220 d0 be 8f bb a4 11 5a bc 2c 1f 2a bc 8d 43 8b bc
       -0.0043867603 -0.01330987 -0.0103834085 -0.016999984
000230 dc 03 08 bc e8 2e a1 3b 3b f7 45 bb 1f ac f9 bb
       -0.008301701 0.0049189217 -0.0030207175 -0.0076193954
000240 60 8a dd ba 5f 7e a2 3b f3 89 91 bc 20 b6 4b 3b
       -0.0016902201 0.0049589123 -0.017765975 0.0031083897
000250 32 9c b4 bb e0 5e e9 bb 9a 47 aa bb 85 4a 47 bc
       -0.005511784 -0.0071219057 -0.005196524 -0.012163763
000260 dc b2 01 bc 4f 83 84 bb f3 9b cf ba 1f 54 4a bc
       -0.007916179 -0.0040439735 -0.0015839323 -0.012349158
000270 cb 04 ae bb dc 23 77 bc 37 3f 52 3c 0b d2 17 bc
       -0.00531063 -0.015084233 0.012832454 -0.009266387
000280 1f fc 9f 3a 63 2f ee bb bf 7d 96 b9 c1 29 2e bc
       0.0012205875 -0.0072688325 -0.00028703918 -0.010630072
000290 6b 9c 70 3a eb 4c 1e bc f1 c9 5b bb bd db 6d bb
       0.00091785815 -0.009661893 -0.0033537115 -0.0036294304
0002a0 44 a6 06 bb 89 3b 29 bc dc 89 b6 ba 40 9f da 3b
       -0.002054588 -0.010329136 -0.0013926583 0.006671816
0002b0 53 a0 5f 3b ca 71 c7 3b 38 f4 11 39 61 b9 27 bb
       0.003412266 0.0060865628 0.00013919256 -0.0025592672
0002c0 5e 79 59 3b a8 67 17 bc 40 e1 3b bb b0 83 ca 3b
       0.0033183913 -0.009241022 -0.0028668195 0.006180249
0002d0 83 bb 69 bb 64 0f cc bb 38 c1 bc 3b 38 3a 2b bc
       -0.0035664744 -0.0062274206 0.005760338 -0.010450892
0002e0 75 2b ef bb 1b 75 c8 3b 5a 64 5f 3b 44 8b bc b9
       -0.0072988817 0.0061174757 0.0034086914 -0.00035961915
0002f0 94 b6 73 3b d4 36 da bb c5 7b 01 bc b4 a5 85 3b
       0.0037187682 -0.006659368 -0.007903044 0.0040785912
000300 ac 78 05 3b c1 78 be bb a1 64 8b 3b 85 44 ac 3b
       0.0020366115 -0.005812735 0.0042539393 0.0052571916
000310 c2 c3 f5 bb dd 48 e7 3b 1f b0 be bb 2f de 08 bc
       -0.007500143 0.0070582465 -0.005819335 -0.008353754
000320 52 88 dc 3b 13 92 c5 bb 6c dc dc 3b 07 9f b9 ba
       0.006730118 -0.0060293763 0.0067401435 -0.0014161774
000330 c6 98 27 bb 5d 4f c5 bb 12 08 fb bb 1d 4a af bb
       -0.0025573238 -0.0060214237 -0.007660874 -0.005349411
000340 dc f7 3f bb 02 51 9a 3a 27 cf 01 3c 63 c0 82 3b
       -0.0029292023 0.001177341 0.007922924 0.0039902194
000350 47 d3 15 3c 46 63 0e bb 8c bc b2 3a e7 6d be bb
       0.009144611 -0.0021726652 0.0013636514 -0.005811441
000360 8f 4e 03 bc 90 a9 df 3b 51 44 ed 37 3c 85 e2 bb
       -0.008014335 0.0068256333 2.8284414e-05 -0.0069128554
000370 60 df a1 3a 28 c8 c1 3a 1c f5 ad 3b e1 37 29 bb
       0.0012349896 0.0014784383 0.0053087603 -0.002582066
000380 4b 37 0f 3c 47 39 07 3b 8c 14 c1 bb 88 45 e9 bb
       0.00874121 0.0020633505 -0.005892342 -0.0071188845
000390 bd 71 11 bc 6b 9a 0f 3b 12 9b 07 bc 40 6a d8 ba
       -0.008877215 0.0021912109 -0.008276718 -0.0016511157
0003a0 c8 7b 53 3b 8e ca dd bb f3 bb 19 bb dd 19 12 3b
       0.0032269824 -0.006768531 -0.0023457974 0.0022293248
0003b0 51 ee 9a bb 73 e9 bb 3a d3 24 9e 3a c4 d4 ac 3b
       -0.0047281166 0.0014336541 0.0012065418 0.005274387
0003c0 c2 4a e0 3b 2d 8c c1 3b f0 4c 9e bb 94 33 d5 3b
       0.0068448493 0.005906603 -0.004830949 0.0065063927
0003d0 cd 13 a7 3b c5 5f 30 bb 82 1c c4 bb bd 62 ca 3b
       0.005098796 -0.0026912552 -0.0059848437 0.0061763213
0003e0 ac 6f 0b bc 22 0c 75 bb 29 9c aa bb 30 6c 57 3b
       -0.008510511 -0.0037391265 -0.005206604 0.0032870881
0003f0 17 2f a1 3b b4 88 ea bb 1e e5 37 ba 90 97 73 3b
       0.0049189436 -0.0071574096 -0.0007015037 0.0037169196

layer1.bias f4 [128]
000000 9f 22 92 3b de e2 02 3c 84 e4 85 3b f3 a6 0a bc
       0.0044596936 0.00798866 0.004086079 -0.008462655
000010 4a b2 05 bc 50 d0 f1 bb bf cb 6e bb 64 b5 eb 3b
       -0.008160183 -0.007379569 -0.003643736 0.0071932543
000020 3b 90 f4 ba 8f 15 fb 3b 11 9d d7 bb c2 7b 16 bc
       -0.0018658707 0.007662482 -0.006580003 -0.00918478
000030 08 ab 84 3b c8 47 ab 37 4c 09 cd 3b 64 75 a3 3b
       0.004048709 2.0418214e-05 0.006257212 0.0049883593
000040 95 81 ef 3b f9 a5 e1 bb 98 ca 29 bc 9d bc f9 bb
       0.0073091486 -0.0068862406 -0.0103632435 -0.0076213614
000050 d8 45 d9 3a f7 56 87 bb a7 87 33 bb bc bf c2 39
       0.0016576601 -0.00413024 -0.0027394088 0.00037145417
000060 e0 a1 9e 3b 7e 2c 27 bb 6f e3 0f 3b 48 ac 8c 3b
       0.0048410743 -0.0025508697 0.002195563 0.0042929985
000070 59 cf a9 bc 39 64 f0 bb c9 7d c0 bb 6a 2c a6 bb
       -0.020728754 -0.007336166 -0.0058743698 -0.0050712125
000080 ed d0 06 3c c1 51 97 3b dd 82 33 bb 35 bf db bb
       0.008228523 0.0046179 -0.0027391233 -0.0067061433
000090 25 47 ba bc dd 0c 14 bc 98 9c 5c bb 08 49 b3 3b
       -0.022739002 -0.00903627 -0.0033662673 0.0054713525
0000a0 57 de 99 bc 14 a3 ea 3b 7e 21 ba bb e1 cd db bb
       -0.018782778 0.0071605537 -0.005680262 -0.0067078923
0000b0 61 f9 f0 bb dd ec fb bb 6c b6 32 bb e8 c1 c3 bb
       -0.007353947 -0.0076881484 -0.0027269376 -0.005974043
0000c0 f4 c4 81 b9 7d d5 ca bb 61 ec 10 ba 19 ac 54 39
       -0.0002475154 -0.0061900006 -0.0005528387 0.00020282007
0000d0 d6 14 1c bc 71 ec 08 ba dd cf d1 3b d8 9d 12 3b
       -0.009526452 -0.0005223221 0.006402953 0.0022371914
0000e0 bf 14 5c 3b a2 45 b3 3a d9 8f 27 bc b8 94 d4 bb
       0.0033581702 0.0013677368 -0.010227167 -0.006487455
0000f0 cd 87 f4 ba 81 3b 6c bc 76 ce b8 3e ee 41 c0 bb
       -0.0018656194 -0.014418484 0.36095017 -0.0058672344
000100 02 91 31 3b ab d9 ef bb ae fb 90 3b 00 a5 09 3b
       0.0027094488 -0.007319649 0.004424534 0.0021002889
000110 19 57 17 bc 54 55 de ba 5a 07 a9 bb ad 2d 8d bb
       -0.009237074 -0.0016962686 -0.005158347 -0.0043084235
000120 ef 7f 20 bb 6c ab 18 bb 0c 64 04 bc 29 4e bc 3a
       -0.0024490317 -0.0023295535 -0.008080494 0.0014366555
000130 d9 c0 23 bc d1 4f 19 ba 75 4c d9 bb 60 66 09 bc
       -0.009994709 -0.00058483804 -0.006631429 -0.0083862245
000140 0a 57 8f bc 16 a7 b4 bb c5 c4 b9 3a 5b 39 ca ba
       -0.017497558 -0.0055130823 0.0014173022 -0.001542847
000150 73 6e 8d bb 78 88 de 3b 0e 9e 45 bb e7 de de bb
       -0.004316145 0.0067911707 -0.0030154022 -0.0068014744
000160 3a 3d 17 3b 22 fb ae 3b 5e f9 45 bb a2 ce a1 bb
       0.0023077265 0.005339996 -0.003020845 -0.0049379626
000170 e7 30 0d bb f9 b3 e0 3a 90 b3 96 bb 98 83 a4 3b
       -0.002154404 0.001714348 -0.0045990422 0.00502057
000180 2e 51 4d 3b f2 12 9d 3b a5 e0 6d bb 9a 81 b9 3a
       0.0031328904 0.004793518 -0.0036297229 0.0014153004
000190 04 c7 d3 3b 0d 99 0e bc 9e 15 a2 bb c3 1e 6f 3b
       0.0064629335 -0.008703482 -0.0049464246 0.0036486841
0001a0 e1 23 e8 bb 3a 9b 02 3d dc 6b 11 bc f9 56 6d 3b
       -0.007084355 0.031886317 -0.008875813 0.003621517
0001b0 73 d3 d0 3b 5e 97 6d 3b 8f 4d fa 3b 88 a3 ee bb
       0.006372863 0.0036253552 0.0076386402 -0.007282678
0001c0 a5 80 24 3b ac 31 58 3b 5b 1e 04 bc e1 d3 8a bc
       0.0025101092 0.003298859 -0.008063878 -0.016946735
0001d0 17 c9 06 bc 24 02 a0 39 77 a9 07 bc c4 34 a7 bb
       -0.0082266545 0.00030519173 -0.00828015 -0.0051027257
0001e0 dd 08 ea bb 5c 6b e9 bb 4d 1b 1d bc 03 41 d9 bb
       -0.00714217 -0.007123394 -0.009589029 -0.0066300645
0001f0 2a 35 3e ba 24 5a ad bb 1f d3 8d bc 10 d5 2d bc
       -0.0007255847 -0.0052902866 -0.017312584 -0.01060988

layer2.weight f4 [128, 128]
000000 46 76 8a bb a1 28 02 3b b1 a8 4d 3a f5 86 6c 3a
       -0.004225525 0.0019860642 0.00078452664 0.0009022796
000010 45 6d 64 3b 10 68 a8 3a d1 bd 84 3b 39 c6 a4 bb
       0.0034855169 0.0012848396 0.004050948 -0.005028513
000020 9f d8 99 bb 14 6f 63 3b 85 d8 05 bb ce ab 4b bb
       -0.0046950127 0.003470366 -0.0020423245 -0.0031077745
000030 96 46 0d bb be 68 dd b9 6f e1 09 3b f1 27 71 ba
       -0.0021556965 -0.00042230444 0.002103891 -0.0009199372
000040 e9 98 24 bb 1c 9c 8c 3b 7d 29 81 bb 32 5e 4c ba
       -0.0025115556 0.0042910706 -0.0039417134 -0.00077960186
000050 77 67 9f 3b 49 0b 30 3b c7 43 1a 3b c0 13 07 ba
       0.004864629 0.0026862195 0.0023538934 -0.0005152784
000060 3f db 65 bb f5 92 3e 3b 5e c7 5b 3b 2b fc d9 ba
       -0.0035073308 0.0029079292 0.003353558 -0.0016630938
000070 e3 80 58 39 9f 5d 82 3b 0f 08 22 bb 03 ed a4 bb
       0.0002064738 0.0039784457 -0.0024724042 -0.005033137
000080 92 56 1d ba 6a 51 85 bb f8 cc 92 bb fc cc 61 bb
       -0.00060019747 -0.004068543 -0.0044800006 -0.0034454456
000090 01 25 10 bb 97 2d b3 3b 38 7e dc 37 23 f9 ee 3a
       -0.0021994712 0.005468081 2.6284819e-05 0.0018232208
0000a0 8b 75 98 3b 74 f2 19 39 16 03 71 3a 2a 5e 86 3b
       0.004652684 0.00014681538 0.000919388 0.0041005807
0000b0 62 9d 2b 3b 9f 09 85 3b 60 ef 7a bb 13 74 33 3b
       0.0026186337 0.004059985 -0.0038289651 0.0027382418
0000c0 56 17 2a bb a1 7a 86 3a 8e 2f 8c 3b 4d c2 ed ba
       -0.002595385 0.0010259935 0.00427813 -0.0018139571
0000d0 48 8d f2 ba 3e 96 07 39 26 87 29 bb 82 2a 62 3b
       -0.001850524 0.00012930573 -0.0025867908 0.00345102
0000e0 1f 17 8c bb 28 f0 22 3b ea 84 15 3a 07 11 dc 3a
       -0.004275217 0.0024862383 0.00057037047 0.0016789743
0000f0 ba 49 23 ba 3e fc 8f 3a 16 d0 5e bb eb a7 da ba
       -0.00062289427 0.0010985208 -0.003399854 -0.0016682124
000100 ae bb 85 ba 7a cb bd ba c6 34 8c bb 23 90 91 bb
       -0.0010203028 -0.0014480196 -0.004278752 -0.0044422313
000110 87 7a 7a 3b 40 b2 12 b9 86 63 aa 3b 4a 83 a7 bb
       0.0038220005 -0.00013990048 0.0051998524 -0.0051120864
000120 e8 65 0a 3b 86 b0 a2 3a 87 d5 48 ba 03 eb a0 3b
       0.002111787 0.0012412227 -0.00076612126 0.004910828
000130 d5 2d 79 bb d9 04 8b 38 d3 4a f8 ba 5a 21 58 bb
       -0.0038021703 6.6289394e-05 -0.0018943198 -0.0032978863
000140 b1 f2 39 bb 0a 64 be 39 ec df c3 b8 b2 06 6b ba
       -0.0028373415 0.0003631416 -9.340033e-05 -0.0008965536
000150 0c c5 43 ba 95 24 5d bb e3 1e 26 bb c3 17 a2 3b
       -0.0007468022 -0.0033743728 -0.0025348 0.0049466803
000160 27 c4 b4 bb 44 5c 56 3a 2d 29 8e 3a 25 36 6b 3b
       -0.0055165472 0.0008177201 0.0010846012 0.0035890427
000170 06 34 a4 ba de 37 cd 3a c3 5d 13 bb 47 89 3f 3a
       -0.0012527711 0.0015656909 -0.0022486306 0.00073065277
000180 68 47 41 ba b6 ab 8b ba 6d 75 f2 3a 26 5f 06 bb
       -0.0007373006 -0.0010656032 0.001849813 -0.002050349
000190 3b 7d 47 bb cc d6 2c bb 12 fa f3 3a 57 e2 9b ba
       -0.0030439633 -0.0026373146 0.0018613955 -0.0011893016
0001a0 d0 6b 5c bb b9 e7 01 bc 8e c9 6f 3b 22 25 77 bb
       -0.0033633597 -0.007928782 0.0036588642 -0.0037711342
0001b0 aa 52 38 3b c0 b2 99 bb 14 d9 d2 ba 23 2c 6f 3a
       0.0028125443 -0.004690498 -0.0016086423 0.00091237033
0001c0 c1 0a 79 bb a1 d1 2f ba 2a 55 97 3a 54 d3 a4 bb
       -0.0038000795 -0.00067069574 0.0011545767 -0.005030075
0001d0 5f 46 97 3b 1e 9a ca ba 78 f5 82 3b 2d 23 22 bb
       0.004616543 -0.0015457307 0.0039965473 -0.0024740205
0001e0 09 45 0d bb 0d 70 99 bb 47 67 a5 bb 70 0c d4 35
       -0.002155604 -0.004682547 -0.005047712 1.5798851e-06
0001f0 50 9e 77 bb 6a 79 91 bb 7e 85 cc 3a ac ae 84 bb
       -0.003778357 -0.0044395225 0.0015603749 -0.004049143
000200 cf 72 38 bb ad ab 2b 3b ba 5a ce bb 56 8d 3b bb
       -0.0028144603 0.0026194856 -0.0062974365 -0.0028618178
000210 18 cc 15 3b 52 aa 55 bb ef c3 2f 3b 69 31 89 3b
       0.0022857245 -0.003260274 0.0026819666 0.0041867984
000220 b4 94 be 39 44 e6 8e 3b 2b 6c eb b8 ab b1 17 3b
       0.00036350416 0.004360946 -0.00011225821 0.002314667
000230 4e f5 63 bb 61 6f 99 3b a3 d8 2a 3b 0a f6 9c ba
       -0.0034783664 0.004682467 0.0026069067 -0.0011975181
000240 e6 5b 7b 3b 53 91 a2 bb 74 b5 50 bb 43 ef 0d 3b
       0.0038354336 -0.0049611717 -0.0031846436 0.0021657504
000250 f0 d4 65 3b f8 d1 85 3b b8 85 0c 3b 3f 50 2f 3b
       0.0035069548 0.004083868 0.0021442007 0.0026750711
000260 2a 6b 15 3b 04 3e 35 bb ec 5f 43 bb 9b 51 0b 3a
       0.002279947 -0.0027655372 -0.0029811813 0.00053145894
000270 0e 84 b1 3a 39 3d 93 3a ec 09 62 bb 9d 22 b2 3a
       0.0013543384 0.0011233456 -0.0034490777 0.0013590638
000280 91 8f bc ba be e3 30 ba 90 0b c8 3b e3 ff dd ba
       -0.0014386048 -0.00067478034 0.006104894 -0.0016937222
000290 60 36 66 b9 13 59 8a 3b ea 4e bd 3b 2a a6 bc b9
       -0.00021954766 0.0042220443 0.0057772296 -0.00035981956
0002a0 51 7d ea 38 b4 66 56 bb 4f 12 6d 3b e6 9a 58 3a
       0.000111813315 -0.0032715024 0.0036174243 0.0008262828
0002b0 5e 78 1d b9 3a 1a 9c 3b 95 45 8a bb 9a 0b a2 3b
       -0.00015017527 0.0047638686 -0.0042197206 0.0049452307
0002c0 e3 c4 f4 3a 96 90 2e 3b 28 eb ad 3a 9f 4f 34 3a
       0.00186744 0.0026636473 0.0013268935 0.00068783195
0002d0 fb 9e 33 3b c5 0a 65 bb 26 80 0c bb 90 70 8c bb
       0.0027407992 -0.0034949046 -0.0021438687 -0.0042858794
0002e0 dc d3 9a 3b d6 fa 4c 39 85 67 26 3b 13 f1 91 3b
       0.0047249626 0.000195484 0.0025391292 0.004453787
0002f0 8a 4d 57 3b 6d 8b 36 bb 1f 81 71 bb 04 3b 89 bb
       0.0032852613 -0.00278541 -0.0036850644 -0.0041879434
000300 0d 19 36 bb 2d 86 8a 3b f4 d9 53 3b da 8d af 3b
       -0.0027785928 0.004227421 0.0032325955 0.005357486
000310 89 5e c8 3a 07 2c 9b bb cb 4d 92 3b 1c 18 8f bb
       0.0015286963 -0.004735473 0.00446484 -0.0043668877
000320 46 a9 2a bb cd 82 7b 3b 76 34 ca 3a 8c b3 42 3b
       -0.0026040836 0.0038377524 0.0015427012 0.002970907
000330 60 d3 a3 39 5d cf 48 b9 05 02 87 ba d4 34 e5 3a
       0.0003124727 -0.00019150735 -0.0010300284 0.0017487057
000340 1a 78 5c 3b 41 43 e5 b9 64 4b ae 3a 78 21 a4 ba
       0.0033640922 -0.00043728392 0.0013297615 -0.0012522181
000350 47 eb 1b bb 2c 30 22 bb e9 61 a4 ba 40 ed fc 3a
       -0.002379136 -0.002474795 -0.0012541387 0.001929678
000360 67 61 a7 bb e8 00 10 bb fd ce 1b ba 7e 3a 75 3b
       -0.005108047 -0.0021973196 -0.00059436244 0.0037418897
000370 9c 0c 5f ba ee 08 af 3b 25 00 64 bb ef 0e 0f ba
       -0.0008508654 0.0053416407 -0.0034790125 -0.00054572424
000380 bc 52 1c ba de e8 6f b8 53 e6 c0 3b df 64 f0 3a
       -0.0005963256 -5.7198915e-05 0.005886832 0.0018340609
000390 c8 c6 e1 3a bc 79 ae bb b6 9a 4f b9 3a a0 4c 3b
       0.0017225379 -0.0053245705 -0.00019798693 0.0031223432
0003a0 c8 ac 9f bb 2b 8a 79 bb c0 a7 a0 3b 37 61 cd ba
       -0.004872892 -0.003807674 0.00490281 -0.0015669231
0003b0 56 52 fd 3a 49 30 84 3b 8d b6 27 bb 8a 79 e8 ba
       0.0019326906 0.0040340764 -0.0025590986 -0.0017736417
0003c0 fe d2 3f bb ce 7d 0d bb f3 cb 2b 3b 3a 50 30 3b
       -0.0029270048 -0.0021589878 0.0026214093 0.0026903288
0003d0 f1 43 f1 3a c2 67 a8 3b 6f d2 17 3b ed d8 9e 3b
       0.0018407089 0.005139322 0.00231662 0.004847637
0003e0 5c 10 83 3a 58 a5 2d 3a b8 60 8a bb 3e 39 b3 3a
       0.0009999382 0.00066240644 -0.0042229556 0.0013673676
0003f0 3b ac 20 39 6d a4 8a bb 4f b7 09 bb 12 dd c7 bb
       0.0001532295 -0.004231027 -0.0021013801 -0.0060993517

layer2.bias f4 [128]
000000 e9 46 fa bb df e0 74 bb 51 1a 8b bb 5f a3 86 3e
       -0.0076378477 -0.003736548 -0.0042450805 0.26296517
000010 33 c8 7d bb 55 6a 4c 3f 58 0b c3 3e 80 89 a0 bb
       -0.0038724064 0.7984975 0.38094592 -0.004899204
000020 0e 9e 88 bb ac 87 45 bc b0 70 9f 3d 63 84 8c bb
       -0.004169232 -0.0120562725 0.07785165 -0.0042882427
000030 bd 54 4c 3f 88 94 94 3d c5 d9 b2 ba 42 7a a5 bb
       0.798168 0.072548926 -0.0013645223 -0.0050499747
000040 7a 40 cf bc f7 ba 7a bb 02 60 ef ba 9a 8d 6d bb
       -0.0252993 -0.0038258412 -0.0018262865 -0.0036247731
000050 44 51 4c 3f f5 8a 03 bc 25 7d bf 3e b7 05 74 3f
       0.798115 -0.008028735 0.37400165 0.9532122
000060 29 88 25 3d 80 11 91 bc 65 f0 82 bb f9 98 e7 3d
       0.040413056 -0.01770854 -0.0039959424 0.11308474
000070 93 f5 eb 3e b0 c4 fe 3e e3 8c 49 3e d1 ed 8f bb
       0.46085796 0.49759436 0.1968265 -0.0043923636
000080 eb db b6 3f fa ab 9c bb 5a f7 db ba 0d 14 56 bb
       1.4285864 -0.0047812434 -0.001678209 -0.003266576
000090 c6 8b 77 bb dc 29 9e 3d f6 61 30 bc 43 03 98 bb
       -0.003777252 0.07722828 -0.010765543 -0.0046390607
0000a0 a0 fe 4c 3f 94 cd a7 3c 83 df c5 3e 69 da c7 bb
       0.80076027 0.02048377 0.38647088 -0.0060990346
0000b0 c7 7d 4c 3f e7 e3 4c 3f 48 18 b1 bb a4 02 4c 3f
       0.7987942 0.8003525 -0.005404506 0.7969153
0000c0 6e 00 9e 3d 90 39 69 3e fc 34 31 bb 8e fb 3b ba
       0.07714926 0.22775865 -0.0027039638 -0.00071709685
0000d0 8f 1f 03 bc e2 2d 1f 3f 27 8f 2a bc 94 0c d4 ba
       -0.00800313 0.62179387 -0.010410107 -0.0016178065
0000e0 c0 c2 88 3d 8b b8 7a ba b7 2d 33 bc 66 31 4c 3f
       0.066777706 -0.0009564242 -0.010936192 0.79762876
0000f0 0b 69 4c 3f 86 f2 6e 3f a0 62 a1 3f 1b 40 5d bc
       0.7984778 0.9333881 1.2608223 -0.0135040535
000100 9d 2f 9e bb 34 b5 eb bb cc 14 3d bc 89 15 b8 bb
       -0.0048274533 -0.007193232 -0.011540603 -0.0056178016
000110 27 71 c7 ba bc 05 23 bc 1a 44 ac bb 7a f3 ce ba
       -0.0015216217 -0.009950098 -0.005257142 -0.0015789114
000120 dc 10 fd bc 5f 0f bd ba 8b 7d 52 bc 4d 30 bb bb
       -0.030891828 -0.0014424137 -0.012847315 -0.005712545
000130 d6 ca 11 3f 42 37 1a bb 71 72 f9 3d 75 ce 4d bb
       0.5695013 -0.0023531471 0.12180031 -0.0031403576
000140 35 b7 c5 3e 55 d8 c9 bb 86 be a7 bc 6a b7 cc ba
       0.38616338 -0.006159822 -0.02047659 -0.0015618626
000150 96 96 4c 3f 1b f1 95 bb 26 ee 06 bb 8b 47 01 3f
       0.79917276 -0.004575861 -0.0020588725 0.5049979
000160 52 5d 91 3f 09 13 9a bb 5b d8 55 bc a5 52 c5 3e
       1.1356604 -0.004701976 -0.013052071 0.38539615
000170 46 5c 4c 3f 75 da fb 3d b1 94 f6 ba a9 c1 4c 3f
       0.798283 0.12297527 -0.0018812624 0.79983
000180 c8 c7 4c 3f a7 ff 48 3e d9 5d 95 bb 18 06 cf bb
       0.7999234 0.19628774 -0.0045583067 -0.006317865
000190 52 7c 19 bc cc 8b 69 bb 5b a8 0a 3f 0a a8 67 bb
       -0.009368019 -0.0035636304 0.5416314 -0.0035347962
0001a0 6b 55 c5 3e a4 40 4c 3f 58 1c 5d bb 97 a7 cb 3e
       0.3854173 0.79786134 -0.0033738818 0.39776298
0001b0 a3 59 4c 3f a4 09 4d 3f ef f1 1b ba 4b 13 e3 ba
       0.79824275 0.80092835 -0.00059488317 -0.0017324475
0001c0 8b 21 d7 ba be 34 95 bb 4b e6 4c 3f 07 d9 bc 3e
       -0.0016413195 -0.0045534065 0.800389 0.3688433
0001d0 07 da 7a bb 3b 3d 4d 3f b2 42 12 bd cf 48 4c 3f
       -0.0038276927 0.80171555 -0.035708137 0.797986
0001e0 c8 29 4c 3f ca ee a9 ba 91 05 4d 3f 64 9b 21 bb
       0.79751253 -0.0012964841 0.8008662 -0.002465927
0001f0 df 61 d4 bb 40 d5 37 bb 20 9d b0 bb 1b 24 11 bc
       -0.0064813937 -0.002805069 -0.0053898245 -0.008858706

layer3.weight f4 [128, 128]
000000 77 14 45 bb 46 17 4b bb b4 b0 26 ba ee 91 4f 3b
       -0.0030072012 -0.0030989214 -0.0006358728 0.0031672674
000010 c8 b4 d0 3a 4d e8 95 3a be 4b 9e bb 74 b4 a4 bb
       0.0015923018 0.0011437029 -0.0048308065 -0.0050263945
000020 94 f4 43 bb 29 e6 8a bb 51 42 4b 3b 90 fa 24 3a
       -0.0029900419 -0.004238863 0.003101487 0.000629344
000030 17 77 c7 3a 6c ad 57 bb 8a 72 55 3b ab 8e a0 3a
       0.0015217987 -0.0032909764 0.0032569491 0.001224955
000040 c4 a6 93 3b d1 98 08 bb 24 8b 4e bb 0a 10 a1 3b
       0.004505964 -0.0020843039 -0.003151604 0.004915242
000050 8c ee 3e bb 18 d3 98 3a 4d 4f 0e 3a 48 49 ca b9
       -0.0029133884 0.001165959 0.0005428687 -0.0003858304
000060 2f 25 90 bb e3 2b 85 3b b4 f4 b1 bb 41 a4 1d bb
       -0.004398964 0.0040640696 -0.005430782 -0.0024054202
000070 38 6b 4c 3b b8 54 47 3b 53 3e 2f 3a d2 05 07 3b
       0.0031191837 0.0030415487 0.0006685007 0.0020602834
000080 7a 40 e3 3a 01 18 2d bb 70 44 38 bb 99 fb 66 bb
       0.0017337941 -0.0026412013 -0.0028116964 -0.0035245179
000090 a4 f0 6d 3b d7 11 26 3a db 6b 8c 3b 10 a8 c6 3a
       0.0036306763 0.0006335056 0.0042853183 0.0015156288
0000a0 de 67 72 bb 30 c6 b1 3a e7 97 e2 39 25 ce 6e 3b
       -0.003698818 0.0013563093 0.00043219255 0.003643879
0000b0 38 d7 8c 3a c7 25 3e 3b 6b 3d 37 bb 7b f5 a3 ba
       0.0010745293 0.0029014216 -0.0027960192 -0.0012509072
0000c0 4e a4 ae ba f2 4a 40 3b 60 c4 1f 3b a7 ff 24 ba
       -0.0013324113 0.0029341546 0.0024378523 -0.00062941987
0000d0 13 b7 9d b9 ec 61 77 3b d0 05 d1 b9 fe ef 87 bb
       -0.00030081774 0.0037747575 -0.00039867917 -0.0041484823
0000e0 7c 0a 65 3a 4a 1a 5e bb c2 71 16 3a f4 ae 94 3a
       0.0008737219 -0.0033890181 0.0005738997 0.0011343644
0000f0 39 3a 75 3a 42 e6 63 bb f9 38 83 bb 3a 76 23 bb
       0.0009354684 -0.0034774696 -0.0040045944 -0.0024942295
000100 03 4d d3 b9 44 97 86 3b 9f 95 5a 3b 1d e2 40 3b
       -0.00040302434 0.0041073877 0.0033353341 0.002943165
000110 5f a4 59 bb bb 09 62 bb 25 53 ef 3a 92 e3 3c bb
       -0.0033209545 -0.0034490663 0.0018259032 -0.0028822166
000120 a2 50 a3 ba ad 8a 73 bb 74 24 25 bb 68 57 48 ba
       -0.0012459944 -0.0037161515 -0.002519873 -0.0007642419
000130 e7 77 2e 3b 5c 51 fd 39 fd 40 91 bb 1d 7d 9e ba
       0.002662176 0.00048316538 -0.004432796 -0.001209173
000140 94 b7 06 bb f1 ca 16 bb 6d eb 49 bb 96 74 81 bb
       -0.0020556198 -0.0023009146 -0.003081049 -0.0039506657
000150 37 a9 8b 3a 49 49 3b bb 30 f3 3b bb 5c 9c a3 39
       0.0010655288 -0.0028577617 -0.0028678887 0.0003120628
000160 d9 8e 3b bb 45 09 73 ba 32 3d c1 3a bd cf 49 bb
       -0.002861908 -0.00092710956 0.0014742969 -0.0030793988
000170 cb 5c 62 bb e8 26 2c ba cc 07 91 ba 7f 1b 66 bb
       -0.0034540172 -0.0006567077 -0.0011064946 -0.0035111604
000180 29 a9 a1 bb 64 90 82 ba c5 e8 8a bb 1a 33 93 ba
       -0.0049334955 -0.0009961245 -0.004239174 -0.0011230439
000190 b1 4a 01 bb 78 79 00 3b de 46 7f 3b 4b b7 ee ba
       -0.0019728357 0.001960365 0.0038952152 -0.0018212585
0001a0 78 1d a9 b9 27 93 b2 bb ec c5 7d 3b ee 7c 52 ba
       -0.00032256148 -0.005449671 0.0038722707 -0.000802948
0001b0 e7 a1 0d b8 34 4f 8c 3a dc ab 94 3b 34 dd 5e 37
       -3.3767803e-05 0.0010704757 0.004537089 1.3283734e-05
0001c0 7d 6d 10 bb a8 ac 8f bb d9 59 4b b9 97 fe 63 3b
       -0.0022037916 -0.004384596 -0.0001939306 0.0034789199
0001d0 6d 03 6e bb be 02 25 bb 25 1b c2 ba fe 79 81 b8
       -0.003631796 -0.0025178636 -0.0014809115 -6.173922e-05
0001e0 2e 06 90 3b 5a 8a 45 3b f7 f9 5b 3a 5d ba a6 bb
       0.004395268 0.0030142278 0.00083914347 -0.005088134
0001f0 13 a6 fb ba e3 e7 a6 bb c2 f4 73 3a f9 da 05 ba
       -0.0019199274 -0.005093561 0.0009306186 -0.0005106177
000200 ca 36 62 3b a2 ab 0f bb 83 05 15 ba 11 fa 1d bf
       0.003451752 -0.002192237 -0.000568472 -0.61709696
000210 b7 f2 ca 3a 57 81 71 3f cb 4c 5b bf 2b 09 85 3b
       0.0015483712 0.9433798 -0.8566405 0.004059931
000220 2f 50 68 3a 9f db 72 3c 5d 47 d6 3c 65 34 09 3b
       0.0008862046 0.01482287 0.026157076 0.002093577
000230 92 e7 70 3f 96 f2 01 3d 92 29 9b bb 57 6d f9 39
       0.9410335 0.03172549 -0.00473518 0.00047574445
000240 e9 19 cc 3c 1c b1 73 3b cf 01 91 ba 65 48 68 3b
       0.024914699 0.0037184423 -0.0011063161 0.003544354
000250 7c 2a 6f 3f a7 85 02 bb af 40 a0 be 2c bb 5c 3e
       0.934242 -0.0019916089 -0.3129935 0.21555775
000260 bd 2a bb bc cc d2 50 bb 5d 34 67 3b 47 18 26 bf
       -0.022847528 -0.0031863926 0.0035279014 -0.64880794
000270 71 c0 1b be 71 b4 2b be 77 ef 60 bf 0c 13 4b bc
       -0.1521013 -0.16768052 -0.87865394 -0.012394678
000280 ec 1c c8 3e ec 98 f6 3a e4 af 1a ba d1 57 84 3a
       0.39084566 0.0018813885 -0.00059008435 0.0010096972
000290 e2 d9 8c bb e6 38 c0 3c 4b 27 c7 3a 6f c9 c3 ba
       -0.0042984346 0.023464631 0.0015194205 -0.0014937351
0002a0 32 b1 70 3f b2 1e d0 be 9c dd 5a bf e5 b2 12 ba
       0.9402038 -0.4064842 -0.854944 -0.00055961154
0002b0 c6 5e 58 3f e6 07 6d 3f fd 10 95 ba d1 06 6e 3f
       0.8451961 0.9259018 -0.0011372861 0.9297915
0002c0 34 d2 c6 3c 5f 1a 35 3d 66 8b 76 3b 35 df 1b bb
       0.024270155 0.044214603 0.003761971 -0.0023784165
0002d0 f6 02 83 3b 1d 12 34 3e ac 58 df 3b 78 7e 5a ba
       0.0039981557 0.17585035 0.0068159904 -0.00083348854
0002e0 53 ea 1b bd 23 48 a6 3b e1 62 99 bc 99 68 5c 3f
       -0.038065266 0.0050745173 -0.018723907 0.86097103
0002f0 20 a7 6d 3f 20 df 51 3e aa fc b0 3e cc 1b ac bb
       0.9283314 0.20495272 0.34567767 -0.005252337
000300 08 9e 0f bb bf 5f 49 3a 4d 56 74 bc 0b 8b 65 3b
       -0.0021914262 0.0007681809 -0.014913154 0.0035025503
000310 2a 55 37 3b b8 fb 1c ba 2f 3b 7a 3b a0 f4 71 3b
       0.0027974346 -0.0005988437 0.0038182249 0.003691949
000320 c8 04 65 bb 40 91 e8 ba f4 0e 2f bc fe fe 13 3b
       -0.0034945477 -0.0017743483 -0.010684717 0.0022582407
000330 a0 b0 1b bf fd 8f 89 bb 08 1e e5 be fb 88 a6 bb
       -0.60816383 -0.004198073 -0.44749475 -0.0050822473
000340 1a 2b 5e bf 4b 00 8c 3a 55 11 24 bb 92 7a 0d bb
       -0.8678452 0.001068124 -0.0025034745 -0.002158795
000350 ac bd 70 3f 59 73 af 3b a0 91 96 bc 9a 55 3b 3a
       0.94039416 0.0053543267 -0.018379986 0.00071462395
000360 74 b6 99 3e 24 49 5d bb ef 50 88 3b 90 24 59 bf
       0.30022013 -0.003376552 0.0041600387 -0.84821415
000370 15 d2 70 3f ab 78 19 bf a8 3b a5 bb 2b 05 6d 3f
       0.9407056 -0.5994975 -0.005042512 0.9258601
000380 8d 64 68 3f 43 e9 c2 be 22 72 48 ba 05 06 12 ba
       0.9077843 -0.3806859 -0.00076464016 -0.0005570355
000390 ba f0 de 3b 94 3b 06 bb ab f0 38 bf e6 06 94 3b
       0.006803599 -0.0020482289 -0.7224223 0.004517424
0003a0 a4 46 5b bf b8 3c 6f 3f f1 38 ef 3a d2 03 5d bf
       -0.85654664 0.93452024 0.0018251223 -0.86333954
0003b0 b8 9b 6f 3f 92 39 6f 3f c5 ce 24 bb 28 b0 a2 b9
       0.9359698 0.9344722 -0.0025147658 -0.00031030294
0003c0 df ff 27 bb 79 13 4b 3b 90 cc 70 3f 30 08 5a bf
       -0.0025634689 0.0030986948 0.9406214 -0.85168743
0003d0 36 30 93 bb 77 53 70 3f a2 92 89 bc f1 a5 6b 3f
       -0.004491831 0.9387736 -0.016793553 0.9205008
0003e0 39 18 71 3f 0a e0 7a 3b 33 d6 6a 3f 1a a3 ef bb
       0.94177586 0.003828051 0.9173309 -0.0073131444
0003f0 62 f3 94 bb 5f 98 08 3b fe 75 88 3b 27 91 a6 ba
       -0.004545615 0.0020842773 0.0041644564 -0.0012708054

layer3.bias f4 [128]
000000 92 9e 84 ba b4 c0 50 3f 6c 52 ef ba 53 c3 10 3f
       -0.0010118058 0.8154404 -0.0018258817 0.5654804
000010 c6 10 78 bb 93 29 0a bb 67 fd 89 bb 45 91 30 3f
       -0.0037851795 -0.002108191 -0.004211116 0.68971664
000020 dc fc e8 ba a1 d6 34 ba 8b 3d 0a 3f 3a 6a d3 bb
       -0.0017775553 -0.0006898437 0.5400016 -0.006451872
000030 90 4d d1 b9 b3 32 bf ba 38 cb 92 bb 37 08 1d 3f
       -0.00039921375 -0.0014587253 -0.004479792 0.6134066
000040 a9 ce 8d b9 d2 fe 06 3f ea a7 0f 3f 67 bd a0 ba
       -0.0002704759 0.52732575 0.5611559 -0.0012263478
000050 27 ad 30 bb 62 e2 b2 ba fe 71 b8 bb d0 f5 e4 bb
       -0.0026958676 -0.001364779 -0.0056288233 -0.006987311
000060 f4 cf 88 bc 86 16 4a 3f 73 ac 11 3f 99 ad 6d bc
       -0.016700722 0.7894062 0.5690376 -0.014506721
000070 63 39 51 3f 14 38 48 3f 33 e6 74 3f 12 f3 db bb
       0.8172819 0.7821057 0.95663756 -0.006712326
000080 bf 9f 91 3a 48 8e 4f 3f 47 73 34 bc e8 65 06 bb
       0.001111023 0.8107648 -0.011013812 -0.0020507518
000090 54 00 79 b9 85 21 8f ba 72 7f b1 ba 8b be fb ba
       -0.00023746613 -0.0010920024 -0.001354201 -0.0019206567
0000a0 9e b9 88 bb af b8 60 39 2e 9e 22 bb fe 29 69 bb
       -0.004172518 0.00021431105 -0.002481352 -0.0035578008
0000b0 cc 63 5c bb 5e 3a e3 bb 29 ab 1b bc ae 01 25 3f
       -0.003362882 -0.006934448 -0.009501257 0.6445569
0000c0 8e db 4b 3f 64 9e a0 bb 9a 9f 1c bc a5 37 62 3f
       0.7963189 -0.004901694 -0.009559536 0.88366157
0000d0 85 ef 51 3f b8 6f 11 3f e3 e1 f9 3e ab d1 a3 bb
       0.820061 0.56811094 0.4880515 -0.0049993596
0000e0 15 5c df ba b1 e8 9a ba 4f 61 bb bb 2f ff 29 3f
       -0.0017040992 -0.0011818615 -0.005718387 0.66405004
0000f0 1f b8 15 3f 6c 55 7d 3f 24 a5 4d 3f 13 41 c8 bb
       0.5848407 0.9895847 0.8033011 -0.006111273
000100 52 2a db ba a3 b6 49 3f 34 6b b9 bc 99 66 27 3f
       -0.0016720986 0.78794307 -0.022634126 0.65390927
000110 e2 d6 4e 3f 2a 7a 1f bb 94 f1 af 3a ba b8 ca ba
       0.80796635 -0.002433429 0.0013423436 -0.001546643
000120 22 dc 34 bb 64 c1 de bb 63 c3 4c bc e4 c5 2b bc
       -0.002759703 -0.0067979563 -0.012497756 -0.0104841925
000130 70 11 9d 3f 46 46 3c 3f a7 50 5a bc 6d 6c 65 bb
       1.2270947 0.7354473 -0.013324893 -0.0035007254
000140 35 4f 3e 3f 58 0b 13 3f 5d eb 77 3f 3c 89 4c 3f
       0.7433961 0.57439184 0.9684351 0.79896903
000150 a5 2a a1 bb cb 4e 7b 3f e9 06 30 bb 11 22 46 3f
       -0.0049184137 0.98167104 -0.0026859588 0.7739573
000160 a0 9d 67 bc 50 e5 0a 3f 99 4a 8e ba 93 4f 50 3f
       -0.014136702 0.54256153 -0.0010855972 0.8137142
000170 fa 33 37 bc 16 d4 62 bc 25 67 9b bb 4c 39 82 3a
       -0.011181826 -0.013844511 -0.0047425204 0.0009935289
000180 e1 4b 31 3f d6 3b b1 bc c9 8c 64 bc b9 34 8c b9
       0.6925641 -0.021634977 -0.013949581 -0.00026742162
000190 2e 65 88 3a 72 54 78 39 20 1e 15 3f 98 bd 4e 3f
       0.001040613 0.00023682581 0.5824909 0.8075805
0001a0 41 91 8f bb 39 df b1 ba 60 bd 09 bb dc 7d 28 3f
       -0.0043813293 -0.0013570554 -0.0021017417 0.65817046
0001b0 06 0b e9 38 ab e9 74 3f e4 74 4a 3f 98 5c 38 bb
       0.00011112359 0.9566905 0.7908461 -0.0028131362
0001c0 8d b2 17 bc 45 3f bb bb fa 90 71 bc dc 7b 77 bc
       -0.009258878 -0.0057143294 -0.014744038 -0.015105214
0001d0 ee fd 47 3f b9 dc f1 bb 9f 3e 53 bb d2 ad 58 3a
       0.7812184 -0.0073810485 -0.003223337 0.00082656473
0001e0 03 55 92 ba 63 d8 41 bc 09 4b 05 ba 06 22 83 ba
       -0.0011164251 -0.011831376 -0.00050847285 -0.0010004647
0001f0 e6 36 3a bb 09 1b 37 3f 01 88 ae bb 19 6c 34 bb
       -0.002841407 0.7152563 -0.0053262715 -0.0027530252

output_layer.weight f4 [9, 128]
000000 59 6e 72 ba 77 fc 8f 3f 4b ef 05 3a 91 d0 cf 3f
       -0.00092480105 1.1248921 0.0005109205 1.6235524
000010 7b 15 7b 38 fe 94 7d b9 96 a1 3f 38 4e 91 b1 bf
       5.986307e-05 -0.00024183464 4.5688437e-05 -1.3872468
000020 3b 4a 73 ba 67 53 58 3b 12 cb de 3f ef e6 87 bb
       -0.00092807756 0.0033008696 1.7405722 -0.0041474025
000030 54 2a 22 38 b9 3c 2d 3b 3c f0 87 3b 7f 05 ac bf
       3.866323e-05 0.0026433899 0.004148511 -1.3439177
000040 d6 72 da 3a 78 de de 3f 88 58 d4 3f 92 b1 d0 3a
       0.0016666304 1.7411642 1.6589518 0.0015922061
000050 81 66 80 3b 64 00 91 3b 91 e0 9f 3b 8e 19 2b bc
       0.0039184694 0.0044250954 0.0048790653 -0.010443104
000060 a0 d5 06 bc 94 ad 97 3f 54 63 cc 3f db ba 9e 3a
       -0.008229643 1.1849847 1.5967813 0.0012110131
000070 7c 57 be bf 4b d9 9b 3f dc db 90 bf d9 8a ed ba
       -1.4870448 1.2175688 -1.1317096 -0.0018123045
000080 d4 38 03 3b 44 fb 87 3f 10 11 35 bc dc 8c 9f 3b
       0.0020022886 1.0623555 -0.011051431 0.0048690867
000090 7d c1 e7 39 ee e6 89 3b f3 9c 06 3b cb 77 52 bb
       0.00044203913 0.004208437 0.0020540326 -0.003211486
0000a0 0a 47 92 39 9b 82 9e 3a 83 88 4b bb f3 03 99 bb
       0.00027900218 0.0012093367 -0.003105671 -0.0046696602
0000b0 97 85 54 bc 78 0f 98 3a c6 a3 99 bb 0f 9f 08 40
       -0.012971303 0.001160129 -0.004688713 2.1347082
0000c0 8b 92 80 3f dd cd cd ba 0a bf 8d 3b e2 94 94 bf
       1.0044721 -0.0015701611 0.004325752 -1.1607935
0000d0 f2 34 88 3f b8 c0 9d bf 11 0f e0 3f b3 0e 62 3b
       1.0641158 -1.2324438 1.7504598 0.0034493625
0000e0 86 93 4c ba 82 ee 31 bb b9 96 17 ba 75 bf af bf
       -0.0007803965 -0.0027150218 -0.00057826523 -1.3730303
0000f0 85 b7 aa bf 37 27 b5 bf bc bc 94 3f 2d 46 1a ba
       -1.3337256 -1.4152592 1.1620097 -0.0005885091
000100 55 ba 16 3b c6 c8 99 3f 84 98 f7 3a a3 18 8d bf
       0.0022999246 1.2014396 0.0018890058 -1.1023144
000110 42 f3 91 3f 42 af 85 3c 88 c5 09 3c 9b 15 8b ba
       1.1402361 0.016318921 0.0084089115 -0.0010611297
000120 ef 95 a3 3b 1f b2 b4 bb 11 ab e7 3a 4f 05 d5 39
       0.0049922387 -0.0055143978 0.0017674883 0.0004063048
000130 b2 b3 9c bf bd 15 b5 bf 33 8f be ba e4 dc cd ba
       -1.2242339 -1.4147259 -0.0014538526 -0.0015706089
000140 de 9b 5b 3f a1 c9 a9 bf 84 13 aa bf 6e ea 88 3f
       0.8578471 -1.3264657 -1.3287206 1.0696542
000150 6b 70 bb 3a 09 4a 92 bf fd a3 35 3b cc 09 6a 3f
       0.0014300471 -1.1428844 0.0027716153 0.914212
000160 61 3d 1d bc ee d4 8f bf 53 46 d3 ba 49 c8 80 3f
       -0.009597153 -1.1236856 -0.0016118981 1.0061122
000170 98 79 e3 3b 6e 78 2c 3b e1 05 06 bb c8 86 20 bb
       0.0069419853 0.00263169 -0.0020450281 -0.0024494398
000180 71 c0 46 3f 85 74 54 bc 03 38 14 bc 25 07 00 3a
       0.7763739 -0.012967234 -0.009046557 0.0004883877
000190 ea 9b 31 bb b0 15 44 3b 98 b6 a3 bf e2 ad 90 3f
       -0.0027100989 0.0029920153 -1.2790098 1.1303065
0001a0 30 0a 60 bb c4 8a 1b 3b 5b d7 9d bb 99 57 af bf
       -0.003418576 0.0023733834 -0.004816932 -1.3698608
0001b0 61 91 79 bb 80 a3 9e bf f3 a0 9d 3f fb 6d 23 ba
       -0.0038081037 -1.2393646 1.2314743 -0.0006234345
0001c0 b8 d9 b8 bb 3e a9 ae 3a 09 cd 03 3b c1 ea e7 3b
       -0.0056411885 0.0013325585 0.0020111224 0.0070775454
0001d0 b8 09 70 3f 94 91 84 3a ff 87 b0 ba ea 23 bb 3b
       0.9376483 0.0010114186 -0.0013468264 0.0057110684
0001e0 59 d6 3a bb 94 83 dd 3b 29 58 81 39 77 45 44 b9
       -0.0028509109 0.00676007 0.00024670482 -0.00018717894
0001f0 7d 28 42 bb 9f 0c ab 3f 1d 6c 98 3a 1a ca 95 ba
       -0.0029626184 1.3363227 0.00116289 -0.0011428029
000200 05 ff f1 ba 26 40 0a 3f 29 5b 97 3b 92 04 48 3f
       -0.0018462843 0.5400413 0.0046190214 0.78131974
000210 d8 dd a5 bb 5f 37 85 bb ba 82 79 3b 90 4d dd be
       -0.005061846 -0.0040654386 0.0038072304 -0.43223238
000220 98 91 5f 3b 62 28 eb ba ed 13 5a 3f c8 c6 b1 ba
       0.003411388 -0.0017941112 0.85186654 -0.001356327
000230 a9 bc 51 3b 2d da 24 3b 89 c4 5f bb 0a 09 73 be
       0.003200332 0.0025154457 -0.0034144244 -0.23733917
000240 ba d0 7d 3b 02 2b 5d 3f 30 6a 4c 3f 0f 06 60 3b
       0.0038729147 0.8639375 0.7984953 0.0034183299
000250 2a cf 00 3b cc c5 9a 39 cf 62 a8 3b 89 18 bc 3a
       0.001965473 0.0002952054 0.005138732 0.0014350574
000260 6c 9c 04 ba 8c dd 11 3f 19 f9 44 3f 3b e2 36 38
       -0.0005058709 0.5697868 0.7694259 4.3602875e-05
000270 fc 85 94 bf 53 e8 16 3f c3 91 ad bf af ec fd ba
       -1.1603389 0.5894825 -1.3560108 -0.0019372905
000280 e9 fc a0 b9 37 3d 00 3f 6b c8 31 3c 0d 28 82 bb
       -0.0003070601 0.50093406 0.010851006 -0.0039720596
000290 49 4a 43 3a df b4 47 bb b1 a8 bd bb 8e 71 7f 39
       0.0007449729 -0.0030472798 -0.005787932 0.00024360997
0002a0 37 3a 54 bb 3e dd d4 3a d3 09 52 3b 2e a7 14 bb
       -0.0032383332 0.0016240252 0.0032049313 -0.0022682655
0002b0 9b 34 87 3b 3c 82 d1 ba 5b 43 2f 3b d0 a1 86 3f
       0.004126144 -0.0015984247 0.0026743028 1.0518131
0002c0 3a 39 ec 3e ad 77 04 b9 08 bb 75 ba 51 c8 a4 bf
       0.4613741 -0.00012633084 -0.0009373878 -1.2873632
0002d0 69 27 ff 3e 55 4c 40 bd 43 17 58 3f df 68 df 3a
       0.49834755 -0.046947796 0.84410495 0.0017044804
0002e0 22 58 ef 3a 12 72 21 3b a7 f6 54 3b 5a 5c bd be
       0.0018260519 0.0024634642 0.003249565 -0.3698452
0002f0 31 42 2c be ce 6f b3 bf fb b4 0e 3f 47 82 83 3b
       -0.16822125 -1.4018495 0.55744904 0.004013333
000300 8f 74 f2 3a 1c 81 12 3f b4 1e 79 bb 0a dc 50 bf
       0.0018497872 0.57228255 -0.0038012685 -0.8158575
000310 93 58 0c 3f 8c 8f 5a bb 4c b3 00 3c b7 4b 5c 3a
       0.54822654 -0.003334972 0.007855248 0.00084036164
000320 f2 56 cb 39 dd 73 79 3b 70 5e 13 bb 36 62 10 bc
       0.00038783957 0.0038063445 -0.002248671 -0.008812478
000330 38 bd 85 bf 93 0f 10 bf 8d ca b0 3c e2 a6 e4 ba
       -1.044837 -0.56273764 0.021580959 -0.0017444754
000340 f8 04 c5 3e f4 bf 03 be 83 69 a3 bf 4f 66 00 3f
       0.38480353 -0.12866193 -1.2766575 0.5015611
000350 c0 f2 82 3b 25 c1 aa bf 4b de a6 bb 33 4b d3 3e
       0.003996223 -1.3340193 -0.0050924174 0.4126831
000360 e4 fd 88 bb 62 84 ce ba 1c f4 43 bb 29 ad ed 3e
       -0.0041806567 -0.0015756006 -0.002990014 0.46421173
000370 40 f5 d4 3a fd 09 10 bb 15 65 41 bb c5 a2 4b bb
       0.0016247407 -0.002197861 -0.0029509712 -0.003107236
000380 c7 07 b5 3e e0 0a 29 3b e5 df 5c 3b 46 b2 c8 3a
       0.35357496 0.0025793836 0.0033702787 0.0015311919
000390 ca 45 0b bb 42 9b a2 3a a2 72 89 bd a2 00 08 3f
       -0.0021251314 0.001240589 -0.067113176 0.53125966
0003a0 e1 fc 62 ba 8e 5a a0 ba 2d a6 22 3b b5 ed b0 be
       -0.0008658898 -0.0012234019 0.0024818287 -0.34556356
0003b0 41 19 24 bb ad 51 a4 bf 88 8b 19 3f 8f c6 39 39
       -0.0025039467 -1.2837425 0.5997853 0.00017716944
0003c0 29 f3 a8 bb 03 f5 a1 3b fe 6a 47 3b 34 f3 9f 3a
       -0.00515594 0.0049425378 0.0030428763 0.0012203217
0003d0 1f 66 df 3e d3 50 9c ba 62 71 34 bb 88 15 46 3b
       0.436326 -0.0011925943 -0.0027533402 0.0030225236
0003e0 dc 5a a4 ba d9 df 32 3c 8f fb 12 3b 23 55 49 bb
       -0.0012539285 0.010917627 0.0022427773 -0.0030720911
0003f0 91 2c ba 38 62 90 28 3f d4 cf 0b ba c8 6c dd b9
       8.877472e-05 0.6584531 -0.0005333398 -0.00042233453

output_layer.bias f4 [9]
000000 af ed 1c bf 6a 64 40 bf 5b 2e fe be 97 24 0b bf
       -0.61300176 -0.7515322 -0.4964474 -0.54352707
000010 f8 86 e7 be ce af 09 bf ce 75 c9 be 7f 4f be be
       -0.4522016 -0.5378388 -0.3934769 -0.37170026
000020 33 72 58 3d
       0.052843284
