ngzhii/long/results/train/DQN_robot_weight/learning_rate_actor_0.001/best_model.pt (torch, 160623 bytes, 8 tensors)

layer1.weight f4 [128, 40]
00000000: bacd 23bb 283e 883b 6ab9 89bb 6943 b5bb
00000010: f212 313b 83bc 413b 6cb1 933b d4ec 6a3b
00000020: 8a3f ceba 3c2a b6ba c626 9dbb 90b3 c43b
00000030: 3cac 0dbb 6d7a 603a fd09 8abb e904 95bb
00000040: e1ac 25bb 0927 a1bb 5b6a 58bb d5fc 643a
00000050: edf9 463b 2d1f 73ba 1fae ad3b b72d fe3a
00000060: 3a58 f3ba 0060 83ba 40a1 7bbb 7fa5 68bb
00000070: a32d 87bb 68b9 24b9 8b2f a4bb e3dd acbb
00000080: 026d c939 aaeb feba c1d2 21bb d044 55ba
00000090: 0c50 833b 4ff9 383b 9e6c 7b3b b66b 183a
000000a0: 6dbf e0bc 21ed babc 47da bfbc 2b9e 07bc
000000b0: e095 c8bc bba2 c6bc 1680 02bd b312 b4bc
000000c0: e8fe 0abd a92b e6bc 776a c7bc 16c2 e2bc
000000d0: f798 b0bc 5adb d5bc ee96 d53c 4dfd abbc
000000e0: 6229 d6bc c1b1 c6bc 7f48 acbc b2ad b5bc
000000f0: 1e26 e2bc 7019 b4bc 34b1 f6bc c371 f9bc
00000100: adfb abbc 934a b9bc 7585 f9bc 0004 a9bc
00000110: 2641 d6bc edb5 e0bc 4cee a5bc 8313 c2bc
00000120: 055a cdbc 48f5 cabc 307c e8bc c510 e8bc
00000130: fb80 f9bc 3de7 f9bc c855 eabc 0fa6 d0bc
00000140: 222d 8fb9 3491 7cbb 89f4 2e3b 5e3f 8eba
00000150: 0b45 803a b91b 0abb 2eaa 703b 9ee1 773b
00000160: bc5e 9739 728f 9abb 872c beb9 669f 09bb
00000170: e37a 12bb d140 ab3b 0a3d 753b f737 22bb
00000180: 65cb ad39 bdd1 3b3a a393 003b 3907 78bb
00000190: d551 b43a 2513 27bb c602 daba 5c0a 66bb
000001a0: 8ba4 5b3b c630 ce3b 5ae6 39bb e99f a8b9
000001b0: ea9a 8ebb 343d 063b 55c5 b4b8 15a9 a0bb
000001c0: 12b6 0e39 bb24 b8bb e518 adb8 7561 21bb
000001d0: 4048 2d3b aa5c ccbb 961f c93b be12 de38
000001e0: 13ea 953b 72bc 873b e8d9 03bb 6c86 29ba
000001f0: 39c4 443b 795b 4dbb 0d2e b33b 0723 2b38
00000200: e2b8 1ebc 5f67 95bb e72d 6db9 30a8 f83a
00000210: 24b8 e6bb 2fae dbba af4c 2c3b 3983 2c3b
00000220: c2c6 2cbb df00 823b 7dd1 5a3b 977f d1bb
00000230: 7014 06bb 3b9f fb3a b738 9e3b a546 58bb
00000240: d08d a9bb 6a37 9dbb e145 25b9 a575 1ebc
00000250: a371 733b 12b5 c1bb 3563 14bb 7377 bf3a
00000260: 6e45 963a e088 94bb b360 8d3a 6796 29bb
00000270: 989f 833b c236 a6bb 4ac7 09bc 6f07 90bb
00000280: 7e14 a8bc eb2f f3bc 2453 a9bc 68f8 d9bc
00000290: bf4a d3bc cef6 d0bc 7f80 f4bc 9142 acbc
000002a0: b6d1 00bd b296 fcbc ebea c0bc 7b25 f9bc
000002b0: 4568 d7bc 64b8 9bbc 349f 953c ffff f4bc
000002c0: 73cd b1bc f495 01bd 5ae2 01bd ad3e f3bc
000002d0: a230 dcbc c819 a7bc 1599 fbbc c4a8 b1bc
000002e0: 607d c8bc 6f48 c1bc 14da ebbc 5e26 b0bc
000002f0: 9300 b7bc c127 dcbc d4ad e6bc 6512 d3bc
00000300: 9f8f c5bc 9df2 a6bc e2e1 f3bc 7bd5 dfbc
00000310: d25a b9bc 5ada eabc 1150 b5bc 4883 efbc
00000320: 1afe 8aba 0fb6 4b3b 260e cab9 17c3 c43b
00000330: 250b 3eb9 2041 f2ba 6641 8bbb 1a3c 84bb
00000340: 1ea2 07b9 f476 86bb 2c91 f53a 5e9e c4bb
00000350: f869 473a 03f8 91bb 2767 d8b9 d2a3 f3ba
00000360: 1296 45bb a360 b93b 7f66 2d3b bcff 9fba
00000370: 9825 f63a 0e49 043b a894 a7bb fa36 c1bb
00000380: 3b60 bdba 20b3 75bb d11b 8a39 0809 a139
00000390: 0aea b93b 1544 6d3b 6c24 ccb9 9c41 eeba
000003a0: 6eed 9a3b d6cf 8abb e758 9839 a260 49b9
000003b0: 0d29 67ba 9df0 91bb 71ec 223b fbe0 553b
000003c0: 8a3c 8c3b 81a3 31bb 8a27 083b 922c 663b
000003d0: 696e c43a 197c eeba ba72 cbbb 91c0 74bb
000003e0: 3d0e 573b d041 c8bb 087a 2c3b 61f1 dd39
000003f0: 43aa 80ba 391e 613b f403 9ebb ad8c c23a
-0.0024994449 0.0041578 -0.0042030113 -0.0055317176 0.002701935 0.0029561825 0.0045072343 0.0035846727
-0.0015735489 -0.0013898085 -0.004795882 0.006002851 -0.0021617552 0.0008563165 -0.0042126165 -0.0045477045
-0.0025280046 -0.0049179834 -0.0033022377 0.00087351847 0.003036137 -0.000927436 0.005300298 0.0019392286
-0.0018565722 -0.0010023117 -0.0038395673 -0.0035499034 -0.0041253134 -0.00015709328 -0.0050105504 -0.0052754744
0.00038418925 -0.0019448895 -0.002469227 -0.0008135559 0.004007345 0.0028224771 0.0038364301 0.000581439
-0.027435029 -0.02281815 -0.023419512 -0.008277456 -0.024485528 -0.024247518 -0.031860434 -0.021981573
-0.033934504 -0.02809699 -0.024342759 -0.027680438 -0.021557314 -0.026105572 0.026072945 -0.020994807
-0.02614278 -0.024254682 -0.021030663 -0.022177551 -0.027606066 -0.021984786 -0.030113794 -0.030449754
-0.020994032 -0.022618568 -0.030459145 -0.02063179 -0.026154112 -0.027430499 -0.02025523 -0.023690945
-0.025067339 -0.024775162 -0.02837953 -0.028328309 -0.03045701 -0.03050577 -0.028605357 -0.025469808
-0.00027308712 -0.0038538696 0.0026696047 -0.0010852625 0.0009786201 -0.0021073653 0.0036722529 0.0037823687
0.00028871547 -0.004716807 -0.000362728 -0.002099955 -0.0022351078 0.0052262326 0.0037420415 -0.0024752596
0.00033148672 0.00071647373 0.0019619248 -0.0037846102 0.0013757298 -0.0025493589 -0.0016632907 -0.003510139
0.0033514823 0.0062924353 -0.002836606 -0.000321626 -0.0043519633 0.0020483257 -8.619825e-05 -0.0049029686
0.00013610002 -0.005619613 -8.25392e-05 -0.002462474 0.002644077 -0.0062366324 0.0061377985 0.00010589276
0.004575023 0.0041423375 -0.0020118896 -0.0006466869 0.0030024184 -0.003133504 0.005468136 4.08022e-05
-0.009687634 -0.004559442 -0.00022619181 0.0018971022 -0.0070409942 -0.0016760285 0.0026290824 0.0026323332
-0.0026363586 0.003967389 0.0033389025 -0.0063933837 -0.002045896 0.0019197235 0.0048285383 -0.0033001092
-0.005174376 -0.0047978656 -0.00015761658 -0.009671603 0.003714659 -0.005911478 -0.002264214 0.0014607742
0.0011464783 -0.0045329183 0.0010786265 -0.0025877 0.004016828 -0.0050724456 -0.008409331 -0.0043954174
-0.020517584 -0.029685935 -0.020669527 -0.026607707 -0.025792478 -0.02550831 -0.029846428 -0.021027835
-0.031449996 -0.030833576 -0.023549518 -0.03041338 -0.026294837 -0.019008823 0.01826439 -0.029907225
-0.021704411 -0.031637147 -0.031710006 -0.029692972 -0.026878659 -0.020398036 -0.030712644 -0.021686919
-0.024473846 -0.02359411 -0.028790511 -0.02150267 -0.022339141 -0.026874425 -0.02815906 -0.025765607
-0.024116335 -0.020379359 -0.029770795 -0.027323475 -0.022626314 -0.028668571 -0.022132905 -0.029237404
-0.0010604293 0.0031083857 -0.00038538984 0.006004702 -0.00018123964 -0.0018482544 -0.0042497395 -0.004035485
-0.00012934997 -0.004103536 0.0018735281 -0.006000324 0.0007607038 -0.004454614 -0.00041275585 -0.0018588251
-0.0030149263 0.005657272 0.0026458798 -0.0012206952 0.0018779514 0.0020185146 -0.0051141568 -0.0058964463
-0.0014448235 -0.00374908 0.00026342136 0.00030715042 0.0056736516 0.003620391 -0.00038937049 -0.0018177512
0.004728011 -0.0042362018 0.00029057937 -0.00019204852 -0.0008818068 -0.004453732 0.0024860168 0.003263532
0.0042796778 -0.0027105513 0.002077552 0.003512178 0.0014986518 -0.0018194943 -0.006208745 -0.0037346224
0.0032814883 -0.006111361 0.0026317853 0.00042332246 -0.0009816367 0.003435029 -0.0048222486 0.001484295

layer1.bias f4 [128]
00000000: 5aab 403b 50a2 c8bc 9109 b4b9 640a a2bb
00000010: 0b5e d2bc 6864 c2bb 5188 b5ba 3088 2cbb
00000020: 61a2 b03a fbb7 7e3b a886 1c3b 961c 213b
00000030: aade 1dbd 3e7d 4d3b eb4e 633b 2ba6 e439
00000040: fab9 9f3a e379 9fbb 198b ef3a 88d9 a5ba
00000050: 7f43 1439 e9d5 603e c75a 3f39 7974 8bbb
00000060: 1d61 cc3a 97da 68bb c12b c138 c59f 8aba
00000070: ad29 3bbb ec49 71bb 1557 49bb a241 a6bb
00000080: c296 423b 12ae 00bc 0b71 06bb a40c 4c3a
00000090: 5943 77bb be00 b73b 0e2f c3bb 0755 983a
000000a0: 74dc f83a 457b e03a efe0 6bbb b7f8 3538
000000b0: 35ba ae3a 4cdb 4eba 9328 a73b 32bd 5dba
000000c0: d7e7 23bb 2d14 d139 d208 95bb e485 66ba
000000d0: e9be ba3a 85f4 3fbb d2a9 bd3b 26e2 76bb
000000e0: 4c26 c1bb f8e7 e9bc e6ce 2c39 d64d dcba
000000f0: 0802 47bb c95b 8abb 9999 6bba 6d9e 773a
00000100: 6ed4 5b3b 4dd9 943b af0c 8abb c2f8 16bb
00000110: 856c 28bc ac06 10bc 41c9 753b aae5 a8bc
00000120: 3bb1 8abb 8e3d 93bb ebab 3b3b 062e 9f3b
00000130: d79e b9bb fdec 393e 24fc a73b 7c58 a53a
00000140: 1328 bb3b 6c35 8b3b ff68 a1bb ae5c d139
00000150: 9286 b8bb e4f9 6c3b e86b 383b 7e33 313b
00000160: 63e8 b1bc be3d f2ba d786 003a 2497 ea3a
00000170: 1014 283a 8bb8 dcbb 973c 95bb 3225 48bb
00000180: e3df 383b fb27 afbb 23d9 d33a 7e88 9d3b
00000190: f551 a9bb 446f 0339 26ab a0bb fa99 393b
000001a0: 4f9d 553b a94b 8fbb 4cd6 46bb bf8b b2bc
000001b0: e778 b3bc 9e07 aab6 867d 7fba 9e6f 7d3b
000001c0: a2db 6b3b a7b9 83b9 128e cebb 2df6 06bb
000001d0: 6035 f63a b12b 6bbb 5526 523b a6c7 d339
000001e0: 8105 dabb 7a2e eeb8 ca47 12bb 8ce1 143e
000001f0: 1dc9 91bb de33 323b d716 0db8 ae68 3c3b
0.0029399008 -0.02449146 -0.00034339403 -0.0049450863 -0.025679609 -0.0059323795 -0.001384983 -0.0026326291
0.0013476127 0.0038866985 0.0023883972 0.002458369 -0.038542427 0.0031355168 0.003468449 0.00043611354
0.0012186163 -0.004866825 0.0018275707 -0.001265333 0.00014139524 0.219566 0.00018248997 -0.004255828
0.0015592907 -0.003553068 9.211107e-05 -0.001057618 -0.0028558776 -0.0036817743 -0.003072207 -0.005073742
0.002969191 -0.007854002 -0.0020514156 0.0007783866 -0.0037729351 0.0055848053 -0.005956537 0.001162202
0.0018986599 0.0017126581 -0.0035992225 4.3385397e-05 0.001333064 -0.0007890954 0.0051012724 -0.0008458673
-0.0025010013 0.0003987862 -0.0045481706 -0.0008793755 0.001424757 -0.0029290032 0.0057880664 -0.0037671416
-0.005894458 -0.028552994 0.00016480274 -0.0016807865 -0.00303662 -0.0042223674 -0.00089874264 0.00094459095
0.0033543366 0.004542506 -0.004212938 -0.0023036455 -0.010279779 -0.008790653 0.003750399 -0.020617325
-0.0042325533 -0.004493422 0.0028636407 0.0048577813 -0.005664687 0.1815681 0.005126493 0.0012614871
0.0057115643 0.0042483117 -0.0049258466 0.00039932638 -0.0056312764 0.0036159689 0.002814049 0.0027038748
-0.021717256 -0.0018481535 0.0004902905 0.0017897827 0.0006411681 -0.0067358664 -0.004554342 -0.0030539748
0.0028209619 -0.005345342 0.0016162734 0.004807531 -0.0051672407 0.00012534583 -0.004903215 0.0028320537
0.0032594984 -0.004373033 -0.0030340133 -0.021795152 -0.021908237 -5.0672816e-06 -0.00097461825 0.0038671265
0.0035989066 -0.0002512459 -0.006303557 -0.002059351 0.0018784218 -0.0035884196 0.0032066305 0.00040393806
-0.006653488 -0.00011357381 -0.0022320622 0.14539164 -0.0044490234 0.002719156 -3.363829e-05 0.0028748917

layer2.weight f4 [128, 128]
00000000: 67bb 41ba ec77 2dba a80a baba 7294 7fba
00000010: b27e 66b9 9bcb 83b8 e81c 143b f11d 17bb
00000020: 0d74 09bb 02da 2fba 67e4 b1b9 3c51 d7ba
00000030: 0a7c 063a 05d5 6fba 4c89 593b 2e2e a9ba
00000040: 261a 063b 1a61 47bb 14e7 84bb 90f9 d6ba
00000050: 7678 c13a d910 66bb 4c22 adba 36e6 dbb9
00000060: a298 97bb ac3a 293b 46af 333b 8d14 baba
00000070: d33e 5c3b e51a 483a 525a 9dba 3837 5abb
00000080: 4be8 54bb b5ff e3b9 a392 463b ccc3 59ba
00000090: 2aa9 4bbb b77e bdba fd11 80ba f972 3cbb
000000a0: a23d 673a 16f6 aa3a b8fb 6f3a 6875 e9b9
000000b0: 7787 103b e612 09bb c02b 60b9 9f6d 39bb
000000c0: 9015 e9ba f5e8 9c3a 0228 43b9 1b89 0f3a
000000d0: 2359 d23a 981a 0539 86a6 1c3b 0ae6 fc3a
000000e0: 2640 d6b9 986b 083a f5cc bfba b0bc 4f3b
000000f0: 80e7 303b 34e2 4ebb 408d 4bbb c848 113b
00000100: 4f55 9737 e3bb 3e3b 3ec7 0a3b ad0c 25b8
00000110: 92dc 57bb 72ae 393b 99e9 f3ba 8568 2bbb
00000120: d9a7 a2ba 7ca0 ff3a 30af b73a a4d1 283b
00000130: 3101 00bb 5806 6b3a 4114 04bb a30f e93a
00000140: 00e6 213b ce08 303b 59e5 e8b9 5d45 053b
00000150: 818f e139 7fc1 9838 0be5 0c38 d207 f0ba
00000160: c953 b63a a3f6 12bb cfd2 abba 579e 9539
00000170: 8efb d337 27c1 ddba e95b 28bb 3867 2039
00000180: 7001 bbba 625f 10bb 128a 59b9 6cb7 b73a
00000190: 76fe 1d39 95a8 353b 251a e83a fb12 84ba
000001a0: e073 e3ba 1176 ee3a 9919 3bbb 8ee6 2f3b
000001b0: 8633 7d3a de6d 29ba f3dc 57bb bac8 1e3a
000001c0: b703 9bba 34bf 253a ea08 983a c997 2a3b
000001d0: bb08 493a 36f0 9ab7 21c6 193a afaa 1f3b
000001e0: 9fac 01bb d4f5 dd3a 1f34 2cbb dd62 9b3a
000001f0: acce 0eba ac1b 233b b870 cfb9 111e 7939
00000200: d3ef db3a 0119 bab9 630b 0a3b 74c4 19b9
00000210: c303 8d38 5607 403b 9f8c 8a3a 388f 99ba
00000220: a9bf 343b d4be 50b7 16fe 37bb 9748 4e3b
00000230: 3a6e 5c39 cbb0 193b e844 433b 54b2 783a
00000240: 41d4 583b b315 3d3a a004 02bb 80a3 b739
00000250: ec7a fcba 7a8b 75ba 141d 5cbb ea26 bb3a
00000260: 437b 14bb f356 083a 53fb 9d3a 89ae e3ba
00000270: 12a8 34bb 46d8 0bbb 216e 413b 1909 3c3b
00000280: c5e2 533b 3b53 433b 8d4b f33a a54a 1a3b
00000290: ffca e43a fa44 07bb cd01 2cb9 4ae4 823a
000002a0: 928c d9ba bbb6 0c3b 8726 7bbb 1760 a23a
000002b0: 9442 cd39 34d4 91ba efd9 06bb a086 afba
000002c0: 693e 35ba a1ff 49bb 342a ca3a ce76 8c3a
000002d0: 08ce 60ba 7134 69b9 ee7d a839 c1c9 6bba
000002e0: 7058 e13a add7 13bb 7a0f f2ba e2a4 023b
000002f0: 0c9c 5ebb 416e 023b 0c69 d7b9 6faa 24ba
00000300: a9b4 163a cf50 203b 9dbc 99b9 bd67 8639
00000310: c268 c43a 46fc 27bb e560 85ba ebd9 b6b8
00000320: e113 7e3a c3b5 12bb e45d 9fba 7597 1fbb
00000330: 7cd7 b0ba 455c a5ba ddd7 3bbb 637f 123b
00000340: 9c2d 4abb 3150 e13a 240d bdba ddd4 26bb
00000350: 224a 893a 6baa 9237 62e2 ec39 526a 003b
00000360: 2d70 3f3b 9669 4d3a 9782 443b 6ce1 4cbb
00000370: 9d9d 203b bd5f 0f3b 3124 3b3a 3f74 53bb
00000380: ec7e 24bb 0e13 7eba 647a 02bb 8b39 0abb
00000390: 8b88 1b3a 3b0f 903a 0a17 beba f2dd edba
000003a0: f27b 15bb 2c59 043b 7a24 eeb9 7e11 193b
000003b0: 594a 3dbb 51c6 f73a e8a3 583b c661 62ba
000003c0: 0e11 b139 a2a8 58b9 619c 40bb d0d4 a63a
000003d0: ce4b c6ba eed6 47bb f7ea 843a 4cc5 59bb
000003e0: cb9e 19bb f103 16bb 1767 4bba 28fb 8cba
000003f0: 1d53 1fbb 2d32 f23a 00a8 0f3a 8e89 373b
-0.0007390291 -0.0006617296 -0.001419385 -0.0009749598 -0.00021981707 -6.284491e-05 0.0022600237 -0.0023058618
-0.0020973713 -0.0006708206 -0.00033930244 -0.0016427408 0.00051301776 -0.0009148869 0.0033193408 -0.0012907439
0.0020462363 -0.0030422867 -0.004055867 -0.001640128 0.0014760632 -0.0035105257 -0.0013209074 -0.00041942456
-0.0046263495 0.0025822325 0.0027417704 -0.0014196798 0.0033606782 0.0007633402 -0.0012005067 -0.0033297073
-0.003248709 -0.0004348733 0.0030299805 -0.0008307069 -0.0031076171 -0.001445732 -0.0009770986 -0.0028755052
0.00088211347 0.001304331 0.00091546355 -0.00044528698 0.00220534 -0.0020915805 -0.00021378603 -0.00282941
-0.0017782915 0.0011971282 -0.00018611553 0.00054754474 0.0016048293 0.00012693775 0.0023902967 0.0019294631
-0.00040865055 0.0005204021 -0.0014633226 0.003169816 0.0026993454 -0.0031567933 -0.0031059533 0.0022168625
1.8040328e-05 0.0029103688 0.0021175887 -3.935087e-05 -0.0032937867 0.0028332737 -0.0018609046 -0.0026154828
-0.0012409642 0.0019502784 0.0014014002 0.0025759721 -0.001953196 0.0008965484 -0.0020153674 0.0017781149
0.002470374 0.0026860717 -0.00044421366 0.0020335533 0.00043022263 7.283966e-05 3.3591914e-05 -0.0018312878
0.0013910468 -0.002242484 -0.001310909 0.00028537467 2.52703e-05 -0.0016918526 -0.0025689548 0.00015297241
-0.0014267396 -0.002202951 -0.00020746168 0.0014016456 0.00015067481 0.002771889 0.0017707987 -0.0010076457
-0.0017353259 0.0018193146 -0.0028549193 0.0026840302 0.00096588617 -0.000646321 -0.0032938092 0.0006057132
-0.0011826669 0.0006322742 0.0011599336 0.0026030412 0.00076688424 -1.8470088e-05 0.00058660103 0.002436321
-0.0019786728 0.0016934224 -0.0026276184 0.0011855025 -0.00054476666 0.002488832 -0.000395661 0.00023757691
0.0016779847 -0.00035495314 0.0021063916 -0.00014664402 6.7241046e-05 0.0029301248 0.0010570473 -0.0011715656
0.0027580059 -1.2442197e-05 -0.002807503 0.0031476372 0.00021021898 0.0023451324 0.002979571 0.0009487022
0.0033085498 0.0007213011 -0.0019839182 0.00035026297 -0.0019262708 -0.0009366792 -0.0033586668 0.0014278565
-0.0022656478 0.0005200945 0.001205305 -0.0017370741 -0.0027565998 -0.0021338626 0.0029515105 0.0028691946
0.003233121 0.0029804248 0.0018561945 0.0023543027 0.0017455517 -0.0020640478 -0.00016403869 0.0009986248
-0.0016597679 0.002147122 -0.0038322525 0.0012388256 0.00039150252 -0.0011125864 -0.0020576676 -0.0013391562
-0.0006913902 -0.0030822533 0.0015423954 0.0010716559 -0.0008575623 -0.00022240148 0.00032137282 -0.0008994602
0.0017192494 -0.0022558973 -0.0018467747 0.0019934704 -0.0033967523 0.0019902142 -0.00041086262 -0.00062815
0.00057489664 0.0024462228 -0.00029322962 0.00025635763 0.0014984834 -0.0025632544 -0.0010175972 -8.719027e-05
0.0009692293 -0.002238617 -0.0012158719 -0.002435175 -0.0013491954 -0.0012616 -0.00286626 0.002235376
-0.003084994 0.0017190037 -0.0014423472 -0.0025456466 0.0010474364 1.7483913e-05 0.00045182096 0.0019594622
0.002921115 0.0007835863 0.0029985064 -0.0031262292 0.0024508007 0.0021877133 0.0007138877 -0.0032265333
-0.0025100065 -0.00096921704 -0.0019909376 -0.0021091427 0.0005933127 0.0010990867 -0.0014502716 -0.001814781
-0.0022809473 0.0020194752 -0.00045422075 0.0023356373 -0.0028883426 0.0018903707 0.003305668 -0.0008635785
0.00033772778 -0.00020662186 -0.0029390084 0.0012728218 -0.0015128793 -0.0030493098 0.0010140826 -0.003322917
-0.0023440595 -0.0022890533 -0.0007759197 -0.0010756003 -0.0024311014 0.0018478088 0.0005480051 0.0028005573

layer2.bias f4 [128]
00000000: 4ef4 3ebb 9405 1ebb 74c5 debb e7b5 f1b9
00000010: bded 33bb 9cf5 703f 02aa 33bd d7a0 29bd
00000020: 360a 0abb 79e3 51bb e70e 0fbb e776 8dba
00000030: 112d c4bb 3764 ceba 6fd1 dd3e ffb8 1cbc
00000040: cd57 3e3e 02fa 083f 1c65 473f c47a 4b3f
00000050: de51 50bb 16ff 483f 614c 4d3f bf12 57bb
00000060: 7d91 bebb 1a6b 493f cd13 603f 1983 623f
00000070: 7945 1cbd 39d8 db3e 8171 6cbb 7cc2 afb9
00000080: 6270 0dbb e40a 033f e53d bcba ff6b 533f
00000090: 45ab 3bbb beb9 59bb a913 493f 6473 29bd
000000a0: 4d58 2bbc c9dc 053f e9ed fdbc e9a0 8cbb
000000b0: 7b8c cdba 6c4e 80bb 994f 40bb f941 4abb
000000c0: 3875 49bd 57d1 2bbd 9cb1 533f e488 e03e
000000d0: 7195 a1bb 8e5e 07ba ee61 f93e 74c7 abba
000000e0: 5145 b2bb ea03 03bb 7371 4c3f 7763 d6ba
000000f0: 3ab1 e43e e5a1 4f3f 1a22 4f3f c6a4 18bb
00000100: c11a 4f3f 0225 76bb a93c 58bc f057 703e
00000110: 15c3 043f c3c8 073f dad4 7cba 29c9 d8bb
00000120: 909f d93e e80d 02bc 0109 35bb 86fd 49bb
00000130: f180 17bb 790d 2bbb b790 65bb 0690 a3b9
00000140: 2349 81bb eaf2 4e3f 4263 16ba ad30 133f
00000150: bdd6 3dbb 2d74 37bb 96c0 c5ba 6201 4c3f
00000160: a261 edba d0f9 04bb 839b 8bbb 4850 b03e
00000170: cdac 15bb 8162 55ba 4132 63bb 4e4c 40bb
00000180: 2793 59bb c620 543f d2be 483f 08ac 7dbc
00000190: 79f6 e33e a6ab aebb 109f 72bc 4e13 feba
000001a0: 8fd7 28bd d112 f53e b672 533f 62d0 54ba
000001b0: d6bd 58bc 6323 0bbc 70da 45ba 357a 7abd
000001c0: f495 9dbc 268b 89b9 c6b9 62bb 23b1 05bb
000001d0: 15ad 543f 7e0e fabb b618 2dba 277b 76bb
000001e0: ef94 5dbb 14b6 4f3f 2411 4dbc aa2f 4b3f
000001f0: 243c c3ba 3a0c 73bb 7565 69ba 2c77 393f
-0.0029137316 -0.0024112212 -0.0067984406 -0.0004610263 -0.0027454935 0.9412477 -0.043863304 -0.041413154
-0.0021063215 -0.0032026453 -0.002182895 -0.0010792882 -0.0059868176 -0.0015746419 0.43323848 -0.009565591
0.18588181 0.5350648 0.77888656 0.794842 -0.0031787078 0.7851423 0.8019467 -0.003281757
-0.0058156834 0.7867905 0.87530214 0.8848129 -0.03815219 0.42938402 -0.0036078396 -0.00033523503
-0.0021581878 0.5118849 -0.0014361708 0.82586664 -0.002863602 -0.0033222283 0.78545624 -0.04136981
-0.010458064 0.52290016 -0.030997233 -0.004291643 -0.0015682125 -0.0039155986 -0.002934432 -0.0030862077
-0.049184054 -0.04194769 0.82692885 0.4385444 -0.004931145 -0.0005163931 0.48707527 -0.0013105706
-0.005440392 -0.0019991347 0.7986061 -0.0016356547 0.44666463 0.81106406 0.8091141 -0.0023291572
0.809002 -0.003755868 -0.013198056 0.23471045 0.5186017 0.53040713 -0.00096447545 -0.006615777
0.4250455 -0.007937886 -0.0027623775 -0.0030821278 -0.0023117627 -0.002610056 -0.0035028884 -0.00031197089
-0.003945486 0.8083941 -0.00057368365 0.5749615 -0.0028967105 -0.002799283 -0.0015087302 0.7968961
-0.0018110762 -0.0020290501 -0.004260482 0.3443625 -0.0022838593 -0.00081399834 -0.0034667405 -0.0029342356
-0.0033199282 0.8286251 0.7841617 -0.01548291 0.4452398 -0.0053305207 -0.014808431 -0.0019384415
-0.041221198 0.47865918 0.8259691 -0.00081182097 -0.013228854 -0.008492324 -0.00075475033 -0.061151702
-0.019236542 -0.0002623435 -0.0034595593 -0.0020399771 0.830766 -0.007631122 -0.00066031085 -0.0037610026
-0.0033810695 0.81137204 -0.012516294 0.79369605 -0.0014895243 -0.0037086145 -0.0008903363 0.72447467

layer3.weight f4 [128, 128]
00000000: 384a a53a ad1f 323b 5388 0c3a 646c 283b
00000010: e7ec a539 dfd6 80bb 9e93 3fbb a6e3 5dbb
00000020: 2d87 4339 d26f 5cba 456e 273b 1c58 6a3a
00000030: 73ed 50bb d3a3 91b7 d1b2 33bb 8dc6 d93a
00000040: 8c0e 1a3b ee63 f4b9 e61e 473b 8ff8 c33a
00000050: 9c24 12b2 758a 1cbb 173a 06ba 3c06 413b
00000060: 8353 8038 20bc 063a 8a17 81bb a5bf 8dba
00000070: eacd 32ba d6f1 183a ff72 b8ba c774 ea3a
00000080: 0c49 42bb 9577 18ba 6317 b7ba a5d6 e1ba
00000090: 65d2 45bb 65eb 003b d8d9 fd3a 1283 2b3b
000000a0: fca8 a839 7ec6 a039 429b 363b fded 35bb
000000b0: f8e1 f63a 810a 9c39 b366 61b9 16d4 1d3b
000000c0: ea57 d9b9 1465 9b3a 7f2a c4bb 9d5f b4b9
000000d0: f1df 23bb 354b c739 2ccd 38bb 067b 99bb
000000e0: 1941 a139 5d33 3e3a 4c7f df38 4212 c63a
000000f0: 4942 163b 2af0 c3ba 4974 9f3a 456a 4a3b
00000100: 5e17 1838 66c9 4e3b ffb4 b93a deed 4b39
00000110: 84ea faba e842 cfba 9092 313b db47 033b
00000120: 0a60 e9bb 140d 47bb 847f e3ba ba41 1e3b
00000130: c836 08b9 0312 243b 0222 7939 a25f d9ba
00000140: 25ab 0a3b f403 91bb b80a acb9 2120 283a
00000150: feaf f83a a9c0 2d3b b3b5 1dba 36df 12bb
00000160: f3a0 09bb 591a 15bb db73 f3ba de2b 3ebb
00000170: d561 033b 121c 28ba 6a20 013b 1b6a ca3a
00000180: 8634 a23a 16b6 3abb 636e 08bb 788e 163b
00000190: c0cd 53bb 4896 853a f91e 8536 4109 33bb
000001a0: af96 4d3a d44b cc39 871e acba e59f 293b
000001b0: d1fe f03a dc93 263b 27b2 e0ba 54be 7639
000001c0: 6f31 5aba ac6d deba 632f 643b 154a 9c39
000001d0: 6de1 88bb 2283 19b8 919c 933a 3a8a 32bb
000001e0: 5d33 073b 90cb 3fbb dee9 65ba d6d6 fdba
000001f0: 702c d0b9 856e ecba 584e 0abb cdd1 2b3b
00000200: 9c73 1fbb 83ba 82ba edb5 38ba 1534 c9ba
00000210: 11b2 ee3a e562 a539 4dd0 5dbb 978f 18bb
00000220: aed8 cc3a 2da6 a3ba 866c 08bb 96be 4cbb
00000230: 9ce2 0e3a f14b 143a 99d8 eb39 82d6 d339
00000240: aba3 34bb c5b5 163b 4be9 81bb d97a 333a
00000250: 9e8f 1bbb 9f0c 0c3b 620e 54bb b0fc 8fbb
00000260: 61be b8b9 b423 733a cb7d ab3a 1dff bcb9
00000270: 46d8 163b 1019 cfba d25d efba dce3 a03a
00000280: ed3b e83a 3a2d ed39 91e8 38bb bdda 22bb
00000290: cb75 3fbb edcd 89ba c312 a336 8967 c6ba
000002a0: ab26 3e3b 16ae 08bb aa49 27bb 749d 89bb
000002b0: 6fa9 a73a e50a 96ba b65f 103b e1ff de3a
000002c0: 3d0a 333b e6c6 50bb da1e e73a a4c6 cd3a
000002d0: 0e40 aa39 2b8b f3ba 3d9e 51bb 960d 32bb
000002e0: efaa 66bb 5f2f 45bb fa9c ea3a 18d2 2e3b
000002f0: 357a cb3a 39a9 e139 0a70 18bb e400 263b
00000300: 39a7 4b38 08dc 59bb 91b6 4c39 1639 51ba
00000310: 977b a5ba eb8f e73a 7bdd 24bb e1cf 28bb
00000320: 47ef caba d660 193b 3ac9 dbba 448d 13bb
00000330: f4e3 a938 2d87 d7ba 7cb9 81ba 5d53 1ebb
00000340: 0c26 6a3a 98b4 91ba 64c3 96b9 8f99 fa3a
00000350: 90ee 913a a0bd a439 0030 3039 a971 4639
00000360: 5ba0 6dbb 60c1 3dbb 3335 2f3b d21e e9ba
00000370: 7d1b 8e3a 917c 76b9 2d39 f9ba e410 b4ba
00000380: 9428 11bb 5759 33ba 0761 18bb 5e86 7d39
00000390: c9e0 263b 3160 8f3a ed53 c93a 8734 f93a
000003a0: 5c39 af3a 70a3 34bb 9464 b138 d742 9d3a
000003b0: 05d4 163a fd62 283b 5e37 a03a 95f3 23bb
000003c0: 2235 1e3b d53a 1f39 8fb3 b8ba 3075 a1b9
000003d0: 6b8e c6ba 6ba4 45bb a683 45bb c232 89bb
000003e0: 0e74 fb3a d360 843a d9ba 5b39 3d97 9b38
000003f0: 8ab0 7c3a 6c95 beb9 2b6e 303b 3f00 9cba
0.001261062 0.0027179525 0.000536089 0.0025699371 0.00031647758 -0.0039318646 -0.0029232274 -0.0033857613
0.00018647006 -0.00084089965 0.0025547903 0.0008939521 -0.0031879812 -1.7361634e-05 -0.0027419815 0.0016614959
0.0023507206 -0.0004661376 0.0030383407 0.0014951396 -8.5066425e-09 -0.0023886238 -0.00051203504 0.002945318
6.119071e-05 0.0005139727 -0.0039395737 -0.0010814561 -0.0006820845 0.0005834376 -0.0014072357 0.0017887586
-0.002964559 -0.0005816159 -0.0013968762 -0.0017230107 -0.003018522 0.0019671556 0.0019367291 0.0026170653
0.0003216936 0.00030665466 0.0027863537 -0.002776026 0.0018835654 0.00029762465 -0.0002149593 0.0024082712
-0.00041454966 0.0011855685 -0.0059865112 -0.00034403513 -0.0025005306 0.0003801227 -0.0028198464 -0.004683855
0.00030756815 0.00072555785 0.000106571795 0.0015111642 0.0022927693 -0.0014948894 0.0012165393 0.0030886095
3.6261386e-05 0.0031553148 0.0014168321 0.00019448201 -0.0019143377 -0.0015812786 0.0027095415 0.0020031843
-0.0071220445 -0.0030372785 -0.0017356728 0.0024148063 -0.00012990378 0.002503515 0.0002375916 -0.0016584287
0.002115914 -0.00442552 -0.00032814383 0.0006413479 0.0018973348 0.002651254 -0.000601615 -0.0022410876
-0.0021000474 -0.00227513 -0.0018573956 -0.0029017846 0.0020047326 -0.0006412874 0.0019703158 0.0015442999
0.0012375272 -0.002848988 -0.0020817749 0.0022973102 -0.0032318681 0.0010191882 3.9673146e-06 -0.0027318748
0.0007842583 0.00038966408 -0.0013131656 0.0025882658 0.0018386488 0.002541772 -0.0017142937 0.00023531291
-0.0008323406 -0.0016969941 0.0034818284 0.00029809834 -0.0041772635 -3.660017e-05 0.001126187 -0.0027243034
0.002062998 -0.002926562 -0.00087705057 -0.0019366394 -0.0003970596 -0.0018038308 -0.0021103825 0.002621758
-0.0024330383 -0.0009973798 -0.0007046152 -0.0015350605 0.0018211027 0.00031544935 -0.003384608 -0.0023278946
0.001562854 -0.0012485437 -0.0020816638 -0.0031241528 0.00054506375 0.0005657068 0.0004498407 0.00040404877
-0.0027563374 0.0022996527 -0.0039645783 0.0006846614 -0.0023736726 0.0021369827 -0.0032357206 -0.0043941364
-0.00035237058 0.00092750345 0.0013083754 -0.00036048229 0.0023017093 -0.0015800316 -0.0018262214 0.0012274939
0.0017718055 0.0004523786 -0.0028214792 -0.0024849616 -0.0029214497 -0.0010513641 4.8599627e-06 -0.0015137057
0.0029014747 -0.0020855716 -0.0025526085 -0.004199678 0.0012791584 -0.0011447339 0.0022029704 0.0017013514
0.0027319335 -0.0031856834 0.0017633096 0.0015699458 0.0003247265 -0.0018580904 -0.0031985187 -0.0027168742
-0.00351971 -0.003008805 0.0017899566 0.0026675519 0.0015524091 0.00043041425 -0.002326014 0.002533012
4.855471e-05 -0.003324272 0.00019522967 -0.0007981224 -0.0012625334 0.0017666792 -0.0025156427 -0.002575867
-0.0015482687 0.0023403666 -0.0016768344 -0.002251462 8.1010076e-05 -0.0016443484 -0.0009897198 -0.0024158575
0.0008932061 -0.0011116443 -0.00028755807 0.001911925 0.0011133719 0.000314218 0.0001680255 0.00018925093
-0.003625891 -0.0028954372 0.002673459 -0.0017785674 0.0010841932 -0.00023506793 -0.0019014232 -0.0013737944
-0.002214943 -0.0006841621 -0.0023251192 0.00024178016 0.0025463572 0.0010938701 0.0015360095 0.0019012847
0.0013368535 -0.0027563237 8.458752e-05 0.0011998069 0.0005753639 0.0025693767 0.0012223532 -0.0025017012
0.0024140556 0.00015185338 -0.0014091599 -0.00030795624 -0.0015148645 -0.0030157815 -0.0030138283 -0.004186959
0.0019184367 0.0010099657 0.00020955074 7.419146e-05 0.00096393435 -0.00036350952 0.0026921134 -0.0011901929

layer3.bias f4 [128]
00000000: e6bc d6b7 bad2 ddb9 28f8 4d3f a9ea 4d3f
00000010: 8e1c 0e3f 8b99 0b3f 2b3a 3538 3f26 963a
00000020: e88d 11bb 5717 c0ba 80e8 38bb d893 0e3f
00000030: 9bc8 063f 9e84 0fb9 7c83 ee39 201d 6ebb
00000040: f187 0fbb 47fd cd38 9728 fa3e 173a 06ba
00000050: dc11 91ba 04b5 073f 1b41 e63e 7636 91ba
00000060: c21e 8eba 95b3 6ebb 9391 12bc 2e78 5b3a
00000070: ffee f5b9 f08a deba a59a 35bb 92cf 06bb
00000080: d912 eaba 6497 453f 5e87 9eba 55e3 4b3f
00000090: 52ba e2ba 9c68 ef39 7d29 a3ba d568 44ba
000000a0: 0840 ad3e 313d 483f 4c9f 9b3a 736a 56bb
000000b0: 080f 053f cf7e e3b9 8af0 a9b8 be68 daba
000000c0: d5ed 083f b810 3eb9 d39a eabb 6a7f d2ba
000000d0: 1598 51bb 321a 653f bd6a 9338 7f96 01bc
000000e0: 115f 803f 7228 0d3f bd91 59ba 72bd 76bb
000000f0: dc86 26bb c52e 0c3f 1c39 3dbc d67f 41bb
00000100: cc7f aa3b d18f 223a 8d7a 74bb 216c 2c3f
00000110: 9eb2 d7ba a08e 44ba 031c 7bbb b0a5 a5bb
00000120: 56e3 cbba cad0 6fbb 15ae 0ebc dd62 e8bb
00000130: 5e2f 8cba f096 1cba c549 063f 2a00 4e3f
00000140: 9e3a 3ebc 98de d1ba e1f3 01bb 8900 4d3f
00000150: 61af 48ba efad d53e 22b0 4eb8 57da d8bb
00000160: d6da 0ebb 264c c6b9 7a06 83bb 0136 82bb
00000170: 2a04 2bbb 9f26 4eba 381d 85bb 4273 fdba
00000180: 6002 6e3f d7e7 e2b8 9703 27bb 4700 35bb
00000190: 8319 13bb 7c76 4dba 02c0 0a3f 2311 ccba
000001a0: bd05 793a 6d1d f439 8170 30bb a1e0 723a
000001b0: 3caf 6eba 7725 6ebb dc6b 10bc 04bc c5ba
000001c0: bce5 9cba 127d 3f3f d936 4e39 dbfe 793a
000001d0: c918 b138 23f3 2abb 3292 0a3f 11cd 43bb
000001e0: 92f6 7cba d7d5 39bb f32a 0d3f c73e 88ba
000001f0: b641 8cbb 73c6 16bb f76d 50bb d45e 57bb
-2.559875e-05 -0.00042309408 0.8045678 0.8043619 0.5551232 0.5453116 4.3207936e-05 0.001145549
-0.0022209827 -0.0014655393 -0.0028214753 0.5569434 0.5264985 -0.00013686946 0.0004549286 -0.0036333278
-0.0021901096 9.822338e-05 0.48859093 -0.00051203504 -0.0011067945 0.5301058 0.44971547 -0.0011078853
-0.0010842907 -0.0036422957 -0.00894584 0.0008372095 -0.00046908107 -0.0016978662 -0.0027710584 -0.00205705
-0.00178584 0.7718413 -0.0012094786 0.79643756 -0.001729796 0.00045663572 -0.0012448278 -0.0007492428
0.33837914 0.7821837 0.0011873036 -0.0032717257 0.5197606 -0.00043391294 -8.103352e-05 -0.0016663296
0.534879 -0.0001812604 -0.0071595698 -0.0016059701 -0.0031981517 0.89493096 7.029388e-05 -0.007909416
1.0029012 0.5513984 -0.000829961 -0.003764954 -0.0025409972 0.54758865 -0.0115492605 -0.002952566
0.005203223 0.000620124 -0.0037304491 0.6735249 -0.001645643 -0.00074980594 -0.0038316257 -0.005055152
-0.0015555422 -0.0036592954 -0.008708497 -0.0070918635 -0.0010695269 -0.0005973419 0.52456313 0.80469
-0.011610655 -0.0016011773 -0.00198292 0.8007894 -0.0007655528 0.41734263 -4.9278264e-05 -0.006617825
-0.0021797917 -0.00037822238 -0.003998575 -0.003973723 -0.0026095011 -0.00078640314 -0.004062321 -0.0019336718
0.92972374 -0.00010819703 -0.0025484317 -0.0027618574 -0.0022445626 -0.0007837785 0.5419923 -0.0015569072
0.0009499451 0.0004656123 -0.0026922526 0.00092650397 -0.00091050914 -0.0036338249 -0.008814778 -0.001508594
-0.0011970322 0.7480022 0.00019666123 0.00095365726 8.444634e-05 -0.0026084862 0.54129326 -0.0029876868
-0.0009649779 -0.0028356218 0.5514366 -0.0010394686 -0.0042802943 -0.0023006469 -0.0031803825 -0.0032862918

output_layer.weight f4 [9, 128]
00000000: 3bc8 2d3b 946a 103b d9e5 c6bf b3cc c9bf
00000010: 5d40 923f 8481 963f 33cc f8b9 a543 18bb
00000020: b53f 32bb e4f7 03bb 2289 a33a ccb6 903f
00000030: 3ed9 9a3f 9ac7 253a c862 54bb b4be 0e3a
00000040: 4759 21bb aef5 abba 472a 12bf 83c1 b339
00000050: 0c78 c23a 5f86 8b3f a0be 13bf 8419 07bb
00000060: 48e2 65ba c69e 8839 a361 d9ba 6110 1e3a
00000070: b02f 2e3a cea5 3a3b a237 8d3a 58d6 cdb9
00000080: fd9a 223b 53a1 c8bf 4606 31bb a174 c9bf
00000090: 71b4 6039 6098 003b 1104 02bb b5d6 04bb
000000a0: 02e4 14bf 1199 12bf 8d1f 2f3a 49af 443b
000000b0: 5b96 853f 42a8 db3a 512b c53a 2089 f3ba
000000c0: f125 993f 109c 9b3a 21a7 afbb e189 b43a
000000d0: a4c8 16b9 56f1 17bf 6bab 1e3a 2ba5 37bb
000000e0: a496 29bf 0dc3 903f 05f9 6dba 1fe6 98ba
000000f0: 626b 093b 2bbd 963f cc22 e0bb 53e1 523b
00000100: f9fd 1fbb 20a7 f3ba 3c69 08bb d88a 10bf
00000110: 3b08 6f3b e5d3 cfba a918 a9ba 0714 97ba
00000120: 3e23 a83a 3cf2 593b 0f43 8d3b 7210 2d39
00000130: 1711 abb8 ed5a 36bb 4691 893f d0d9 c9bf
00000140: bb8b b3ba e269 efba e05f 2f3b 6c7e cabf
00000150: ed32 853a 82ad 95bf 11fd 81ba 6885 7739
00000160: 1f57 10bb 4feb a7ba 7f38 d63a 7d9f 383a
00000170: 708b 09bb 8403 23bb 7bac 463b 5ce8 aaba
00000180: 65d6 4fbf b643 133a a578 213a 9716 eaba
00000190: a9be 1f3b 2d7f 9f3a 6edc 973f d614 8737
000001a0: 37bf 483b dd8d 0a3a 8108 9e3c 0d16 e5ba
000001b0: a48b 233b 5c73 8fb9 0594 a4ba deb3 3eba
000001c0: 74b2 2e38 b3e0 75bf 2de0 2fbb a1f2 57ba
000001d0: d075 fcba 392f bd38 2437 963f 138a 343a
000001e0: f2ce c1b9 97db 783b 18bc 953f 6d74 b6ba
000001f0: 62da 073b d528 50ba 4733 31bb 4882 2dba
00000200: e03a 283b 8b6f 30bb 057e f4be 15b2 c5be
00000210: 3138 fa3e 893e 003f 020f 823a 1b6d ec3a
00000220: d0f2 d03a 39cd 02bb cfae 2d3a c586 f83e
00000230: ad2a 063f cea6 a73a 72d4 8bba be7e ecb9
00000240: c535 ff3a caca ef3a c481 21bf c10f ed37
00000250: ad9c 2fbb ebc0 ef3e afe7 1abf bcb1 82ba
00000260: dc0a 3d3b 25d3 10b9 f7a8 5bbb 7d2e a7ba
00000270: 7a12 733b 717d 7a39 80e2 103b 872a 32bb
00000280: a0f3 7d3b bb5e 73be 96f7 12bb 5650 9ebe
00000290: 48a6 3e3a b21c b8ba 8b94 97bb f645 7d39
000002a0: f319 1abf e871 30bf 7c06 443b a560 b13a
000002b0: ebeb e43e 91f6 cdba aa05 37bb e201 8eb9
000002c0: 8eac 033f 01df 153b 1ab9 d3ba 8274 dfba
000002d0: b9fd 403b fecf 33bf adb4 6cba 8c29 db3a
000002e0: 6425 36bf 6fd1 f73e fa00 553b a641 bc3a
000002f0: dd22 8c3b 3e0d 013f 8586 15bc 34f5 083b
00000300: 4692 6939 daf3 fcba 383c 82ba 3b2a 2dbf
00000310: 8065 c63a a245 45bb 6c75 513b 4512 533b
00000320: 51f2 40bb cc6d aa3a dbf1 6cb9 7f22 403b
00000330: b49c 82b7 100c fcba e06f ea3e 3c4d d0be
00000340: f06c 9cb9 dcfd 23ba ed9a 543a d019 b4be
00000350: 51f8 84ba b009 32bf ef2a 763a 0f3f b33b
00000360: 2ab7 373a 339b 49bb dcd6 283b f74e a93a
00000370: 8db5 2bbb c4d1 c53a 0698 933a 9675 833a
00000380: 2667 39bf 28ca 7dba 58cf 7e3a dd3c 013b
00000390: 9b6d 02bb b009 12bb 1418 013f 956f 58bb
000003a0: ca70 8139 e186 9c3a 2f46 f33a e37f ceb7
000003b0: 4c39 dc3a 143d 54ba c642 63ba 4b7b 1c3b
000003c0: 5ca0 fcba eaf3 3abf 0b3c f0ba 6577 393b
000003d0: 8c28 e63a 4aaa 433a fbdd ff3e 11f7 b03a
000003e0: 926b 5c3a 5ace 1dbb bc1e ff3e 7179 503b
000003f0: 68fd 85bb b80e 3bbb 5a17 393b f12e 21bb
0.0026517052 0.0022036182 -1.5538894 -1.5765594 1.1425892 1.1758275 -0.00047454386 -0.0023233679
-0.0027198617 -0.0020136768 0.0012476782 1.1305785 1.2097547 0.00063239934 -0.003240751 0.0005445287
-0.0024619864 -0.0013119483 -0.5709576 0.00034285718 0.0014836802 1.0900382 -0.57712746 -0.0020614574
-0.0008769375 0.00026058237 -0.0016584884 0.00060296623 0.0006644679 0.0028480175 0.0010774026 -0.00039260346
0.0024811618 -1.5674232 -0.0027011796 -1.5738717 0.00021429524 0.0019622073 -0.001983885 -0.0020269577
-0.5816041 -0.5726481 0.00066804216 0.0030011705 1.043651 0.0016758519 0.0015042817 -0.0018580295
1.1964704 0.0011872072 -0.0053604995 0.0013774001 -0.00014379859 -0.59352624 0.0006052765 -0.0028022032
-0.66245484 1.1309525 -0.00090779393 -0.0011665261 0.0020968546 1.177648 -0.0068400856 0.003217776
-0.0024412854 -0.0018589236 -0.0020814678 -0.5646186 0.0036473412 -0.0015855996 -0.0012901026 -0.0011526354
0.0012827886 0.0033255955 0.0043109725 0.00016504692 -8.157099e-05 -0.0027825192 1.0747459 -1.5769596
-0.0013698259 -0.0018265808 0.0026760027 -1.5819831 0.0010162272 -1.1693575 -0.0009917339 0.00023605453
-0.0022024584 -0.0012811216 0.0016343741 0.00070428086 -0.0020987652 -0.0024873922 0.0030315209 -0.0013039219
-0.81186515 0.00056176947 0.000615964 -0.0017859516 0.0024375117 0.0012168639 1.1864145 1.6102957e-05
0.003063155 0.00052854215 0.019291164 -0.0017477885 0.0024955058 -0.00027361035 -0.001255632 -0.0007274727
4.165103e-05 -0.9604599 -0.00268365 -0.00082377536 -0.0019261185 9.021018e-05 1.1735578 0.000688703
-0.00036966015 0.0037972683 1.1698027 -0.0013920196 0.0020729532 -0.0007940655 -0.002703862 -0.00066188397
0.0025669858 -0.0026921954 -0.47752395 -0.38612428 0.48870996 0.5009542 0.0009922686 0.0018037887
0.0015941504 -0.0019958748 0.0006625475 0.4854032 0.5240887 0.00127908 -0.0010668172 -0.00045107858
0.0019470981 0.0018294689 -0.6308863 2.8259938e-05 -0.0026796267 0.46826872 -0.6050977 -0.0009971182
0.0028845584 -0.00013811568 -0.003351746 -0.0012754943 0.003708987 0.00023888588 0.002210766 -0.0027185993
0.0038749948 -0.23766606 -0.0022425405 -0.30920666 0.00072727026 -0.0014046638 -0.004625862 0.00024154023
-0.60195845 -0.6892381 0.0029911092 0.0013532831 0.4471124 -0.0015713741 -0.002792696 -0.00027085753
0.5143517 0.0022868516 -0.0016153187 -0.0017048272 0.0029448105 -0.70239246 -0.00090296083 0.0016720756
-0.71150804 0.48401973 0.0032501803 0.0014362826 0.004276617 0.5041083 -0.00912631 0.0020898106
0.00022275103 -0.0019298748 -0.000993616 -0.67642564 0.001513645 -0.003010132 0.0031960858 0.0032206934
-0.0029441307 0.0013002693 -0.00022596812 0.0029317436 -1.5570178e-05 -0.0019229669 0.4578848 -0.40683925
-0.00029835803 -0.00062557845 0.0008110244 -0.35175943 -0.0010144805 -0.6954603 0.0009390553 0.0054701637
0.00070081896 -0.0030762672 0.0025762832 0.001291721 -0.0026200742 0.0015092422 0.0011260516 0.001002955
-0.7242302 -0.0009681308 0.00097202277 0.0019720115 -0.0019901756 -0.0022283606 0.50427365 -0.0033025492
0.00024688832 0.0011942053 0.0018560345 -2.4616666e-05 0.0016801744 -0.00080962596 -0.0008669313 0.00238772
-0.0019273865 -0.73028433 -0.0018328441 0.0028299924 0.0017559691 0.0007464035 0.49974045 0.0013501366
0.0008408363 -0.0024079294 0.49828136 0.0031810666 -0.0040890463 -0.0028542709 0.0028242678 -0.002459463

output_layer.bias f4 [9]
00000000: 7495 62bf 62da f3be 3a7e 9dbe 7ada 47be
00000010: af18 32be 7768 49be 7521 97be 732d 0abe
00000020: ee42 fabb
-0.885093 -0.4762755 -0.30760366 -0.19516936 -0.17392229 -0.19668756 -0.29517713 -0.134939
-0.007637373
