ngzhii/long_main/results/train/DQN/best_model.pt (torch, 160623 bytes, 8 tensors)

layer1.weight f4 [128, 40]
000000 84 a6 0a 3f e7 23 f3 3e 6b 32 d1 3e e8 96 80 be
       0.5416033 0.4748833 0.40858778 -0.25115132
000010 f5 69 eb 3e 44 5d f3 3e bd ac 99 3e 8c e8 ee 3e
       0.45979276 0.47532094 0.300146 0.46661794
000020 16 39 0a bd 53 26 e3 3e 2f ed d8 3e 6d 57 c7 3e
       -0.033745848 0.44365177 0.42368457 0.38933888
000030 43 6f ab 3e 6a a9 a1 3e 7f f3 01 be cc 3a ee 3e
       0.33483323 0.31574565 -0.12690543 0.46529233
000040 92 57 cc 3e 7d 0d ca 3e 83 89 e2 3e c6 8c ce 3e
       0.3991056 0.39463416 0.44245538 0.40341777
000050 f1 2e f4 3e a0 3f 92 3e 7f b4 cd 3e 88 02 fe 3e
       0.47692063 0.28564167 0.4017677 0.49611306
000060 83 08 cc 3e 05 81 b0 3e 7b d6 d0 3e 0a 8e 52 3e
       0.39850244 0.34473434 0.40788636 0.20561996
000070 c9 d0 e4 3e ce 10 cf 3e 89 94 e8 3e aa 43 db 3e
       0.4469054 0.40442508 0.45425823 0.4282506
000080 65 01 ef 3e 91 e3 f6 3e 26 27 c1 3e 5e 4d f2 3e
       0.4668075 0.48220494 0.3772518 0.4732465
000090 e2 e2 d5 3e e2 07 db 3e 38 28 9f 3e 5b 98 ee 3e
       0.4177466 0.42779452 0.31085372 0.46600613
0000a0 de 7e 0e 3d d9 79 91 3d 1f dd 0b 3e 3f 58 a4 be
       0.03478896 0.07103319 0.1365857 -0.32098576
0000b0 15 ac d6 3d 25 53 07 3e 83 81 48 bf 11 b5 1e 3e
       0.10482041 0.13215311 -0.7832262 0.15498759
0000c0 49 e8 06 3d 0f 3b a5 3d 58 32 d8 3b 2b a1 1f 3e
       0.03293637 0.08067905 0.0065977983 0.15588824
0000d0 72 30 a6 bd 06 d3 af bd fc 2c 2a bf ed 55 d8 3d
       -0.08114709 -0.085851714 -0.6647489 0.10563264
0000e0 2f 18 dc 3d 95 dc a9 3d 85 bc 04 3e 5d b9 20 3e
       0.107468 0.08294026 0.1296254 0.1569571
0000f0 83 48 ff 3d 76 1c ce be ad 47 d6 3d 77 00 0c 3e
       0.124650024 -0.4025609 0.1046289 0.13672052
000100 17 a4 07 3e 13 cb e1 be a6 0c 6f 3d 63 7d 13 3e
       0.13246189 -0.44100246 0.058361672 0.144033
000110 8d f1 10 3e 83 41 c8 3d 2d c8 04 3e 49 9b 1c 3e
       0.14154644 0.0977812 0.12966986 0.15293612
000120 51 ef b6 3d cd 94 ae 3d 32 ac cf be 31 9e ea 3d
       0.08932365 0.08524475 -0.40561062 0.11455954
000130 5b b5 18 3e 16 9c da 3d 74 64 cc be 9f 31 c2 3d
       0.14912932 0.10674302 -0.3992039 0.09482121
000140 eb c6 09 3f f1 19 fa 3e 76 d9 0b 3f f3 6f 76 3e
       0.5381915 0.48847917 0.54628694 0.24066143
000150 c8 a3 14 3f 4a 9a 0b 3f 7a eb 32 3d 14 26 16 3f
       0.5806241 0.545323 0.0436816 0.5865185
000160 91 b5 1d 3f 79 99 0a 3f 0e 53 d2 3e 3d 30 05 3f
       0.61605173 0.5414043 0.4107899 0.5202673
000170 1a ee 4c 3e c6 4c 49 3e f8 6e 1d 3f ad 49 10 3f
       0.20012704 0.19658193 0.6149745 0.5636242
000180 00 77 05 3f 91 b2 05 3f 4b a3 08 3f 83 aa 0d 3f
       0.52134705 0.52225596 0.53374165 0.55338305
000190 bd 83 08 3f 0b db 00 3e 5a f8 03 3f 3d ab 0f 3f
       0.53326017 0.12583558 0.5155083 0.56120664
0001a0 c7 f5 fd 3e 87 cd 21 3e a3 2e fc 3e 13 90 1c be
       0.49601576 0.15801059 0.4925433 -0.15289335
0001b0 9d 2b fb 3e 7e 6f fe 3e 46 2f 07 3f af ab 0e 3f
       0.49056712 0.49694437 0.5280651 0.5573072
0001c0 11 80 13 3f 73 9d f7 3e 48 00 03 3e 5f 32 10 3f
       0.5761729 0.48362312 0.12793076 0.5632686
0001d0 5a 88 02 3f 48 59 0e 3f 7c 2d e0 3d 9d 45 06 3f
       0.50989306 0.5560498 0.109461755 0.5244997
0001e0 16 2b 06 3f ee 79 03 3f 65 2e 02 3f 84 4e 3a 3f
       0.52409494 0.51357925 0.5085204 0.72776055
0001f0 c3 d7 ee 3e 8a 82 01 3f 9a 9f 1b 3f 12 51 e3 3e
       0.46648988 0.5058981 0.6079041 0.4439779
000200 0d 95 85 3d 4a 60 d9 3e 95 a4 4c 3f bd 77 d9 3e
       0.0652257 0.42456275 0.7993863 0.42474166
000210 54 26 a2 3e 84 49 86 3e e1 15 39 bf 15 c4 ec 3e
       0.31669867 0.26227963 -0.7229901 0.4624335
000220 da bc e0 3e 98 c3 d5 3e 47 2a e9 3e 02 80 f5 3e
       0.43894082 0.4175079 0.45540068 0.47949225
000230 ea b3 fe 3e 14 9c d1 3e 1f 99 e7 3e 50 8e 08 3f
       0.4974664 0.4093939 0.4523401 0.5334215
000240 78 20 ee 3e 38 70 f2 3e a9 b6 d9 3e 9b 41 8d be
       0.46509147 0.4735124 0.4252217 -0.27589116
000250 46 d4 03 3f 80 fa f8 3e a8 7c ee 3e f4 e2 f3 3e
       0.5149578 0.48628616 0.4657948 0.4763409
000260 6e 0f fe 3e d2 21 02 3f fc a2 c5 3e 7e 39 d2 3e
       0.49621147 0.50832856 0.3860091 0.41059488
000270 90 dd 09 3f de 44 e6 3e a8 07 cf 3e 94 cb 01 3f
       0.538537 0.44974416 0.4043553 0.5070126
000280 91 90 c7 3d d5 b0 1a 3e 9a db c2 3d b3 48 51 bd
       0.09744371 0.15106519 0.09514542 -0.051094722
000290 fb 3f f0 3d f5 69 0e 3e 53 4b 17 3e cb b1 cc 3d
       0.11730953 0.13907607 0.14774828 0.09994849
0002a0 1b 05 00 be e3 15 93 3d a5 44 62 3e 04 ca dc 3d
       -0.12501948 0.07181909 0.22096498 0.10780719
0002b0 8a 1c 1b bd 0d 8d 1f bd b2 8d 47 bf b5 bf c2 3d
       -0.037869014 -0.038952876 -0.77950585 0.095092215
0002c0 02 a6 0d 3e 1e ed 08 3e 10 2a 8e 3d 73 8c 96 3d
       0.13832858 0.13371703 0.069416165 0.07351007
0002d0 f2 d8 d0 3d 85 30 95 bb cc ff a0 3d eb 0e a9 3d
       0.10197629 -0.004552903 0.078612894 0.082547985
0002e0 2a fb 82 3d be f0 a4 bc 73 82 86 3d 43 af 4b be
       0.06395562 -0.020134326 0.0656785 -0.19891076
0002f0 15 6f e2 3d 56 d8 08 3e 49 50 1f 3e ac 6b fd 3d
       0.110563435 0.13363776 0.1555797 0.123740524
000300 3c 89 f8 3d 22 ff b4 3d a1 05 3e 3b c9 16 8f 3d
       0.121355504 0.08837725 0.0028995054 0.06986768
000310 11 01 1d 3e fa dc ab 3d 08 45 e5 bc 2d d7 14 3e
       0.15332438 0.08391757 -0.027987018 0.14535208
000320 a6 cc 48 3d 9d f2 e5 3c 53 1c 25 bd e5 5b 36 3c
       0.049023293 0.028069789 -0.040310215 0.011130308
000330 e5 9e 37 3c f5 1d ef bc 57 15 42 bd 68 4c 54 3d
       0.011207317 -0.02918909 -0.047383633 0.05183068
000340 e3 92 69 3c bb a6 ad bb 26 b4 ab bc ec 61 53 3c
       0.014256212 -0.005299417 -0.020959925 0.012901764
000350 b2 38 50 bd a0 af 2c bd bd f0 54 bd 08 7f 23 bd
       -0.05083532 -0.042159677 -0.0519874 -0.03991607
000360 5e 1f 86 ba 4f 7c 9d bb 24 e0 0c bd 44 23 1b 3d
       -0.0010232737 -0.0048060785 -0.034393445 0.03787543
000370 7b dc 2f 39 b5 08 bd bb 80 57 e7 bc 0f 45 07 3d
       0.00016771436 -0.00576886 -0.028239965 0.033024844
000380 5f 7b bc bc 1a bd 02 bd 11 56 13 3d e6 71 23 3d
       -0.023008047 -0.031918623 0.03597075 0.039903544
000390 69 0c 0c bd 66 0f 66 bc c5 0e f9 bc 0a 6e 2d 3c
       -0.034191523 -0.014041757 -0.03040255 0.010585317
0003a0 d3 d8 0f bb d7 b9 f4 bc b5 86 bc ba 7e b3 d3 bc
       -0.0021949306 -0.029873772 -0.0014383408 -0.025842424
0003b0 48 48 8c bc a9 5a 15 bd dc f8 20 bd eb 78 0a 3c
       -0.01712431 -0.036463413 -0.03929983 0.008451681
0003c0 f8 4a c2 bb 9a eb 96 bc e1 fe 76 3c 13 52 69 3e
       -0.005929347 -0.01842289 0.015075416 0.22785215
0003d0 38 f5 31 3d 85 3b 87 bd 09 12 50 bd 8d c2 58 3d
       0.04344675 -0.06603149 -0.05079845 0.052919913
0003e0 63 b5 fc 3d c6 51 1d 3d 31 29 be bd 7a ff 2c bc
       0.12339284 0.038408063 -0.092852004 -0.010558957
0003f0 e3 80 7a 3c a0 b1 ca 3d 88 1e 32 3f 94 bf 4d bc
       0.015289518 0.098971605 0.69577837 -0.012557883

layer1.bias f4 [128]
000000 7b 14 a3 3e 7f b5 00 3e db f7 d4 3e 4a f3 41 3e
       0.31851563 0.12569235 0.4159535 0.18940464
000010 03 b4 f2 bd 7c cf 52 bd 45 95 de 3d 0a 0b 45 bd
       -0.11850741 -0.051467404 0.10868315 -0.04810623
000020 d8 e8 c6 3e 81 c0 e8 3d e6 19 ce bc 47 62 26 bd
       0.3884952 0.11364842 -0.025158834 -0.04062107
000030 a7 95 04 3e 2e aa 18 3c 1a cc 8b bd 3e 77 aa bd
       0.12947713 0.009317918 -0.06826039 -0.08323525
000040 f3 5d dc 3e ab 28 fd 3e 61 75 09 3d 46 af 51 bd
       0.43040428 0.4944509 0.033559207 -0.051192544
000050 8d 69 f6 bb c4 5a fe bc 6d bd 25 3d 10 e3 ce bc
       -0.007519907 -0.03104914 0.040463854 -0.025254756
000060 fb 0d cb bc 8e 62 fe bc 82 0f 3f bc e0 aa e3 bc
       -0.02478694 -0.031052854 -0.011661412 -0.02779144
000070 16 c5 2e bc 89 2b 4b 3d 6c 2f cc 3d f5 7c 2f 3e
       -0.010667106 0.049602065 0.099699825 0.17137511
000080 c4 30 53 3e a5 85 16 3b a2 aa 9f bd 98 12 96 bd
       0.20624071 0.0022967842 -0.077962175 -0.07327765
000090 44 5a 52 bc 0e 61 f6 3d 72 32 df 3e 00 18 40 bc
       -0.012838904 0.120302305 0.43593174 -0.011724472
0000a0 7a a2 f7 bc 0c 31 db 3d d4 21 bd 3e 81 1b a5 3c
       -0.030228842 0.10702714 0.3693987 0.020154716
0000b0 18 83 05 3d 29 0e 24 3d f6 b3 cc 3d 94 11 8f 3c
       0.032595724 0.040052567 0.09995262 0.017464437
0000c0 32 fa c5 3e cd 45 e7 bd ea 6c e3 3d c7 45 85 bd
       0.38667446 -0.1129261 0.11104758 -0.065074496
0000d0 50 04 8b 3e 67 3f f5 bc 8a ab 58 bd 75 05 2e bd
       0.27151728 -0.02993746 -0.052897967 -0.042485673
0000e0 16 e6 a2 3e 10 fa e5 3e c0 49 21 bd 81 91 e6 3e
       0.31816167 0.44917345 -0.039376974 0.45032886
0000f0 e8 ed 82 3c ef 0c 29 3e 72 07 b9 3d 52 06 f8 3b
       0.015982583 0.1650884 0.09034623 0.007569113
000100 fc 3c 06 bd f9 59 cb 3e c4 d5 15 bd 08 b7 3a bc
       -0.032773003 0.3971708 -0.036580816 -0.011396177
000110 b0 b8 36 3d 75 4f eb bc e0 57 3d 3d 40 e0 d1 3e
       0.044609725 -0.028724412 0.046226382 0.40991402
000120 de a9 4c bd a5 cd 61 3e a9 95 75 3d da 59 90 3e
       -0.049966685 0.22051103 0.05995718 0.2819355
000130 3d 10 01 3e c3 3c cd 3d 32 38 7e bc bc 55 2d bd
       0.1260385 0.10021355 -0.015516328 -0.04231809
000140 96 ab bc 3e 2d 2a 35 be 69 c0 d8 3e e5 f9 d5 3e
       0.3684966 -0.1769187 0.42334297 0.41792217
000150 fa 36 c7 3a 43 8b e5 3c 22 46 55 3d 34 6f af bd
       0.0015198879 0.028020507 0.052068837 -0.08566132
000160 f1 79 db 3e 90 76 0f be b1 0c 39 bd 0f f9 aa bd
       0.4286647 -0.14010072 -0.04517812 -0.083482854
000170 f0 fd 31 3d 5c 0c 88 3d 72 0d 82 3d f6 a8 09 3e
       0.043455064 0.06642982 0.06350221 0.1344336
000180 1f 77 ff 3e 2f 1f a9 3c f4 22 ce 3e 52 66 24 bd
       0.4989557 0.020644752 0.40261042 -0.040136643
000190 b8 53 ea 3c 64 d4 df 3e e7 dc 04 3e 1c 07 d7 bc
       0.028604373 0.4371673 0.12974893 -0.026248507
0001a0 d5 34 5b 3e 30 9d 87 bd 74 60 09 bb 39 c8 45 bd
       0.21406873 -0.06621778 -0.0020962032 -0.04828665
0001b0 e8 01 eb bb c9 fd 03 3e ea 14 4f bd 21 04 9f bd
       -0.007171858 0.1288978 -0.050557055 -0.077644594
0001c0 11 ad 9a bd 07 6e 11 bd 8b 93 ba bd 53 c2 a3 3d
       -0.07552541 -0.03550532 -0.09110173 0.07996049
0001d0 08 55 00 bd 42 53 0e bd b7 f1 e3 3e b8 51 23 3e
       -0.031331092 -0.03474737 0.4452035 0.15949142
0001e0 d4 04 e6 bc 76 07 9c 3d cc 68 e2 3e 5b fa bc bb
       -0.028078474 0.076186106 0.4422058 -0.0057671494
0001f0 b4 3f ff bc 6b 96 c5 bc 0f 5c 05 3f 54 ce e0 3e
       -0.031158306 -0.024119576 0.52093595 0.43907416

layer2.weight f4 [128, 128]
000000 e0 2a be bc 4a 43 c2 3c 07 af be 3c 1b 43 ad 3c
       -0.023213804 0.023713727 0.023276819 0.021150162
000010 24 53 ae 3c e7 05 88 bc ac 4f 48 bb f1 3b 97 3c
       0.021279879 -0.016604377 -0.0030565066 0.0184612
000020 25 1c b7 bc 2d c1 ec 3c 36 6f 45 3c bf 5a 1c bc
       -0.022352288 0.028900707 0.012050441 -0.00954312
000030 4d d7 9e bc 8b af bb 3c 7b f8 b7 34 25 e1 af 3a
       -0.019389773 0.022910854 3.42672e-07 0.0013418539
000040 eb 41 16 bc a5 5d ea 3c 92 ef 16 3c df ed 30 3c
       -0.0091709895 0.028609106 0.009212391 0.0107989
000050 c0 81 3e 3c 71 14 de 3c b0 a5 c2 3c 30 28 91 bc
       0.0116276145 0.027109357 0.023760647 -0.017719358
000060 1d 98 a6 bb ad da c6 3b d6 50 e3 3c 8b c3 a7 bc
       -0.0050840513 0.0060685487 0.027748507 -0.020478984
000070 b1 79 4c bc d3 ef e5 3c 40 38 36 3c 14 f1 1a 3c
       -0.012480185 0.028068459 0.0111218095 0.009456892
000080 49 8b ba bc 32 dd d5 3b 9a c6 41 3c 1f 3c 92 bc
       -0.022771494 0.0065266127 0.011827135 -0.017850934
000090 ba 25 d5 3c 68 9f 7e 3c 06 03 30 bc bf 08 99 3c
       0.026018966 0.015540935 -0.010742908 0.018680928
0000a0 48 06 29 3c 3a 3f 54 3c c3 a8 1f 3c e3 2f 79 bc
       0.010316439 0.0129545275 0.009744826 -0.015209171
0000b0 72 2b d4 3c 83 45 93 bc 0d ce da bc ba b9 d1 3c
       0.025899623 -0.017977482 -0.02670958 0.025601257
0000c0 de 1c 29 3c a9 b0 1f 3c 02 d5 de bc 41 f0 5c 3c
       0.010321824 0.009746709 -0.02720118 0.013485015
0000d0 2c bd 70 3c f7 a3 ed 3c e3 4c 78 3b 42 c7 a8 3c
       0.01469354 0.029008849 0.0037887625 0.020602826
0000e0 5d 3b ed bb fd 59 71 bc f8 b4 88 bb 8f 77 92 bc
       -0.0072397427 -0.014730928 -0.004171964 -0.017879276
0000f0 6b 3e a0 3c 27 a8 4f bb ee d8 4a 3c f6 2f 85 3c
       0.019561013 -0.003168592 0.012380822 0.016258221
000100 be a3 cc 3c 42 c2 9b bc ad 39 d7 3c 43 77 11 bc
       0.024980422 -0.019013528 0.02627262 -0.008878532
000110 ab 56 69 3c 91 f4 06 bc 7e f0 81 3b 8f eb 6c 3c
       0.014241855 -0.00823702 0.0039654365 0.014460458
000120 df f1 9d 3c 34 e0 9f 3a bf a3 94 bc 8c 60 cb 3c
       0.019280372 0.0012197555 -0.018144486 0.02482631
000130 b4 37 84 3c ac 40 bd 3c 8c 58 5a 3c 40 35 a4 bb
       0.016139843 0.023102127 0.013326775 -0.0050112307
000140 6d 04 db bc de be 82 bb b3 48 af 3c ad 64 ca bc
       -0.026735509 -0.0039900383 0.02139697 -0.02470621
000150 5f 67 e9 3b 5f da e5 bb 6b 9e 31 3c 37 87 0f ba
       0.0071229185 -0.0070145573 0.010840992 -0.00054751657
000160 21 5d a1 bc 7b 91 b0 bc 28 7f 8b 3c dd 17 d2 3c
       -0.019697728 -0.021553745 0.017028406 0.025646145
000170 c0 b5 9e bc 11 96 dd bc 0f 36 b7 3a 28 19 a8 bb
       -0.019373775 -0.027049096 0.0013977903 -0.005129952
000180 a1 8e 49 3c c1 42 7e bc e8 4f c5 bc a4 ad cc 3c
       0.012302072 -0.015518845 -0.024085954 0.024985142
000190 25 40 31 3a c5 96 0b 3a 38 db 74 bc f7 ef af 3c
       0.00067615724 0.00053248956 -0.014944844 0.021476729
0001a0 62 90 97 38 a0 fb cf bb 59 dc 63 3a 9d d0 73 bc
       7.2271345e-05 -0.0063471347 0.0008692197 -0.01488128
0001b0 7a 92 d2 bc 7b 35 ba bb 78 5a 9f 3c 34 5c 9d bc
       -0.025704611 -0.005682645 0.019452319 -0.019209005
0001c0 eb 90 03 3b eb c6 a9 bc ca 89 a3 bc a8 24 ee bc
       0.0020075392 -0.020724734 -0.019963164 -0.029070213
0001d0 e6 86 a8 bc 1a 6f 4a 3c e7 7d be 3c 73 47 91 3c
       -0.020572137 0.01235559 0.023253394 0.017734265
0001e0 18 b7 34 3c be 5f 1d bc be 77 48 bc 8f aa 1f bc
       0.011029981 -0.009605346 -0.01223558 -0.009745254
0001f0 9e 5d 97 3c bc a7 de bc 46 4a 8b 3c 77 0b 8d ba
       0.018477257 -0.027179591 0.01700319 -0.0010760863
000200 97 99 51 bb c2 bc 11 3b 9a a3 f5 bc 22 55 a2 3c
       -0.0031982416 0.0022237753 -0.029985238 0.019815985
000210 9e 7d 25 39 6a 0f 8e 3c 6b 03 91 bc 79 39 0a bc
       0.00015782422 0.017341334 -0.017701825 -0.008436554
000220 f7 38 80 bc a9 0b a2 3b 82 22 19 3b 57 2f 1d 3c
       -0.015652163 0.0049452377 0.0023366516 0.009593806
000230 86 69 a0 3c 2a 50 12 bc d8 eb c7 bc 60 ce d3 ba
       0.019581567 -0.008930245 -0.024404451 -0.0016159527
000240 eb cf 58 bc 6e 1a 15 3c 8f 27 e3 3c 59 27 3f bc
       -0.013233165 0.00910054 0.027728824 -0.011667096
000250 89 a9 bc bc d8 f2 7a bc 68 b7 e9 bc 57 e7 5b bc
       -0.02303006 -0.0153166875 -0.028529838 -0.013421855
000260 52 9d e2 bc 75 ab 37 3c 51 3e ed 3c 49 6b 87 bc
       -0.027662907 0.011210312 0.028960379 -0.01653065
000270 b5 a9 ef 3b c4 7e 35 bc 60 13 cc 3c 75 ae 71 3b
       0.007313932 -0.011077587 0.024911582 0.0036877666
000280 93 98 c7 3c b5 ba 8d 3b 83 e6 97 bc fa 9f c0 3b
       0.024364745 0.0043252357 -0.018542534 0.0058784457
000290 c7 ae 8b bb 83 16 4b b9 fd 9c 13 bc 65 b9 dc bc
       -0.0042627784 -0.00019367975 -0.009009597 -0.026943872
0002a0 b4 48 d6 ba ff e1 01 bd ef d2 18 bb ce ab a4 bc
       -0.0016348572 -0.031709667 -0.0023319086 -0.020101454
0002b0 48 cc 7c bc 6b d8 a0 bc d2 ce 04 bd 25 8e ea 3c
       -0.015429564 -0.019634446 -0.0324238 0.028632233
0002c0 4f 49 70 3c 40 e1 95 bc 02 6c 8d 3c 03 98 bd bc
       0.014665916 -0.018295884 0.017263416 -0.023143774
0002d0 44 3a b3 3c 25 49 6e bc 68 f9 e3 3a 36 56 e7 3c
       0.02187837 -0.014543806 0.0017393054 0.02823935
0002e0 c6 a1 ce 3c 3b d3 16 3c 71 f5 c6 bc ce ce ca bc
       0.025223624 0.009205635 -0.024286957 -0.024756815
0002f0 97 e2 d9 3b bc 5a 8e bb ef e7 13 bc 1a ab ab 3c
       0.006649326 -0.0043443125 -0.009027465 0.020955611
000300 0c c6 a3 bb 97 c8 63 3c 0c 4c b0 bc be f5 a2 bc
       -0.0049979743 0.013902805 -0.021520637 -0.01989257
000310 3d 29 20 bc 61 91 09 bc 4e c2 02 bb b9 b5 e1 bc
       -0.009775457 -0.008396477 -0.001995224 -0.027552472
000320 d4 98 95 3c 12 68 fa bc 1c 0e b1 bc b1 66 63 bc
       0.01826135 -0.030567203 -0.021613173 -0.013879464
000330 fa 15 d4 3b e5 e3 81 39 b8 8c 5a ba 68 a3 f5 3b
       0.0064723464 0.00024774592 -0.0008337009 0.007496286
000340 65 2e bb 3b a3 fb 69 bc ef e9 ee bb 51 40 9d bc
       0.005712318 -0.014281186 -0.0072910707 -0.019195708
000350 20 75 56 3c ee 5b 31 3c 86 a4 9e 3c 3b af 7f bb
       0.013089448 0.01082514 0.01936556 -0.0039014358
000360 b1 24 55 3c 97 8e f6 bc dc 2e bb bc 8e 9b 2e bc
       0.013009236 -0.030097289 -0.022849493 -0.010657204
000370 f5 44 8d bc 8c d2 4e bc db a7 47 bc 6d 95 13 3b
       -0.017244795 -0.0126234405 -0.012186016 0.0022519485
000380 ec 41 5d 3c e4 a8 84 3b 95 60 0a bc 2e 2d be bb
       0.0135044865 0.0040484536 -0.0084458785 -0.0058037257
000390 30 3d 15 3c 24 09 f9 3a b7 dc bb 3c 15 98 9b 3c
       0.0091088265 0.0018999917 0.022932393 0.018993417
0003a0 c2 3c 44 3c d5 2f 31 bc 49 e7 a6 3c 80 b3 7e 3c
       0.011977376 -0.010814627 0.020373957 0.015545726
0003b0 5b c0 7b 3b 2b bb 99 3c 4f 74 eb 3c 88 74 ec bc
       0.0038414213 0.018766006 0.028741984 -0.02886416
0003c0 b0 c5 97 3c e6 fa 7e bc c8 1c 14 bb 13 9f 45 3c
       0.018526882 -0.015562749 -0.0022600163 0.012061852
0003d0 3d e0 2c 3c 88 2b d9 3c 6c 17 73 bb 69 e7 5b bc
       0.010551509 0.026510015 -0.0037092818 -0.013421872
0003e0 e3 57 72 bc 4b f3 ba 3c 5c fb a7 bc 83 19 10 bb
       -0.014791462 0.02282109 -0.0205056 -0.0021987862
0003f0 32 9a 02 bc 6e 53 89 3c 22 79 fd bc b3 e3 83 ba
       -0.007971333 0.016763415 -0.03094155 -0.0010062366

layer2.bias f4 [128]
000000 3a 6d 87 bc c7 9b 94 bb 3c 48 0c 3b fa ed ee bc
       -0.016531575 -0.0045351717 0.002140536 -0.02916621
000010 ec 7b 4e 3d ac 8e 1a be 28 c9 fa 3e df a3 17 3d
       0.05041115 -0.15093488 0.48981595 0.037021514
000020 7c 52 0d bc fa 59 1e 3f 7d 90 88 3b ed b1 7c 3c
       -0.008625623 0.61856043 0.004167615 0.01542328
000030 78 85 25 3e fb 21 33 be 64 e7 8d 3d 49 fb 23 be
       0.16164196 -0.17493431 0.069289 -0.16013826
000040 f9 19 c6 3c b7 f0 d7 3e ab 0d 23 3f f8 95 ea ba
       0.024182307 0.42175838 0.6369273 -0.0017897477
000050 b8 89 a9 3e 4a 20 ea 3c d7 4e 41 3d 79 dc ff bc
       0.33112884 0.02857985 0.04719433 -0.03123306
000060 e6 5c 76 3d 57 8b e4 bc 76 5d 25 bc 2f 04 4b 3d
       0.06014719 -0.027898474 -0.010093084 0.049564537
000070 cf ea be 3e 3e b9 e9 bd 46 70 bd 3c 24 e1 eb bd
       0.3728852 -0.11412285 0.023124825 -0.115175515
000080 84 fe 8b 3c 64 26 d4 3e 92 97 bf 3e cc 79 9d 3d
       0.017089136 0.4143554 0.37420326 0.076892465
000090 3f d1 19 3d c5 f1 a3 3d ba 47 bc 3c 1f d3 ac bc
       0.03755307 0.08005098 0.02298342 -0.021096764
0000a0 96 b4 44 3e e5 0e 40 3d b1 ae b7 bc 6d 7f 00 3d
       0.19209513 0.046889205 -0.022422167 0.031371523
0000b0 fd 30 06 bd d8 ad 42 3e 6d d9 dd bc 94 0c 53 3d
       -0.032761563 0.19011629 -0.027081216 0.051525667
0000c0 df 54 12 3e 8f e6 f1 bb 8e 5d ea 3d 81 ff 91 3d
       0.14290188 -0.007382221 0.114436254 0.07128812
0000d0 72 a9 cc bc 10 90 80 3e 68 d5 31 bc 4f 3a 84 bc
       -0.024983142 0.2510991 -0.010854103 -0.016141085
0000e0 5b b0 1b 3f 8f 15 e4 bc 12 bd fb 3c 1c 72 1a bc
       0.6081597 -0.027842311 0.030729804 -0.00942662
0000f0 bf 7d 64 3d da f4 8b bd ce 9a 88 3c 9e 91 a2 3e
       0.055783983 -0.06833811 0.01667538 0.31751722
000100 eb 6d b9 3b c0 31 a9 bc 1a 43 1c 3f 18 5a 4f bc
       0.005658855 -0.020653605 0.6103989 -0.012655757
000110 c2 75 45 3d 17 57 e0 bc 7e 69 e8 3b 3f 97 40 3c
       0.048208006 -0.027385278 0.007092654 0.01175481
000120 a4 7e 68 3d b5 ef 69 bc 03 a1 e2 3e 9b 2f 63 be
       0.0567614 -0.014278342 0.44263467 -0.22186129
000130 d3 40 f4 3b f9 76 9f bc d2 35 82 bc 8c 18 45 3d
       0.0074540167 -0.01946591 -0.015894804 0.048119113
000140 76 63 74 3e 85 a7 73 3d 66 13 2a 3d 7c dc cc 3d
       0.23866066 0.05948593 0.041522406 0.100029916
000150 1e 81 06 3d 1a 2d 40 be 91 8c 85 3d 19 df 39 3e
       0.03283798 -0.18767205 0.065209515 0.18151511
000160 66 ba c7 3c eb dc cf 39 5c b0 e8 3e 9d 60 e3 3e
       0.024380874 0.00039646713 0.45447052 0.44409648
000170 cd 1a c1 bb de fb 24 3c 9d 30 ef bc 4c b9 15 3f
       -0.0058930875 0.010069815 -0.029197985 0.58485866
000180 81 ff 01 3e 9c 90 2a 3f 52 e3 a9 3e a6 bd 46 3b
       0.12695123 0.66626906 0.33181244 0.0030325442
000190 7e 72 5a 3d d7 6b 4f 3e f1 3b e8 3d 03 d8 0e 3f
       0.053331845 0.20255981 0.11339558 0.5579836
0001a0 52 d8 9e bc b2 14 28 3d e5 d5 3e bc f5 02 6a 3a
       -0.019390259 0.04103536 -0.011647676 0.0008926832
0001b0 68 bf 5b 3e 94 65 d8 bc ea aa 46 be 16 14 8d 3c
       0.21459734 -0.026415624 -0.19401136 0.017221492
0001c0 bf 61 45 be a7 7e 37 3e 4f 63 14 3d ae 3a 42 bc
       -0.19275568 0.17919408 0.03622752 -0.011854811
0001d0 b4 17 84 bc e6 17 c1 3c 08 3f 31 be 58 a6 99 bc
       -0.016124584 0.023570966 -0.17309201 -0.018756077
0001e0 d4 33 2a be b0 1f 1c 3e b3 35 b9 3e ac 48 0b bc
       -0.16621333 0.15246463 0.36173782 -0.008501213
0001f0 ba d6 b0 3e c0 39 0b 3e e5 f4 74 bc 6f 3f 85 3d
       0.34538823 0.13596249 -0.0149509655 0.065062396

layer3.weight f4 [128, 128]
000000 db 36 99 3c c9 e4 88 3b ca 65 ee bc 78 2e 54 3c
       0.018702915 0.004177664 -0.029101271 0.012950532
000010 99 c8 2f 3f b3 77 2b bf 18 88 11 c0 c1 7f 2b 3f
       0.6866546 -0.6697952 -2.2739315 0.6699181
000020 51 9c c4 bc f9 c3 ab 3e b6 9b d7 bc d8 9f ed 3c
       -0.024000319 0.33547953 -0.026319366 0.029006884
000030 48 ca f0 be 3a 0b 3b bf 08 e9 27 3f d4 54 1d bf
       -0.47029328 -0.73064005 0.6558995 -0.6145756
000040 b3 13 ae 3c 65 3e 70 3e 7c 81 a3 3e 9a 0c 5e bc
       0.021249628 0.23461302 0.31934726 -0.013552809
000050 f7 ca e3 3d 67 e9 31 3f a2 05 27 3f 3d 08 e0 3b
       0.11122697 0.6949677 0.6524297 0.0068369196
000060 a5 19 3a 3f f5 23 ed bc d6 81 dc bc 31 f3 3d 3f
       0.7269538 -0.02894781 -0.02691738 0.74199206
000070 e6 4b 26 3e d1 de 16 bf a7 86 34 bc d2 5b 10 bf
       0.1623989 -0.5893374 -0.011018432 -0.56390107
000080 d8 60 31 3c 2e 32 69 3e f9 dc 66 3e 73 9a 2e 3f
       0.010826312 0.22773048 0.22545232 0.6820442
000090 42 99 35 3f 8d 54 31 3f f8 e5 27 3f f7 ff 6e 3b
       0.7093698 0.6926964 0.6558528 0.0036468485
0000a0 06 66 2a c0 ef 3d 2e 3f 26 5f c8 bc 3e 1b 26 3f
       -2.662477 0.68063253 -0.024459433 0.6488532
0000b0 e4 ad 1a 3c 71 9b 2c c0 ae 1d d3 3b ba 81 28 3f
       0.009440873 -2.6969874 0.006442747 0.6582295
0000c0 3a 02 81 be 63 01 3e 3c 5f 64 51 be d2 e3 35 3f
       -0.2519701 0.01159701 -0.20448445 0.7105075
0000d0 ad 69 d2 3b 77 4b 45 3e d7 6e a7 3c 3e 25 8d 3c
       0.006421289 0.19267069 0.020438595 0.017229673
0000e0 62 23 ad 3e 3a c7 ec 3c 00 fd 2f 3f 9a 3a a3 bc
       0.33816057 0.028903592 0.6874542 -0.019925404
0000f0 e0 88 32 3f 7b 99 3d bf 36 78 4f 3c c7 2e 12 3e
       0.69740105 -0.7406232 0.012662938 0.14275657
000100 03 ad 8e bc fc d9 cc bb 3a 54 a4 3e 70 09 8f 3c
       -0.017416483 -0.0062515717 0.3209551 0.017460555
000110 b4 f8 3c 3f 3d 59 f3 3c 9b 53 11 3c 1b dd 33 3f
       0.7381699 0.029705638 0.008870031 0.70259255
000120 5d b3 3a 3f c4 fb d3 3c 79 d4 90 3e 2c e2 38 bf
       0.72929937 0.025876887 0.28287104 -0.7222011
000130 9a 56 27 bc 4c 4c bc bc b4 5c 95 3c b0 67 38 3f
       -0.0102135185 -0.0229856 0.01823268 0.72033215
000140 ca 90 29 c0 2a 57 33 3f 77 35 31 3f 46 6e 34 3f
       -2.6494622 0.70054877 0.69222206 0.70480764
000150 60 bc 2e 3f 93 b2 34 bf de 48 41 3f 98 50 7f be
       0.6825619 -0.7058498 0.7550181 -0.24933088
000160 19 29 92 3c 0b 3b c8 bc c2 39 13 c0 4a 66 8e 3e
       0.017841863 -0.024442216 -2.3004003 0.27812415
000170 de 64 19 bb fd a5 27 3f 0c 72 7d 3c a5 2f a2 3e
       -0.0023406069 0.65487653 0.015469085 0.31676975
000180 41 fc c2 bf cb 3e af 3e 5a 8a 2f 3e 45 88 a4 3c
       -1.5233232 0.34227595 0.1714262 0.02008451
000190 93 46 2b 3f 24 b2 2c c0 c4 51 3a 3f 56 28 8e 3e
       0.6690456 -2.6983728 0.72781014 0.2776515
0001a0 0d 80 af bc a5 3c 39 3f 6c 43 96 3c 79 ae ba bc
       -0.021423364 0.7235816 0.018342696 -0.022788273
0001b0 16 bc 1d 3e bf bb 74 3c f4 95 2e bf a4 ea cc b9
       0.1540378 0.01493734 -0.6819756 -0.00039084733
0001c0 86 2d 3a bf 32 19 5e be 18 8b 28 3f c0 48 30 bb
       -0.72725713 -0.21689299 0.6583724 -0.002689883
0001d0 88 19 97 3c fe 5b e3 bb b0 ff 32 bf f7 44 3c 3c
       0.018444791 -0.0069384566 -0.699214 0.011491052
0001e0 cc e2 28 bf 6b 49 2e c0 4a d1 75 3e 52 9c 19 3c
       -0.65971065 -2.723231 0.24005619 0.009375649
0001f0 63 1c 0e 3e f4 74 34 3f 76 b8 81 3a 7c 25 2b 3f
       0.13878016 0.70490956 0.0009896893 0.6685407
000200 b9 cb a0 bc 73 a1 7b 3c 75 f8 b7 bb dd 0f 08 bc
       -0.019628393 0.015358317 -0.005614335 -0.008304563
000210 42 7c 38 3f 73 32 32 bf 97 3e 06 c0 2e 97 25 3f
       0.720646 -0.6960823 -2.0975702 0.64683807
000220 cb fb 88 bc 2b cc 9b 3e 82 b0 cb 3c b3 0e 4d bc
       -0.016721627 0.30429205 0.024864439 -0.012515712
000230 5a 7c f8 be 5c 2c 42 bf b9 00 2b 3f fa 51 25 bf
       -0.48532373 -0.7584894 0.6679798 -0.6457821
000240 8f dc 37 3b ab 47 6f 3e 00 50 a0 3e ef 58 12 3c
       0.0028055047 0.23367183 0.31311035 0.008932336
000250 54 cc 05 3e 19 10 27 3f b6 56 22 3f ef 08 a2 bc
       0.13066226 0.6525894 0.6341356 -0.01977965
000260 5f 04 30 3f d5 37 a2 bb 93 a8 80 bc 6e 58 39 3f
       0.6875667 -0.0049505034 -0.015705382 0.7240056
000270 3e 4c 2a 3e 93 46 18 bf 25 c9 72 3c bf 1b 1d bf
       0.16630647 -0.5948269 0.014818464 -0.6137046
000280 0c 95 fe ba dc 24 58 3e b6 91 4a 3e 06 e2 30 3f
       -0.0019423082 0.2110781 0.19782147 0.69094884
000290 64 93 2b 3f 21 b4 35 3f c9 37 28 3f 21 a0 a3 3b
       0.67021775 0.7097798 0.6571012 0.004993454
0002a0 07 54 24 c0 5e e6 32 3f 57 5b c4 bb f6 af 21 3f
       -2.5676286 0.6988276 -0.005992334 0.6315912
0002b0 11 48 6c 3c a1 84 26 c0 da 61 c2 bc b8 9f 33 3f
       0.014421479 -2.601845 -0.0237283 0.70165586
0002c0 a6 8e 4a be 39 61 94 3b 1b 87 2e be 1a 08 2d 3f
       -0.19780979 0.0045281914 -0.17043726 0.67590487
0002d0 8f 33 b4 3c df 9b 40 3e 27 b2 ec 3b 95 60 12 3c
       0.021997241 0.1880946 0.007223386 0.00893416
0002e0 06 74 af 3e 7a 08 58 3c 90 8f 2d 3f 99 46 aa bc
       0.34268206 0.013185615 0.67797184 -0.020785617
0002f0 b3 51 39 3f 58 43 47 bf 69 4a 4a bc 7b d0 12 3e
       0.7239029 -0.77837133 -0.012346842 0.14337341
000300 ff 36 9c bc 6b 67 c8 bc e5 1d a0 3e 4d f1 ed 3c
       -0.019069193 -0.024463376 0.31272808 0.029045725
000310 d7 3a 3a 3f 83 1e 3b 3b bd f3 4d 3c 6b 42 2b 3f
       0.7274603 0.0028552122 0.012570319 0.6689822
000320 30 0e 2e 3f 1d a3 af bc e2 91 84 3e 44 1d 44 bf
       0.679904 -0.021440083 0.2589255 -0.76607156
000330 19 99 1f bc de a4 d0 3c d8 b3 ca 3c b9 58 2c 3f
       -0.009741091 0.02546924 0.02474396 0.6732288
000340 fc 86 20 c0 77 4f 37 3f 1e 19 2e 3f 07 5b 3b 3f
       -2.5082388 0.7160563 0.68007076 0.7318577
000350 f4 aa 2f 3f 2b f2 36 bf d5 cc 3a 3f 67 f1 76 be
       0.6862023 -0.7146327 0.729688 -0.24115525
000360 50 04 c7 3c 06 2a 02 bc 1f 6d 08 c0 c8 af 59 3e
       0.024294049 -0.0079445895 -2.1316602 0.21258461
000370 29 f3 64 bc 6e fe 2f 3f 70 cd e5 bc 3d 0e a3 3e
       -0.0139739895 0.68747604 -0.028052062 0.318468
000380 4b 22 bc bf ee 23 a7 3e 1f 2a 08 3e 31 33 16 bc
       -1.4697965 0.326446 0.13297318 -0.009167478
000390 4b 29 2f 3f 77 6d 25 c0 3e 62 3e 3f aa f5 97 3e
       0.68422383 -2.5848062 0.74368656 0.29679614
0003a0 ae e8 50 3c 27 4a 2c 3f 15 42 37 3c 16 b0 28 bc
       0.012750788 0.6730065 0.011185189 -0.010295888
0003b0 79 2f 2b 3e 62 2f 99 39 3b 13 3f bf 55 65 c1 3c
       0.16717328 0.00029217737 -0.7463872 0.02360789
0003c0 5d ea 42 bf 89 45 81 be 08 f8 29 3f 9f 8d 0b bc
       -0.7613886 -0.25248364 0.6639409 -0.008517652
0003d0 37 26 84 3c f3 1c 95 3b 94 cd 3a bf 9e ce 68 3a
       0.016131504 0.00455057 -0.7296994 0.0008880886
0003e0 1a 50 31 bf 08 89 25 c0 8e 22 6c 3e 15 7b 57 3c
       -0.6926285 -2.5864887 0.23060057 0.013151904
0003f0 d6 52 18 3e 56 72 3e 3f e3 8a 87 3b 3c 76 2f 3f
       0.1487535 0.7439321 0.0041364296 0.68539786

layer3.bias f4 [128]
000000 26 b1 c6 3e 53 13 bb 3e 87 b5 bc 3e 8f 83 e1 3e
       0.3880703 0.3653818 0.36857244 0.44045684
000010 1b b0 ab bb 28 50 a7 bc db 66 cb 3e 1a 6b 04 bc
       -0.0052394993 -0.020423964 0.3972691 -0.008082176
000020 1a cc 6e 3e 22 6f 3f 3e a6 20 62 bc 96 71 19 3e
       0.23320046 0.18694738 -0.013801729 0.14984736
000030 ee de 06 bd 34 5c f0 3e 98 46 f5 bc d3 bb d0 3b
       -0.032927446 0.46945345 -0.029940888 0.0063700466
000040 f8 54 be 3e 9a 8e 04 3c 03 32 eb ba 4e 05 a1 3e
       0.371742 0.0080906395 -0.0017943982 0.3144936
000050 d4 16 ca 3e f6 bb d4 3e 86 d2 a5 3c f8 de c3 3e
       0.3947054 0.41549653 0.020241987 0.3825605
000060 93 2e 40 bb ad 6d 00 3f 9c 45 cc 3c ec 2a d5 bc
       -0.0029324635 0.5016735 0.024935536 -0.026021443
000070 fc c2 9f 3e 36 08 b6 3e 9d 4d df 3e 4d 49 bf bc
       0.3120345 0.3555314 0.43613902 -0.023350382
000080 bf d8 bd 3e dd 23 a8 3c 58 57 33 3c ab 35 80 3b
       0.37079427 0.020524913 0.010946117 0.0039126477
000090 af af 30 bc 8c 5b c1 bb 65 9b 85 3a db 67 54 bc
       -0.010784074 -0.005900806 0.0010193406 -0.012964214
0000a0 91 11 d7 3e 18 d2 9f 3e 44 72 24 3e 89 0a cf 3e
       0.4200559 0.31214976 0.16059214 0.40437725
0000b0 71 63 8a bb 97 e7 a0 3e 6e 41 bf 3e 40 5c d3 3e
       -0.00422328 0.3142669 0.37354606 0.4128132
0000c0 9c a6 a3 3e 5d 4d fd bc 4e 70 cd bc 54 97 54 3b
       0.3196305 -0.030920679 -0.025077965 0.0032438831
0000d0 c5 34 36 bc b3 e8 1d bb 00 db 53 3e 32 51 c1 3e
       -0.01112098 -0.0024094998 0.2068901 0.3775726
0000e0 3c 85 cf 3e d4 44 9d 3e a6 5f 96 3e e7 50 c2 3e
       0.40531337 0.30716574 0.2936985 0.3795235
0000f0 7f 6a 99 3e 17 99 92 bc 3d 37 b9 3c c4 b6 af 3e
       0.29964063 -0.017895265 0.022609347 0.34319127
000100 4d 1d 37 bc 13 53 9f 3e ec d3 c9 3e 95 85 1a bc
       -0.011176419 0.31118068 0.39419496 -0.0094312625
000110 86 3c 40 bc cf c4 b1 3c a5 ae 6b bc 40 6f 82 bc
       -0.01173318 0.021700291 -0.0143849 -0.015922189
000120 08 9e c4 3e 4c 85 95 3e 73 e2 94 3e cf 53 ed bc
       0.38401818 0.2920326 0.29079017 -0.028970627
000130 0b 65 c1 3e 5c 48 f2 3e 4b a4 21 3e 9d e4 d2 3c
       0.37772402 0.4732083 0.15785329 0.025743777
000140 e2 7a b9 3e db 96 ab 3c d7 97 c8 3e 9f b1 c9 3e
       0.36226565 0.020945957 0.39178345 0.39393327
000150 ee c7 82 3c 88 8e 86 3e 30 2c c4 3e 41 48 c1 3e
       0.015964475 0.26280618 0.38314962 0.37750438
000160 d1 01 c0 3e 6c ca 99 3c da 11 e6 bc c0 c6 d6 3e
       0.37501386 0.01877328 -0.028084684 0.4194851
000170 ef 36 ca 3e 4a c6 e6 3e 92 04 b0 3e 99 25 cc 3e
       0.39495036 0.45073158 0.34378487 0.39872435
000180 9d e9 a9 3e 15 71 ce 3e 41 00 d0 bc 11 9b bc 3e
       0.33186045 0.4032065 -0.025390746 0.36837056
000190 9e ef c4 3e 56 ef 83 3c c6 04 9e 3e 10 06 d0 3e
       0.38464063 0.016105335 0.30863017 0.40629625
0001a0 75 a6 97 3e f9 82 cc 3e 9b 37 c4 3e a0 4d c5 3e
       0.29619184 0.39943674 0.38323674 0.38535786
0001b0 00 f6 62 3e 01 a5 bd 3e 34 08 bd 3e 8c 91 f5 3e
       0.22164154 0.3703995 0.3692032 0.47962606
0001c0 ea 33 c8 bc fc 57 e0 bc 45 51 a7 3e aa 06 e0 3e
       -0.024438817 -0.027385704 0.3267919 0.43755084
0001d0 cf 16 8c bc f3 d9 1c 3c 37 b7 cc 3e d9 3f 96 3e
       -0.01710072 0.0095734475 0.39983532 0.29345587
0001e0 e7 07 cf 3e 0a 53 9c 3e 6a 4f cd 3e 7c 08 8a 3e
       0.40435717 0.30532104 0.4009965 0.26959598
0001f0 6f 11 8f 3e ca 3c a0 3e ce 66 b4 3e fb 93 be 3e
       0.27942988 0.31296378 0.35234684 0.37222275

output_layer.weight f4 [9, 128]
000000 e6 0c 2b 3e b3 d4 34 3e 4a af fb 3d ec 2c 98 be
       0.16704139 0.17659263 0.12289293 -0.29721773
000010 0a a6 82 bc c8 92 9d bc ae af e2 3d c3 e9 9b 3c
       -0.015948314 -0.01923503 0.110686645 0.019032365
000020 4c 95 c2 3e c5 e1 d9 3e 48 ee ac 3c ba 9a de 3e
       0.3800453 0.4255506 0.021109715 0.43477422
000030 75 25 14 3c 27 fd 89 be 88 89 53 bc db cb a4 3b
       0.009042134 -0.26950952 -0.012911208 0.0050291843
000040 25 48 1a 3e cb 5b 8f bc 12 d9 9e 3c ac 39 5f bf
       0.15066583 -0.017499825 0.019390617 -0.87197375
000050 1e 47 89 3d a2 27 1b bf 55 4f a6 3c ee 03 df 3d
       0.06703018 -0.6060735 0.0203015 0.108894214
000060 1c a0 04 3c 4e c2 64 be ea 4a d3 bc ab 22 db 3c
       0.008094814 -0.22339746 -0.025792558 0.02674993
000070 d2 70 66 bf 58 9d a9 3c de 53 b7 be 9a 88 a8 3c
       -0.900159 0.02070491 -0.35806173 0.02057295
000080 61 94 dc 3d fa 54 bd bc 93 3d bd 3c 19 3d 48 3c
       0.107704885 -0.023111809 0.02310065 0.012221598
000090 2e 27 81 3c e8 67 24 3b 23 30 f3 3a e4 62 bd 3c
       0.015765753 0.0025086347 0.0018553775 0.023118444
0000a0 bb 61 40 3e bd 79 5b bf 04 28 cf 3e 48 56 fa 3d
       0.18787281 -0.8573263 0.40460217 0.12223488
0000b0 d3 74 c5 bc 73 4d 89 bf 47 e5 e2 3d 82 22 2b 3e
       -0.024103558 -1.0726761 0.110788874 0.16712382
0000c0 cf 3e 5b bf f3 dc 8d bc 8b 5d 62 bc ed 41 aa bc
       -0.85642713 -0.01731727 -0.013816248 -0.020783389
0000d0 a4 40 d9 bc 7c 44 83 bc de 47 4b bf 34 4a 45 3e
       -0.02652008 -0.016023867 -0.79406536 0.19266587
0000e0 62 6f 3a 3e 8f 99 54 bf 42 5a 61 bf 84 da 1f 3e
       0.18206552 -0.8304681 -0.8802835 0.15610701
0000f0 fc e0 5d bf cf 2b ad bb ef f0 cf bc 19 22 63 bf
       -0.86671424 -0.0052847634 -0.02538344 -0.88723904
000100 6a d8 a5 bc 78 b9 65 bf 62 53 21 3e f5 ca 6a 3c
       -0.020244796 -0.8973613 0.15754464 0.014330615
000110 78 fb f3 3b 06 90 29 3c 42 47 a9 bc d3 68 28 3b
       0.007445749 0.010349279 -0.020663861 0.0025697246
000120 41 31 2b 3e 99 bf 4c bf 49 08 5f bf 3a 02 a7 bc
       0.16718008 -0.79979855 -0.8712202 -0.020386804
000130 86 fb 00 3e 3c 4b 67 be cb 8e d6 3e f7 5b 64 bc
       0.12595949 -0.22587293 0.41905817 -0.013937942
000140 a4 97 1d 3e 21 02 94 bc d2 25 dd 3d 21 99 45 3e
       0.15389878 -0.018067421 0.10798229 0.19296695
000150 34 98 03 bc 86 f8 8d bf 8f d0 2e 3e 77 50 0d 3e
       -0.0080318935 -1.1091468 0.17071746 0.13800226
000160 4a 9f 2c 3e 49 40 a6 3c bc 0f ae 3c bc 3c 25 3e
       0.16857639 0.020294325 0.021247737 0.1613645
000170 44 f9 46 3e fb 8c a5 be 22 39 22 3e 5b 55 40 3e
       0.19431025 -0.32334122 0.15842107 0.1878256
000180 74 68 1b 3e da e6 38 3e 72 3f 19 3c 32 b3 12 3e
       0.15176564 0.18056813 0.009353505 0.1432617
000190 29 30 2c 3e 69 71 0d bc 28 a9 96 bf e0 c7 30 3e
       0.16815247 -0.008632996 -1.1770372 0.17263746
0001a0 97 86 45 bf b8 8d 1e 3e ad 86 2d 3e be 31 ea 3d
       -0.7715849 0.15483749 0.16945906 0.11435269
0001b0 b2 c9 da 3e bb 98 4c 3e 98 f6 2b 3e 06 b8 65 be
       0.42732006 0.19980137 0.16793287 -0.2243348
0001c0 34 a8 c2 3c cb bc 41 3c bf 97 76 bf 9a 4e 75 be
       0.023761846 0.011824797 -0.96325296 -0.23955765
0001d0 8f 76 a1 3b 8d 3f 90 3b 16 4b 44 3e d6 c5 53 bf
       0.0049274634 0.004402107 0.19169268 -0.8272375
0001e0 92 e9 bc 3d 7e 38 61 bf 71 b4 3b 3e aa cc 82 bf
       0.092242375 -0.87976825 0.18330552 -1.0218709
0001f0 7a 24 60 bf 51 60 7c bf 02 32 5e bf f9 6d 35 3e
       -0.8755566 -0.9858447 -0.86795056 0.17717732
000200 c3 4f 2f 3e 59 83 1f 3e c2 9e 01 3e e3 b0 64 be
       0.1712027 0.15577449 0.12658218 -0.22333102
000210 e1 42 80 3c c4 77 ce 3c 42 62 1a 3e bd ca c1 3b
       0.01565689 0.025203593 0.15076545 0.005914061
000220 29 0d 08 3f 33 2a 23 3f 6d 96 0b bc 22 99 1c 3f
       0.5314508 0.63736266 -0.008519751 0.6117116
000230 a2 dd 52 3c 6e 9c 75 be 04 ff 8b bc 91 23 b7 3c
       0.012870224 -0.23985454 -0.017089374 0.022355827
000240 4a 39 20 3e 59 0d 2c bc c9 9f 2c 3c 08 d6 5f bf
       0.15646854 -0.010501229 0.010536143 -0.8743596
000250 64 68 f6 3d 45 5c ee be 07 fb 98 3a e5 d5 12 3e
       0.1203163 -0.4655477 0.0011671492 0.14339407
000260 61 d0 bd 3c 94 dc 4f be fb c9 dd 3c 20 96 ce 3c
       0.023170652 -0.20298988 0.02707385 0.02521807
000270 d4 f4 62 bf 1f 63 bf 3d 92 f3 85 be 15 bd 67 b9
       -0.8865483 0.09345078 -0.26162392 -0.00022100315
000280 8f 62 41 3e 5b d9 a1 bc a9 11 8a bc 63 d4 97 3c
       0.18885253 -0.019756963 -0.016854124 0.018533891
000290 5c 9d e5 bc d3 1b b6 bb 46 f4 cf 3c 75 92 5d 3b
       -0.028029136 -0.005557516 0.025385033 0.003380922
0002a0 9f 87 43 3e da 22 57 bf 48 f2 17 3f ad 51 15 3e
       0.19094704 -0.84037554 0.59354067 0.14581938
0002b0 df 99 e6 3c d1 ec 87 bf f6 90 1e 3e 05 f0 0b 3e
       0.028149543 -1.0619146 0.15484986 0.13665779
0002c0 e2 08 5b bf 7e c5 d9 3c 5b 5d 09 ba f3 04 94 bb
       -0.8556043 0.02658343 -0.00052400463 -0.0045171916
0002d0 7d 02 a8 bc 6c 85 b8 3b 8a c4 15 bf 72 60 51 3e
       -0.020508999 0.0056311395 -0.5850302 0.20446947
0002e0 bf 0b 35 3e a9 ad 4b bf ec 48 68 bf 95 e9 36 3e
       0.17680262 -0.7956186 -0.9073627 0.17862542
0002f0 b6 93 58 bf 04 1e d0 bc f5 47 92 39 0c f5 56 bf
       -0.8460039 -0.025404938 0.00027900902 -0.8396766
000300 ce 29 d2 bc 74 70 56 bf 66 81 20 3e 2e 4c 29 3c
       -0.0256547 -0.8376534 0.15674362 0.010333104
000310 6a 8a 86 ba 02 df a2 3c 3d ab b6 bb b9 98 9c 3c
       -0.0010264639 0.019881729 -0.0055746124 0.019115793
000320 ca 16 21 3e 14 4d 51 bf 4c fe 63 bf 48 19 5a 3c
       0.1573135 -0.81758237 -0.890599 0.013311692
000330 e2 6e 3c 3e fa 48 64 be c9 0a 22 3f 72 1a 8e bc
       0.18401673 -0.22293463 0.63297707 -0.017346594
000340 4f f8 26 3e 30 04 17 3b a9 10 16 3e b3 d6 10 3e
       0.1630566 0.0023043267 0.14654793 0.14144401
000350 1c 10 be bc 73 b0 84 bf a4 cf 2b 3e 0d ba 45 3e
       -0.02320104 -1.0366348 0.16778427 0.19309254
000360 cb ec 35 3e 56 cf 4c bc 37 47 6a 3c 47 da 4f 3e
       0.1776611 -0.012500605 0.0142992055 0.2029811
000370 e8 a7 35 3e 44 11 87 be d6 76 44 3e 78 f2 5a 3e
       0.17739832 -0.2638036 0.19185957 0.21381557
000380 4f 3a 11 3e dc 6d 3a 3e 9a c1 cd bc 9c da 1e 3e
       0.14182399 0.1820597 -0.02511673 0.1551308
000390 36 60 51 3e 46 57 e0 bc 4f 35 88 bf 3c 36 41 3e
       0.20446858 -0.027385365 -1.0641268 0.18868345
0003a0 c6 15 47 bf 15 b2 2b 3e 6d 22 2e 3e 7a 4b 27 3e
       -0.777676 0.16767152 0.1700532 0.16337386
0003b0 23 ad 15 3f 82 fb 31 3e df 3e 4f 3e d2 58 51 be
       0.5846731 0.17381099 0.20238827 -0.20444039
0003c0 99 b1 7f bc d6 0c 5e bc 5e 3c 6d bf b5 c9 21 be
       -0.015606307 -0.013552865 -0.9267024 -0.15799601
0003d0 5f 38 5c 3c ff 70 48 bc f5 e4 3b 3e 2c bd 5d bf
       0.013441174 -0.012233972 0.18349059 -0.8661678
0003e0 2b 13 18 3e 12 07 5c bf 96 7b 52 3e bc 48 77 bf
       0.14851062 -0.8594829 0.20554957 -0.9659536
0003f0 c8 fd 5b bf be 1d 77 bf 74 ea 5a bf 3b 8e 34 3e
       -0.85934114 -0.9652976 -0.85514 0.17632382

output_layer.bias f4 [9]
000000 41 07 65 be bb 50 13 be bd f6 9d 3b 8e 7a 0c bc
       -0.22366048 -0.14386265 0.0048206733 -0.008574141
000010 1c d9 b4 bb 84 02 0f bd a0 35 2a bc fe 0f 03 be
       -0.0055190455 -0.03491451 -0.010388762 -0.1279907
000020 1e 32 b0 be
       -0.34413236
